Class-2/graph-pes-results/train-NequiP/checkpoints/last.ckpt (torch, 135907 bytes, 81 tensors)

model.models.offset._offsets f4 [119, 1]
0	0x00000000	0.0
1	0x00000000	0.0
2	0x00000000	0.0
3	0x00000000	0.0
4	0x00000000	0.0
5	0x00000000	0.0
6	0xc3145062	-148.314
7	0x00000000	0.0
8	0x00000000	0.0
9	0x00000000	0.0
10	0x00000000	0.0
11	0x00000000	0.0
12	0x00000000	0.0
13	0x00000000	0.0
14	0x00000000	0.0
15	0x00000000	0.0
16	0x00000000	0.0
17	0x00000000	0.0
18	0x00000000	0.0
19	0x00000000	0.0
20	0x00000000	0.0
21	0x00000000	0.0
22	0x00000000	0.0
23	0x00000000	0.0
24	0x00000000	0.0
25	0x00000000	0.0
26	0x00000000	0.0
27	0x00000000	0.0
28	0x00000000	0.0
29	0x00000000	0.0
30	0x00000000	0.0
31	0x00000000	0.0
32	0x00000000	0.0
33	0x00000000	0.0
34	0x00000000	0.0
35	0x00000000	0.0
36	0x00000000	0.0
37	0x00000000	0.0
38	0x00000000	0.0
39	0x00000000	0.0
40	0x00000000	0.0
41	0x00000000	0.0
42	0x00000000	0.0
43	0x00000000	0.0
44	0x00000000	0.0
45	0x00000000	0.0
46	0x00000000	0.0
47	0x00000000	0.0
48	0x00000000	0.0
49	0x00000000	0.0
50	0x00000000	0.0
51	0x00000000	0.0
52	0x00000000	0.0
53	0x00000000	0.0
54	0x00000000	0.0
55	0x00000000	0.0
56	0x00000000	0.0
57	0x00000000	0.0
58	0x00000000	0.0
59	0x00000000	0.0
60	0x00000000	0.0
61	0x00000000	0.0
62	0x00000000	0.0
63	0x00000000	0.0
64	0x00000000	0.0
65	0x00000000	0.0
66	0x00000000	0.0
67	0x00000000	0.0
68	0x00000000	0.0
69	0x00000000	0.0
70	0x00000000	0.0
71	0x00000000	0.0
72	0x00000000	0.0
73	0x00000000	0.0
74	0x00000000	0.0
75	0x00000000	0.0
76	0x00000000	0.0
77	0x00000000	0.0
78	0x00000000	0.0
79	0x00000000	0.0
80	0x00000000	0.0
81	0x00000000	0.0
82	0x00000000	0.0
83	0x00000000	0.0
84	0x00000000	0.0
85	0x00000000	0.0
86	0x00000000	0.0
87	0x00000000	0.0
88	0x00000000	0.0
89	0x00000000	0.0
90	0x00000000	0.0
91	0x00000000	0.0
92	0x00000000	0.0
93	0x00000000	0.0
94	0x00000000	0.0
95	0x00000000	0.0
96	0x00000000	0.0
97	0x00000000	0.0
98	0x00000000	0.0
99	0x00000000	0.0
100	0x00000000	0.0
101	0x00000000	0.0
102	0x00000000	0.0
103	0x00000000	0.0
104	0x00000000	0.0
105	0x00000000	0.0
106	0x00000000	0.0
107	0x00000000	0.0
108	0x00000000	0.0
109	0x00000000	0.0
110	0x00000000	0.0
111	0x00000000	0.0
112	0x00000000	0.0
113	0x00000000	0.0
114	0x00000000	0.0
115	0x00000000	0.0
116	0x00000000	0.0
117	0x00000000	0.0
118	0x00000000	0.0

model.models.many-body.initial_node_embedding._embeddings f4 [119, 16]
0	0x3f3f0eed	0.7463215
1	0x3ee79280	0.45228958
2	0x3d812c03	0.06307223
3	0x3f36c408	0.7139287
4	0x3ee7347b	0.45157227
5	0xbd84bf04	-0.06481746
6	0x3f6013eb	0.8753039
7	0xbf9b5d8c	-1.2137923
8	0x3f1f72ea	0.6228472
9	0x3f05d049	0.5227094
10	0xbf864421	-1.0489541
11	0x3f363ce9	0.7118669
12	0x3fb1ba01	1.3884889
13	0xbe7c2168	-0.24622118
14	0x3f8f2846	1.1184165
15	0xbf472c4d	-0.7780197
16	0xbb89cac9	-0.004205082
17	0xbeca1c7c	-0.39474857
18	0x3e82705f	0.25476357
19	0x3f64df9c	0.894037
20	0x3f8a7a1e	1.0818517
21	0x3ecdd207	0.401993
22	0x3e819140	0.2530613
23	0x3e564298	0.20923841
24	0x3e824c78	0.25448966
25	0xbf189b4a	-0.5961195
26	0xbf9bbca3	-1.2166942
27	0x3f9162b6	1.1358249
28	0xbe2a91d1	-0.16657187
29	0x3ec925aa	0.39286548
30	0x3dbb15d4	0.09135023
31	0x3ed42a99	0.4143875
32	0xbcc15a6e	-0.02360269
33	0x3f8b18bb	1.0866922
34	0xbe2b231c	-0.16712612
35	0x3e72d228	0.23712981
36	0x3f120bd9	0.5704933
37	0xbf07c97f	-0.53041834
38	0xbded4642	-0.11585666
39	0xbf1201b9	-0.5703388
40	0xbf25b22a	-0.6472498
41	0xbfbf6221	-1.4951822
42	0xbe50eb7e	-0.20402333
43	0xbe4c9914	-0.1998027
44	0xbefde6e0	-0.49590206
45	0xbe9f528c	-0.31117666
46	0x3f6e1756	0.9300436
47	0xbeeb676d	-0.45977345
48	0xbf874ab3	-1.0569671
49	0xbf94a400	-1.1612549
50	0xbf6ff595	-0.93734103
51	0x3f172ae4	0.5904982
52	0xbd4b3f22	-0.049620755
53	0x3ecb411a	0.39698106
54	0x3fb5f8c1	1.4216539
55	0x3f044d1e	0.5168017
56	0xbe2d7af6	-0.16941437
57	0x3ef14db8	0.47129607
58	0xbfbe91b0	-1.488821
59	0xbdf678dc	-0.12034771
60	0xbf23edff	-0.6403503
61	0x3d4b2ecc	0.049605176
62	0x3ef1fd6c	0.47263658
63	0x3f831591	1.0240957
64	0xbd0758cd	-0.03304367
65	0x3ed11984	0.4083978
66	0x3ded5e83	0.11590292
67	0x3fbd68e3	1.4797634
68	0xbe284f43	-0.16436486
69	0xbeedf3cf	-0.46475074
70	0x3ddfbb70	0.10924423
71	0xbccab721	-0.024745526
72	0xbf383f79	-0.7197185
73	0x3d260a4e	0.04053717
74	0xbe3132fb	-0.17304604
75	0xbf1cf457	-0.61310333
76	0xbdc00837	-0.09376567
77	0x3e5e035c	0.21680969
78	0xbfe3f846	-1.7810142
79	0xbf73caf4	-0.95231557
80	0xbf2cad09	-0.6745153
81	0x3e1f6463	0.15565638
82	0xbede69ab	-0.43439993
83	0xbf5e4b89	-0.8683401
84	0x3f994cff	1.1976622
85	0xbe8ac13f	-0.2710056
86	0xbec91ad4	-0.3927828
87	0xbc3bc818	-0.01146128
88	0x3e885c21	0.2663279
89	0xbf140400	-0.57818604
90	0x3f3e105e	0.74243724
91	0xbf8d051f	-1.1017188
92	0x3d08262a	0.03323952
93	0xbeda367a	-0.42619687
94	0xbfb4810a	-1.410188
95	0x3ed09f12	0.4074636
96	0x3f123e4d	0.57126313
97	0xbf630914	-0.8868573
98	0x3f9d5572	1.2291701
99	0xbe13bafc	-0.14426798
100	0x3f64827a	0.8926159
101	0x3f190866	0.5977844
102	0x3fb178e4	1.3865018
103	0x3f551d58	0.832479
104	0x3deee748	0.11665207
105	0xbf8fcc14	-1.1234155
106	0x3f20a2d1	0.6274844
107	0xbf0fce52	-0.56174195
108	0xbfcea222	-1.6143229
109	0xbebb0d71	-0.36533692
110	0x3e717a14	0.23581725
111	0x3ec3ac7b	0.3821753
112	0x4009872c	2.1488752
113	0xbf170716	-0.5899519
114	0x3dd2fb61	0.10301853
115	0x3f4bc3b4	0.79595494
116	0x3e7490fa	0.23883429
117	0x3f240267	0.64066166
118	0x3fe32bb5	1.7747713
119	0x3f8d7f90	1.1054554
120	0x3f694ba2	0.9113103
121	0xbf86f291	-1.0542775
122	0x3e3d4c96	0.18486246
123	0x3fe76c67	1.8079957
124	0x3f4a94f1	0.79133517
125	0x3f287a84	0.65811944
126	0xbf046666	-0.5171875
127	0x3f16b392	0.5886775
128	0xbef1409e	-0.47119612
129	0xbf02dda0	-0.5111942
130	0x3f6380cb	0.888684
131	0xbd0af9d9	-0.03392968
132	0x3f4a5b30	0.7904539
133	0x3e0a404e	0.13501093
134	0xbe89f7e9	-0.26946953
135	0x3fceafcb	1.6147398
136	0xbe785f9f	-0.24255227
137	0xbde87843	-0.11351063
138	0x3f2ad22e	0.6672696
139	0x3f1ff6fe	0.62486255
140	0x40019453	2.024678
141	0x3e93cefc	0.28868854
142	0xbf04c722	-0.5186635
143	0x3ef2cbec	0.47421205
144	0xbf93fe0f	-1.1561908
145	0x3ed9001d	0.423829
146	0xbd19d605	-0.03755762
147	0xbf649b44	-0.89299417
148	0xbf812205	-1.0088507
149	0x3f94a333	1.1612304
150	0x3e6c0f0b	0.23052613
151	0xbf7bd433	-0.98370665
152	0xbf90080f	-1.1252459
153	0xbf209d45	-0.62739974
154	0xbe0c267a	-0.13686553
155	0x3ef03f9f	0.4692354
156	0xbf192466	-0.59821165
157	0x3f614377	0.8799357
158	0x3f2ae4dc	0.6675546
159	0xbf79f1ec	-0.9763477
160	0x3f8bf592	1.0934317
161	0x3cce5ab3	0.025189733
162	0x3eecd418	0.46255565
163	0x3ec4501e	0.38342375
164	0xbf4d5a36	-0.80215776
165	0xbfb41fb1	-1.4072171
166	0xbda6279b	-0.08113023
167	0x3f052381	0.520073
168	0x3f4649cd	0.7745636
169	0xbefb4e4c	-0.49083173
170	0xbcc807f1	-0.02441785
171	0x3f05c51c	0.5225389
172	0xbfc7c1f7	-1.5606068
173	0xbf43946f	-0.76398367
174	0x3e9aee18	0.30259776
175	0x3e525cfd	0.20543285
176	0x3f941749	1.1569606
177	0x3e1faa80	0.15592384
178	0xbf4ca59f	-0.7994022
179	0x3f934857	1.1506451
180	0x3e0992a7	0.1343485
181	0x3e5cdbe7	0.21568261
182	0xbfba7f12	-1.4570029
183	0x3e76eaea	0.2411305
184	0xbefc960d	-0.4933323
185	0x3e2a98a9	0.16659798
186	0xbea7ddc9	-0.32786396
187	0x3f12db3d	0.5736578
188	0x3fe80640	1.8126907
189	0x3c7559e4	0.014975045
190	0x3f66862b	0.90048474
191	0xbf2f049d	-0.68366414
192	0x3f01fdf0	0.507781
193	0xbf6dc0a8	-0.92872095
194	0xbf1c8581	-0.6114121
195	0xbf21324e	-0.62967384
196	0x3f9607c6	1.1721122
197	0xbd37de35	-0.044889648
198	0xbf0b40cb	-0.5439574
199	0x3efc975b	0.49334225
200	0xbfc084d4	-1.5040536
201	0xbf5da2ed	-0.8657673
202	0x3f145c41	0.5795327
203	0xbee8cbf1	-0.45468095
204	0x3fd731bf	1.6812056
205	0x3eb8b426	0.36074942
206	0x3f2808b8	0.65638304
207	0xbedd4756	-0.43218488
208	0x3fbccf1b	1.4750704
209	0x3e22923b	0.15876095
210	0xbe79fb08	-0.24412167
211	0x3e28af79	0.16473188
212	0x3f15cda3	0.585169
213	0x3f445ae6	0.767012
214	0x3ec9438d	0.3930935
215	0xbfb2aaa2	-1.3958323
216	0x3f1a3fcd	0.602536
217	0x3ebb8520	0.36625004
218	0xbf3cada0	-0.7370243
219	0x3d6cebc4	0.05784203
220	0x3e5efdf7	0.21776567
221	0x3ef1f809	0.47259548
222	0xbe862b75	-0.2620503
223	0xbeaa6928	-0.33283353
224	0x3e8cd3ef	0.27505443
225	0xbf8118c0	-1.0085678
226	0x3faac563	1.3341488
227	0x3fa03dc4	1.2518849
228	0xbed7ed37	-0.42173168
229	0x3f51c3cc	0.8193939
230	0x3e13b1ee	0.14423344
231	0xbf0fbd72	-0.56148446
232	0xbe763389	-0.24043097
233	0x3d46b443	0.048511755
234	0x3eca8440	0.39554024
235	0xbf8e4d36	-1.1117313
236	0xbf8de748	-1.1086206
237	0x3fa1c16b	1.2637151
238	0xbf0c0777	-0.5469889
239	0xbd692fef	-0.05693048
240	0xbfdff1d5	-1.7495676
241	0xbc330f53	-0.010928947
242	0xbd8ca01d	-0.06866477
243	0x3ea7fe99	0.3281143
244	0xbf69d186	-0.9133533
245	0xbf38b271	-0.7214728
246	0xbf395040	-0.72388077
247	0x3e9a809d	0.3017625
248	0xbeecdf5b	-0.46264157
249	0x3f86a694	1.0519586
250	0x3e154e8c	0.14580745
251	0xbe076e4a	-0.13225666
252	0xbefd6b46	-0.49495906
253	0xbf89977d	-1.0749356
254	0xbd4bb429	-0.04973236
255	0x3fa6c5a4	1.3029065

model.models.many-body.layers.0.pre_message_linear.weight f4 [256]
0	0xbfa73ef3	-1.3066086
1	0xbfec4bed	-1.8460671
2	0xbe807f30	-0.25097036
3	0x3f0cab22	0.5494863
4	0x3ebfbfca	0.3745101
5	0x3e5bcd5d	0.21465059
6	0xbd496ac8	-0.0491741
7	0x3f7d839c	0.99028945
8	0xbe22ce55	-0.15899022
9	0x3f5df142	0.86696255
10	0xbf8cdbe5	-1.1004606
11	0x3f8bf1b5	1.0933138
12	0x3fdfaf76	1.7475421
13	0xbfcc7187	-1.5972146
14	0x3fc25eab	1.518514
15	0x3f86db18	1.0535612
16	0xbea8941f	-0.32925507
17	0xbdba1bec	-0.09087357
18	0x3e14bb24	0.14524513
19	0xbf926790	-1.1437855
20	0x3cfc812e	0.030823316
21	0x3e99101c	0.29895103
22	0xbec72e97	-0.38902733
23	0x3f9ba6e1	1.2160302
24	0x3f3396db	0.7015206
25	0x3eb4ef53	0.3533884
26	0xbf584d2e	-0.84492767
27	0x3edd6860	0.43243694
28	0xbfd43202	-1.6577761
29	0xbf1872fe	-0.59550464
30	0x3f8b79b7	1.089652
31	0x3f219a01	0.63125616
32	0xbfa95e3e	-1.3231885
33	0x3fa470ba	1.2846901
34	0xbd4758ed	-0.04866879
35	0x3ec56ad2	0.3855806
36	0xbea9825b	-0.33107266
37	0x3f1c0b59	0.60954815
38	0x3f176ad4	0.5914738
39	0xc00cb9c2	-2.1988378
40	0xbf0a7776	-0.5408853
41	0xbf6824f6	-0.906814
42	0xbeb32b86	-0.34994143
43	0xbe9de3c3	-0.3083783
44	0x3f6a6d26	0.915728
45	0xbf0e0cdd	-0.5548838
46	0x3e07bd28	0.13255751
47	0xbeeec2ff	-0.46633145
48	0xbf2ff452	-0.6873218
49	0xbe8b803c	-0.27246273
50	0xbf1337f5	-0.5750726
51	0xbd5a1054	-0.053238228
52	0x3f9c0d04	1.2191472
53	0x3f915b14	1.135592
54	0x3e90438e	0.2817654
55	0xbcb6ff44	-0.022338517
56	0xbf31ff3d	-0.6953009
57	0xbdae37b0	-0.08506715
58	0x3f4b644c	0.79449916
59	0xbe776eab	-0.2416331
60	0xbf017531	-0.50569445
61	0xbf4bef83	-0.7966234
62	0x3ea49048	0.32141328
63	0xbf8877c0	-1.0661545
64	0x3e1de430	0.15419078
65	0xbf31020c	-0.6914375
66	0xbe5aab87	-0.21354495
67	0x3d5144b0	0.051090896
68	0x3d49ab06	0.049235366
69	0x3e34a99c	0.17642826
70	0xbf06c5f2	-0.5264579
71	0xbc19f1fa	-0.009396071
72	0x3ed4c8cd	0.4155945
73	0xbc2b12f8	-0.010441534
74	0xbf315d9b	-0.69283456
75	0x3ec40697	0.38286278
76	0xbe819797	-0.25310966
77	0xbe6eda7d	-0.23325534
78	0xbebe5823	-0.37176618
79	0x3f127541	0.57210165
80	0x3e1ac52a	0.15114275
81	0xbf5490b9	-0.8303333
82	0x3f8d96c7	1.1061639
83	0x3f959897	1.1687192
84	0xbf852352	-1.0401404
85	0xbf68e6ba	-0.9097706
86	0x3ec92fbb	0.39294228
87	0xbfb71ae9	-1.4305087
88	0x3f3ab92a	0.7293879
89	0x3ed4170e	0.4142384
90	0xbfb04247	-1.3770226
91	0xbe2ce066	-0.16882476
92	0x3fbede4e	1.4911592
93	0xbf8479f5	-1.0349718
94	0xbe05de95	-0.1307319
95	0x3f872ae6	1.0559967
96	0xbe94a6ed	-0.29033604
97	0xbf18d07f	-0.5969314
98	0x3f231de6	0.63717496
99	0x3f91471e	1.1349828
100	0xbde567e7	-0.112014584
101	0xbf9eecd5	-1.2416025
102	0xbf03210b	-0.51222295
103	0xbf4c29c5	-0.79751235
104	0xbe5c10ea	-0.21490827
105	0x3f1b09d4	0.6056187
106	0x3f3337e3	0.7000715
107	0xbe5f2e1a	-0.2179493
108	0x3ea998be	0.33124346
109	0xbfb23af2	-1.3924239
110	0xbf48709b	-0.7829682
111	0xbfb1e394	-1.3897576
112	0x3e38ac87	0.18034564
113	0xbeaaf8cb	-0.3339294
114	0x3de8fc5c	0.11376259
115	0x3f32d638	0.6985812
116	0x3f162acc	0.5865905
117	0xbf96060f	-1.1720599
118	0x3f7ea2ee	0.9946736
119	0xbf735b9a	-0.9506165
120	0xbf25c7ce	-0.64758
121	0xbeda13bc	-0.4259318
122	0xbf8952a8	-1.072835
123	0xbdca5894	-0.09880176
124	0xbda02048	-0.07818657
125	0xbf5026a1	-0.81308943
126	0xbf6d8ffc	-0.9279783
127	0xbc890f2b	-0.016730865
128	0x3ded1fdb	0.115783416
129	0xbf02dcd1	-0.5111819
130	0x3f7b0d71	0.98067385
131	0x3d155a6a	0.03646318
132	0xbe1f6c94	-0.15568763
133	0xbff2c2c1	-1.8965684
134	0xbea78a8c	-0.3272289
135	0x3e87383a	0.26410085
136	0xbde34be1	-0.11098457
137	0x3c9001dd	0.017579013
138	0x3e7a9900	0.24472427
139	0xbcfc33f6	-0.030786496
140	0x3faffb03	1.3748478
141	0xbd2c3c62	-0.042049773
142	0x3f0f06d5	0.558698
143	0xbefb574e	-0.49090046
144	0xbe29d1cd	-0.16583939
145	0x3f444dcc	0.7668121
146	0xbf07e0b6	-0.53077257
147	0x3ec19d98	0.37815547
148	0xbe03f3d9	-0.12885989
149	0x3f85da83	1.045731
150	0xbcc4eb13	-0.024037873
151	0x3e51a67f	0.2047367
152	0xbf580225	-0.8437827
153	0x3ed85a71	0.422565
154	0x3d2c1f75	0.042022187
155	0xbe9453b7	-0.2897012
156	0xbf91a2eb	-1.1377844
157	0x3f30742a	0.6892725
158	0x3e322ee8	0.17400706
159	0x3fde7db0	1.7382107
160	0xbbca4a2a	-0.006173392
161	0x3d9e8fee	0.07742296
162	0xbe202d38	-0.1564225
163	0x3fde2625	1.7355391
164	0x3ee1eabe	0.44124407
165	0xbecab39c	-0.39590156
166	0x400fda68	2.2477055
167	0x3eae0d3c	0.33994472
168	0x3f8c6181	1.0967256
169	0xbe2cce07	-0.16875468
170	0xbead6511	-0.3386617
171	0x3ef574c7	0.47940657
172	0x3f91d90b	1.1394361
173	0xbea44070	-0.32080412
174	0xbf2c6b8e	-0.67351615
175	0xbe159fab	-0.1461169
176	0xbf094774	-0.53624654
177	0xbf051750	-0.519887
178	0xbe272714	-0.16323501
179	0xbf2620e1	-0.6489392
180	0xbf6a7a0b	-0.9159247
181	0x3d5e878f	0.054328497
182	0xbf98083f	-1.1877517
183	0x3f25cf70	0.6476965
184	0x3d79e4b9	0.061009143
185	0xbe532b06	-0.20621881
186	0x3f10b0a4	0.5651953
187	0xbc2eff98	-0.0106810555
188	0xbf7fad8d	-0.9987419
189	0x3e9da5af	0.3079047
190	0x3f644107	0.89161724
191	0x3f871116	1.0552089
192	0x3da3c803	0.079971336
193	0xbf984b6a	-1.1898015
194	0x3e6aacda	0.229175
195	0xbe94ef5d	-0.2908887
196	0xbd7ac827	-0.061226036
197	0x3f702850	0.9381151
198	0xbf79e47a	-0.9761425
199	0x3fe347e0	1.775631
200	0x3daa223d	0.08307312
201	0x3f8eedd4	1.1166329
202	0xbe857821	-0.26068214
203	0x3f0eb44a	0.5574385
204	0x3d97d727	0.07414084
205	0xbe137ebc	-0.14403814
206	0xbfb22e0d	-1.3920304
207	0x3ecd19ae	0.40058655
208	0x3e2c16b3	0.16805534
209	0x3f3f6a2f	0.747714
210	0x3d8524a9	0.06501133
211	0xbf6ade6c	-0.9174564
212	0x3f184675	0.5948251
213	0x3e1fe3f0	0.15614295
214	0xbf25afbc	-0.64721274
215	0x3f3b6f57	0.73216766
216	0xbf9b75d5	-1.2145334
217	0xbd752c2f	-0.05985659
218	0x3f37fb60	0.7186794
219	0x3e5d7dbd	0.21629997
220	0xbd2030b6	-0.039108954
221	0xbf3ff5d4	-0.7498448
222	0x3e8dba3c	0.27681148
223	0x3f98c3cb	1.1934751
224	0xbde21960	-0.11039996
225	0x3e7a27a3	0.24429183
226	0x3e1afdb0	0.15135837
227	0x3f92a8ac	1.1457725
228	0xbe9a5631	-0.30143884
229	0xbeab0589	-0.3340266
230	0x3e935fc3	0.28783998
231	0xbe2bd8c6	-0.16781911
232	0x3e3847cd	0.1799614
233	0xbf4df648	-0.8045392
234	0xbf749809	-0.9554449
235	0xbe618201	-0.22022249
236	0x3f373a40	0.7157326
237	0xbf83a60c	-1.0285048
238	0x3fa9bd45	1.3260885
239	0xbebd062d	-0.36918774
240	0xbfcf179e	-1.6179082
241	0x3f8a7438	1.0816717
242	0xbec980ca	-0.3935607
243	0x3ec17eef	0.37792155
244	0xbdb03277	-0.086033754
245	0xbf8e6ede	-1.1127584
246	0x3ed279e5	0.41108623
247	0xbf65ef9c	-0.8981874
248	0x3f3a2fd8	0.72729254
249	0x3d805897	0.06266897
250	0xbf0a816a	-0.5410372
251	0x3f9b5921	1.2136575
252	0xbf2918b8	-0.6605334
253	0xbea90e0b	-0.33018526
254	0xbe8d02a4	-0.27541077
255	0xbefb1e15	-0.49046388

model.models.many-body.layers.0.pre_message_linear.output_mask f4 [16]
0	0x3f800000	1.0
1	0x3f800000	1.0
2	0x3f800000	1.0
3	0x3f800000	1.0
4	0x3f800000	1.0
5	0x3f800000	1.0
6	0x3f800000	1.0
7	0x3f800000	1.0
8	0x3f800000	1.0
9	0x3f800000	1.0
10	0x3f800000	1.0
11	0x3f800000	1.0
12	0x3f800000	1.0
13	0x3f800000	1.0
14	0x3f800000	1.0
15	0x3f800000	1.0

model.models.many-body.layers.0.message_tensor_product.output_mask f4 [144]
0	0x3f800000	1.0
1	0x3f800000	1.0
2	0x3f800000	1.0
3	0x3f800000	1.0
4	0x3f800000	1.0
5	0x3f800000	1.0
6	0x3f800000	1.0
7	0x3f800000	1.0
8	0x3f800000	1.0
9	0x3f800000	1.0
10	0x3f800000	1.0
11	0x3f800000	1.0
12	0x3f800000	1.0
13	0x3f800000	1.0
14	0x3f800000	1.0
15	0x3f800000	1.0
16	0x3f800000	1.0
17	0x3f800000	1.0
18	0x3f800000	1.0
19	0x3f800000	1.0
20	0x3f800000	1.0
21	0x3f800000	1.0
22	0x3f800000	1.0
23	0x3f800000	1.0
24	0x3f800000	1.0
25	0x3f800000	1.0
26	0x3f800000	1.0
27	0x3f800000	1.0
28	0x3f800000	1.0
29	0x3f800000	1.0
30	0x3f800000	1.0
31	0x3f800000	1.0
32	0x3f800000	1.0
33	0x3f800000	1.0
34	0x3f800000	1.0
35	0x3f800000	1.0
36	0x3f800000	1.0
37	0x3f800000	1.0
38	0x3f800000	1.0
39	0x3f800000	1.0
40	0x3f800000	1.0
41	0x3f800000	1.0
42	0x3f800000	1.0
43	0x3f800000	1.0
44	0x3f800000	1.0
45	0x3f800000	1.0
46	0x3f800000	1.0
47	0x3f800000	1.0
48	0x3f800000	1.0
49	0x3f800000	1.0
50	0x3f800000	1.0
51	0x3f800000	1.0
52	0x3f800000	1.0
53	0x3f800000	1.0
54	0x3f800000	1.0
55	0x3f800000	1.0
56	0x3f800000	1.0
57	0x3f800000	1.0
58	0x3f800000	1.0
59	0x3f800000	1.0
60	0x3f800000	1.0
61	0x3f800000	1.0
62	0x3f800000	1.0
63	0x3f800000	1.0
64	0x3f800000	1.0
65	0x3f800000	1.0
66	0x3f800000	1.0
67	0x3f800000	1.0
68	0x3f800000	1.0
69	0x3f800000	1.0
70	0x3f800000	1.0
71	0x3f800000	1.0
72	0x3f800000	1.0
73	0x3f800000	1.0
74	0x3f800000	1.0
75	0x3f800000	1.0
76	0x3f800000	1.0
77	0x3f800000	1.0
78	0x3f800000	1.0
79	0x3f800000	1.0
80	0x3f800000	1.0
81	0x3f800000	1.0
82	0x3f800000	1.0
83	0x3f800000	1.0
84	0x3f800000	1.0
85	0x3f800000	1.0
86	0x3f800000	1.0
87	0x3f800000	1.0
88	0x3f800000	1.0
89	0x3f800000	1.0
90	0x3f800000	1.0
91	0x3f800000	1.0
92	0x3f800000	1.0
93	0x3f800000	1.0
94	0x3f800000	1.0
95	0x3f800000	1.0
96	0x3f800000	1.0
97	0x3f800000	1.0
98	0x3f800000	1.0
99	0x3f800000	1.0
100	0x3f800000	1.0
101	0x3f800000	1.0
102	0x3f800000	1.0
103	0x3f800000	1.0
104	0x3f800000	1.0
105	0x3f800000	1.0
106	0x3f800000	1.0
107	0x3f800000	1.0
108	0x3f800000	1.0
109	0x3f800000	1.0
110	0x3f800000	1.0
111	0x3f800000	1.0
112	0x3f800000	1.0
113	0x3f800000	1.0
114	0x3f800000	1.0
115	0x3f800000	1.0
116	0x3f800000	1.0
117	0x3f800000	1.0
118	0x3f800000	1.0
119	0x3f800000	1.0
120	0x3f800000	1.0
121	0x3f800000	1.0
122	0x3f800000	1.0
123	0x3f800000	1.0
124	0x3f800000	1.0
125	0x3f800000	1.0
126	0x3f800000	1.0
127	0x3f800000	1.0
128	0x3f800000	1.0
129	0x3f800000	1.0
130	0x3f800000	1.0
131	0x3f800000	1.0
132	0x3f800000	1.0
133	0x3f800000	1.0
134	0x3f800000	1.0
135	0x3f800000	1.0
136	0x3f800000	1.0
137	0x3f800000	1.0
138	0x3f800000	1.0
139	0x3f800000	1.0
140	0x3f800000	1.0
141	0x3f800000	1.0
142	0x3f800000	1.0
143	0x3f800000	1.0

model.models.many-body.layers.0.weight_generator.components.0.0.frequencies f4 [8]
0	0x3f963175	1.1733843
1	0x3faf58ad	1.3698937
2	0x400ba16c	2.1817274
3	0x40532acb	3.2994869
4	0x407f996d	3.9937394
5	0x40946833	4.6377196
6	0x40a3a06d	5.113333
7	0x40c32475	6.0982003

model.models.many-body.layers.0.weight_generator.components.0.1.linear_layers.0.weight f4 [8, 8]
0	0xbd05d5f0	-0.03267473
1	0xbc23ed17	-0.010005257
2	0x3b946fb3	0.004529917
3	0x3efb72c2	0.4911099
4	0x3faea4cf	1.3644046
5	0xbf7ca5f3	-0.9869072
6	0xbf44d597	-0.7688841
7	0x3edbfbf3	0.4296566
8	0x3ea5c9c0	0.32380486
9	0x3f40b97b	0.7528302
10	0x3d285268	0.041094214
11	0xbf10b89f	-0.5653171
12	0xbed2ae6f	-0.41148707
13	0x3cadb338	0.021203622
14	0x3ead3499	0.3382919
15	0x3e85300a	0.26013213
16	0xbc938c74	-0.01801131
17	0xbe84d3da	-0.2594288
18	0xbf0fef28	-0.562243
19	0x3f8df68c	1.1090865
20	0x3e8d9662	0.27653795
21	0xbf1fbbc2	-0.6239587
22	0x3d437b9c	0.047725305
23	0xbe5304a8	-0.20607245
24	0x3d889be9	0.066703625
25	0x3f00bdc0	0.50289536
26	0xbeba7a21	-0.36421302
27	0xbe59d4f3	-0.2127264
28	0xbee12732	-0.43975216
29	0x3e2d3b64	0.16917187
30	0x3f352e06	0.7077335
31	0x3deca2e0	0.115545034
32	0x3ea64b1e	0.32479185
33	0x3f5550f7	0.8332667
34	0x3b8847d0	0.0041589513
35	0xbec991cd	-0.3936905
36	0xbdd527cb	-0.104079805
37	0xbf0f93e9	-0.5608507
38	0x3e2df210	0.16986871
39	0xbde017b5	-0.10942022
40	0x3ea5171b	0.3224419
41	0x3f06c534	0.5264466
42	0xbf452c6c	-0.7702091
43	0xbdd7ac68	-0.10530931
44	0x3f373979	0.7157207
45	0x3eaf810c	0.34278142
46	0xbf304031	-0.6884795
47	0xbeaf5942	-0.34247786
48	0x3d96e35d	0.07367585
49	0x3d91cbd3	0.071189545
50	0xbee9bcc9	-0.45651844
51	0xbe2556f8	-0.16146457
52	0xbf20526f	-0.62625784
53	0xbd5c4baf	-0.053783115
54	0x3f3be7f1	0.7340079
55	0xbeb18902	-0.3467484
56	0xbe679355	-0.22614796
57	0x3f0a9224	0.5412924
58	0x3f6d211d	0.9262865
59	0xbd8b40c5	-0.06799463
60	0xbeac1ba1	-0.3361483
61	0xbf361a57	-0.7113394
62	0xbe08bd9c	-0.1335358
63	0x3f01de79	0.5073009

model.models.many-body.layers.0.weight_generator.components.0.1.linear_layers.0.bias f4 [8]
0	0x3cc540ab	0.024078688
1	0x3e545d22	0.20738652
2	0x3e11d9de	0.14243266
3	0xbe118b9a	-0.1421341
4	0xbe8a53a0	-0.27016926
5	0x3d2f3828	0.042778164
6	0x3e4b972e	0.19881889
7	0x39903689	0.00027506452

model.models.many-body.layers.0.weight_generator.components.0.1.linear_layers.1.weight f4 [8, 8]
0	0xbca776b2	-0.02044234
1	0x3e8f6f8c	0.2801479
2	0xbf00ccf4	-0.50312734
3	0x3f5168b1	0.8180037
4	0x3ec4f04a	0.38464576
5	0xbc9555be	-0.018229362
6	0x3e79d988	0.24399388
7	0x3eab2cc3	0.33432588
8	0xbebc1305	-0.3673326
9	0x3e62c581	0.22145654
10	0xbfc57f0f	-1.54294
11	0xbf4225bc	-0.7583883
12	0xbf139192	-0.57644
13	0xbf1f0954	-0.6212361
14	0xbeaac942	-0.33356673
15	0x3e4422ad	0.19153853
16	0xbf2b6ab9	-0.6695972
17	0x3e96e062	0.29468066
18	0xbf5dd081	-0.86646277
19	0x3dae8d26	0.08523016
20	0x3dcc8718	0.099867046
21	0x3f727c85	0.9472125
22	0xbd7172ea	-0.05894748
23	0x3e5986ea	0.21242872
24	0x3e9c6988	0.30549264
25	0xbdacef82	-0.0844412
26	0xbf0cf328	-0.55058527
27	0xbf15852b	-0.58406323
28	0x3f06081c	0.52356124
29	0x3f3cb12d	0.7370785
30	0xbeb85967	-0.3600571
31	0x3efc645d	0.4929532
32	0xbe7b821c	-0.24561352
33	0xbc8e11c5	-0.017342458
34	0xbf603bb2	-0.8759109
35	0xbb9ff08f	-0.0048809717
36	0xbe081de5	-0.13292654
37	0x3d05669e	0.032568567
38	0x3ecd1d68	0.40061498
39	0xbeef6d17	-0.46762916
40	0xbe9dbb32	-0.3080688
41	0x3ec7dc22	0.39035136
42	0xbd9f3f14	-0.07775703
43	0x3eb136bd	0.34612074
44	0x3f031780	0.51207733
45	0xbea24608	-0.31694055
46	0x3e9f7146	0.31141108
47	0x3ebe4f56	0.37169904
48	0xbee020e1	-0.43775085
49	0xbdc901da	-0.09814806
50	0x3eb74961	0.3579817
51	0x3e3bdfeb	0.18347137
52	0x3df07075	0.117401995
53	0xbf3bb38e	-0.73320854
54	0x3e6fc10b	0.23413484
55	0x3eb80961	0.35944656
56	0x3c9b1578	0.018931136
57	0x3ee6b706	0.4506151
58	0xbe834055	-0.2563502
59	0x3ed523f9	0.41629007
60	0x3f196358	0.5991721
61	0x3eba1307	0.36342642
62	0xbda1f8ec	-0.07908806
63	0x3f069b01	0.5258027

model.models.many-body.layers.0.weight_generator.components.0.1.linear_layers.1.bias f4 [8]
0	0x3e818fce	0.25305027
1	0x3da364f9	0.079782434
2	0xbe56b661	-0.2096801
3	0xbe153abf	-0.14573191
4	0xbe6a12ee	-0.22858784
5	0x3e22514f	0.1585133
6	0xbe34a943	-0.17642693
7	0xbed9e9d9	-0.42561224

model.models.many-body.layers.0.weight_generator.components.0.1.linear_layers.2.weight f4 [48, 8]
0	0x3db5f9a2	0.08885504
1	0xbdc1a520	-0.09455323
2	0x3ef696d4	0.48161948
3	0x3de274e7	0.110574536
4	0x3ef079b3	0.4696785
5	0x3e81e699	0.25371245
6	0x3eb50562	0.3535567
7	0x3e70b432	0.23506239
8	0xbe5d21d8	-0.21594942
9	0x3e63debc	0.22252935
10	0x3e915e29	0.2839215
11	0x3e80659e	0.25077528
12	0xbe7d0352	-0.24708298
13	0xbdb520aa	-0.08844121
14	0x3e625cb7	0.2210568
15	0xbe442287	-0.19153796
16	0xbe5c0d09	-0.21489348
17	0xbedd3897	-0.43207237
18	0x3e4f4ea6	0.20244846
19	0x3e0cee6f	0.1376283
20	0xbe50348b	-0.20332544
21	0xbdea57e8	-0.11442548
22	0x3e28073b	0.16409008
23	0x3ea9b5f0	0.3314662
24	0xbeb1ef52	-0.347529
25	0xbe36056f	-0.1777551
26	0xbe92b05c	-0.28650177
27	0x3d503275	0.05082937
28	0x3cfb69ab	0.030690035
29	0xbe9c7b4b	-0.30562815
30	0xbe03c8b2	-0.12869528
31	0xbebcaa8e	-0.36848873
32	0xbc8e83aa	-0.017396767
33	0x3e585fcf	0.21130298
34	0xbe591d75	-0.21202643
35	0x3dd67108	0.10470778
36	0xbdb88231	-0.09009207
37	0xbdb4c37e	-0.0882635
38	0x3cb8d06a	0.022560317
39	0x3d8f946b	0.0701073
40	0xbea16beb	-0.31527647
41	0x3f43a7bb	0.7642781
42	0xbf897a45	-1.0740439
43	0xbed5fc50	-0.41794062
44	0xbe681a5b	-0.22666304
45	0x3bdf98f5	0.006823654
46	0x3f2bfb03	0.6717989
47	0xbe214a0c	-0.15750903
48	0x3d70025d	0.058596004
49	0xbf136c8c	-0.57587504
50	0xbeefe69d	-0.4685563
51	0xbe8841f0	-0.26612806
52	0xbed036f1	-0.40666917
53	0xbe09a6b6	-0.13442501
54	0xbf62af2b	-0.88548535
55	0xbf49865d	-0.7872065
56	0x3f084927	0.5323662
57	0x3e00c30a	0.12574401
58	0x3f162fcd	0.5866669
59	0xbe5c02ca	-0.21485439
60	0xbe5eaaf1	-0.21744896
61	0x3f01d8a4	0.5072119
62	0x3e669080	0.2251606
63	0x3f232dd5	0.6374181
64	0xbe3dff7a	-0.18554488
65	0x3e541c0a	0.20713821
66	0x3e70e2c6	0.23524007
67	0xbdff68b8	-0.124711454
68	0xbe0d563b	-0.13802426
69	0x3e2f171b	0.17098658
70	0xbdaf9e38	-0.085751
71	0xbe3e8e03	-0.1860886
72	0x3ed0e060	0.40796185
73	0x3c00c948	0.007860489
74	0x3d63620f	0.055513438
75	0x3c090622	0.008363279
76	0xbec85445	-0.39126793
77	0x3d8d3451	0.06894744
78	0xbd657cdc	-0.05602728
79	0xbe7bbf11	-0.24584605
80	0xbd2d7b6e	-0.04235404
81	0x3d5c1bb5	0.05373736
82	0xbdd4d90f	-0.10392963
83	0x3e57b367	0.2106453
84	0xbf8a9ef0	-1.0829754
85	0x3ecbd4ae	0.398107
86	0x3e5a4834	0.21316606
87	0x3f078477	0.529365
88	0x3d962814	0.07331863
89	0x3ccff2a9	0.025384264
90	0x3b65b3b6	0.0035049743
91	0xbe04aaca	-0.12955776
92	0xbdf5d705	-0.12003902
93	0xbe042442	-0.12904456
94	0x3d9b2957	0.07576244
95	0xbd652e26	-0.055952214
96	0xbe403b67	-0.1877266
97	0xbfe18901	-1.7619935
98	0xbf81303a	-1.0092843
99	0x3f1baaa5	0.6080726
100	0xbf20844f	-0.62701887
101	0x3dd6ce0d	0.1048852
102	0xbe851c71	-0.25998262
103	0x3ed3577d	0.41277686
104	0xbe67f6c2	-0.22652724
105	0x3f031d1d	0.512163
106	0xbe8dcde6	-0.2769615
107	0x3f105033	0.56372374
108	0xbef6ee6e	-0.48228782
109	0xbe0bad80	-0.13640404
110	0xbdbebc4a	-0.09313257
111	0x3dca6393	0.098822735
112	0x3c85dc78	0.01634048
113	0x3e934af6	0.28768128
114	0x3dc7f40e	0.097633466
115	0xbdc22352	-0.09479393
116	0xbdc02fa7	-0.09384089
117	0x3e851130	0.25989676
118	0x3dc8f915	0.098131336
119	0x3da704ae	0.081551895
120	0x3deefffe	0.116699204
121	0xbe43a669	-0.19106449
122	0x3dac06f9	0.083997674
123	0x3eef1839	0.46698168
124	0xbe4f925a	-0.20270672
125	0xbcde2423	-0.02711684
126	0x3ea74f36	0.3267762
127	0x3eb4b9a4	0.35297883
128	0x3ce23b6a	0.027616221
129	0xbd3ba702	-0.045813568
130	0xbe04cf86	-0.12969789
131	0x3eaba1a1	0.3352175
132	0xbf1400d1	-0.57813746
133	0x3e13994f	0.14413951
134	0xbec2517f	-0.37952802
135	0xbdbf74f4	-0.09348479
136	0x3d1c3276	0.03813406
137	0xbe98882e	-0.29791397
138	0x3f0bc0da	0.54591143
139	0xbe5efacf	-0.21775363
140	0x3e35194c	0.17685431
141	0x3dbc2d07	0.09188276
142	0x3ddaf093	0.10690417
143	0xbeb977ec	-0.36224306
144	0x3e76dcad	0.24107619
145	0xbede3c67	-0.43405458
146	0x3ef5347f	0.47891614
147	0xbdde8b1e	-0.10866378
148	0x3e935005	0.28771988
149	0xbe6908fe	-0.22757336
150	0xbf3b7e75	-0.73239833
151	0x3f2bb6a8	0.67075586
152	0x3ea4a553	0.32157382
153	0xbf43a229	-0.7641931
154	0x3f4220cf	0.7583131
155	0xbe8384f9	-0.25687388
156	0x3ed363c6	0.4128706
157	0xbe12f606	-0.14351663
158	0xbf3037c6	-0.68835104
159	0x3f0dc81c	0.5538347
160	0x3e1ec506	0.15504846
161	0x3ea0f047	0.31433317
162	0xbe2c55d6	-0.16829619
163	0xbe96658f	-0.29374358
164	0x3e21a3ac	0.15785092
165	0x3e4cfae1	0.20017578
166	0xbe14cc7f	-0.14531134
167	0x3d8f9382	0.07010557
168	0x3e5fcba8	0.21855032
169	0xbe932d74	-0.28745615
170	0x3f4823fb	0.781799
171	0x3c85c28a	0.016328115
172	0xbf34f289	-0.7068258
173	0xbe1b347e	-0.15156743
174	0xbf1f479a	-0.6221863
175	0x3f0eeb33	0.55827636
176	0xbe54de9b	-0.20788042
177	0xbf849ac9	-1.0359737
178	0x3f995173	1.1977981
179	0xbf9e6069	-1.2373172
180	0xbed1a699	-0.40947416
181	0x3e0f72c7	0.14008628
182	0x3f642456	0.89117944
183	0x3e4150cc	0.18878478
184	0x3e598555	0.21242268
185	0xbf3bc55e	-0.73348033
186	0x3ebb7b19	0.36617354
187	0x3d189cac	0.03725879
188	0x3e9b3975	0.30317274
189	0xbe923470	-0.28555632
190	0xbf40dc20	-0.75335884
191	0xbeb0e0fb	-0.34546646
192	0x3e50a873	0.20376758
193	0xbf3903a2	-0.7227117
194	0x3dc39bfe	0.095512375
195	0xbe6ea267	-0.23304139
196	0xbea2045a	-0.31643945
197	0xbe807daa	-0.25095874
198	0xbf3f23a3	-0.7466375
199	0x3e96d822	0.2946177
200	0xbe709509	-0.23494352
201	0x3f875d36	1.0575321
202	0xbd86b6e9	-0.06577856
203	0x3f2e9afb	0.6820523
204	0x3f111311	0.5666972
205	0xbe47e9e5	-0.19522817
206	0xbf22fd6a	-0.6366793
207	0x3e322daf	0.1740024
208	0xbeb81252	-0.35951477
209	0x3f98ad2c	1.1927848
210	0xbf0a2b27	-0.53972095
211	0x3f51932a	0.8186518
212	0xbd3d9828	-0.046287686
213	0x3e8d12d3	0.27553424
214	0x3f13bd9d	0.577112
215	0x3ce7c653	0.02829281
216	0xbe4e345a	-0.20137158
217	0x3f3619ff	0.71133417
218	0x3f340eb6	0.7033495
219	0x3edc65a7	0.43046305
220	0x3f41b5ac	0.75667834
221	0x3d6c3a25	0.05767264
222	0x3ed8bff2	0.42333943
223	0x3f1b317a	0.6062237
224	0x3dad4df9	0.08462138
225	0x3f0ba5c9	0.54549843
226	0x3f8e0bfe	1.109741
227	0xbf0b6c14	-0.5446179
228	0x3ec6db0f	0.38839003
229	0xbd2f8ed0	-0.042860806
230	0x3ec35079	0.38147333
231	0x3ec97b58	0.39351916
232	0xbdb89894	-0.09013477
233	0x3f190587	0.5977406
234	0xbf4b1c86	-0.793404
235	0xbef4942e	-0.47769302
236	0xbe7f03ad	-0.24903746
237	0xbe83bae7	-0.25728533
238	0x3ec725da	0.38896066
239	0xbe43f0d1	-0.19134833
240	0xbe14dd4b	-0.14537542
241	0xbf029cc8	-0.5102048
242	0x3f14ecf5	0.5817407
243	0xbdcfc0ec	-0.10144219
244	0xbcf7aa62	-0.030232612
245	0x3df66fbe	0.12033032
246	0xbec05a45	-0.3756887
247	0x3efae12a	0.48999912
248	0xbe28e166	-0.16492233
249	0xbf04247d	-0.51618177
250	0x3ef7271c	0.48272026
251	0xbf374f9f	-0.7160587
252	0x3f02ced8	0.5109687
253	0xbdaa61ac	-0.08319411
254	0x3e81b9c4	0.2533704
255	0x3e33987c	0.17538637

model.models.many-body.layers.0.weight_generator.components.0.1.linear_layers.2.bias f4 [48]
0	0x3d5ac89f	0.053413983
1	0x3e05fcf6	0.13084778
2	0xbd1938ce	-0.03740769
3	0x3e977562	0.29581743
4	0x3d743522	0.059620984
5	0x3b75455a	0.003742537
6	0x3e0df9d0	0.13864827
7	0x3e4fb450	0.20283628
8	0x3e53ac1c	0.20671123
9	0x3ebf992f	0.37421557
10	0xbe58119a	-0.21100464
11	0x3d8f0da9	0.06985027
12	0x3d365dab	0.044522922
13	0x3e852b92	0.26009804
14	0xbcb6c771	-0.022311898
15	0x3d9a9b75	0.07549182
16	0x3f487342	0.7830087
17	0x3e022e43	0.1271296
18	0xbb1dc0fd	-0.0024071329
19	0xbcc754ce	-0.02433243
20	0x3d90ec5c	0.07076332
21	0xbe8d4008	-0.27587914
22	0xbe88c4ad	-0.26712552
23	0x3e88cc20	0.26718235
24	0xbe5c59a7	-0.21518575
25	0xbd0b4487	-0.0340009
26	0xbd8c09df	-0.0683782
27	0xbefdb178	-0.4954946
28	0x3eb59e54	0.35472357
29	0x3da565de	0.0807607
30	0xbd2c0f95	-0.042007048
31	0xbf0b728f	-0.5447168
32	0x3c9568fb	0.018238535
33	0xbc46d921	-0.0121367285
34	0xbe03b0f8	-0.12860477
35	0xbef67b1c	-0.481408
36	0x3d06ce41	0.032911543
37	0xbe8f725e	-0.28016943
38	0xbea956af	-0.33073947
39	0xbed678f8	-0.41889167
40	0xbd011620	-0.03151524
41	0xbde58b2c	-0.112081856
42	0xbe774f06	-0.24151239
43	0xbe5efa8c	-0.21775264
44	0xbd953747	-0.07285934
45	0xbdd4d918	-0.1039297
46	0xbd9bf574	-0.07615176
47	0xbe8f6732	-0.2800842

model.models.many-body.layers.0.weight_generator.components.1.coefficients f4 [3]
0	0xc1e00000	-28.0
1	0x42400000	48.0
2	0xc1a80000	-21.0

model.models.many-body.layers.0.non_linearity.mul.output_mask f4 [44]
0	0x3f800000	1.0
1	0x3f800000	1.0
2	0x3f800000	1.0
3	0x3f800000	1.0
4	0x3f800000	1.0
5	0x3f800000	1.0
6	0x3f800000	1.0
7	0x3f800000	1.0
8	0x3f800000	1.0
9	0x3f800000	1.0
10	0x3f800000	1.0
11	0x3f800000	1.0
12	0x3f800000	1.0
13	0x3f800000	1.0
14	0x3f800000	1.0
15	0x3f800000	1.0
16	0x3f800000	1.0
17	0x3f800000	1.0
18	0x3f800000	1.0
19	0x3f800000	1.0
20	0x3f800000	1.0
21	0x3f800000	1.0
22	0x3f800000	1.0
23	0x3f800000	1.0
24	0x3f800000	1.0
25	0x3f800000	1.0
26	0x3f800000	1.0
27	0x3f800000	1.0
28	0x3f800000	1.0
29	0x3f800000	1.0
30	0x3f800000	1.0
31	0x3f800000	1.0
32	0x3f800000	1.0
33	0x3f800000	1.0
34	0x3f800000	1.0
35	0x3f800000	1.0
36	0x3f800000	1.0
37	0x3f800000	1.0
38	0x3f800000	1.0
39	0x3f800000	1.0
40	0x3f800000	1.0
41	0x3f800000	1.0
42	0x3f800000	1.0
43	0x3f800000	1.0

model.models.many-body.layers.0.post_message_linear.weight f4 [640]
0	0xc0017d28	-2.023264
1	0xbea31cd9	-0.31857947
2	0xbeb7bcc0	-0.35886192
3	0xbf79cbdc	-0.9757669
4	0xbf434fc6	-0.762936
5	0xbd2d924e	-0.042375855
6	0xbf0cabb6	-0.5494951
7	0x3fb2541f	1.3931922
8	0x3ee7ba0b	0.45259127
9	0xbf9724a4	-1.1808057
10	0xbf8bab54	-1.091166
11	0xbfedf5b0	-1.8590603
12	0xbfa6a1a8	-1.3018084
13	0x3fb0f0d7	1.3823498
14	0xbe240c88	-0.16020405
15	0x3f7c726a	0.9861208
16	0xbea60e13	-0.32432613
17	0xbf47ae19	-0.78000027
18	0x3e424c0f	0.18974327
19	0xbf9d95cb	-1.2311338
20	0xbf3f380f	-0.74694914
21	0x3fc6b86b	1.552503
22	0x3e94ed29	0.2908719
23	0xbf487bb0	-0.7831373
24	0xbeb0c6d2	-0.34526688
25	0x3f312d85	0.6921008
26	0xbf41ece2	-0.7575208
27	0x3f73d8a9	0.9525247
28	0xbf32466f	-0.69638723
29	0x3f60f816	0.8787855
30	0xbe8bc3b1	-0.27297738
31	0x3f757f4f	0.9589738
32	0x3ec3b4c1	0.38223842
33	0xbe653c20	-0.22386217
34	0xbfe78c77	-1.8089741
35	0xbfa5fb36	-1.2967288
36	0xbe706fbe	-0.23480126
37	0xbe227eeb	-0.15868728
38	0x3e3859ee	0.18003055
39	0xbee45464	-0.44595635
40	0x3e4e2181	0.20129968
41	0xbfe4d0f2	-1.7876265
42	0xbf8479da	-1.0349686
43	0x3f34c7f1	0.70617586
44	0xc01d4b0b	-2.4577053
45	0x3f6adcac	0.9174297
46	0xbebc6600	-0.3679657
47	0xbe0851ea	-0.13312498
48	0xbfefd3cc	-1.873651
49	0xbece0cc8	-0.40244126
50	0xc025d411	-2.5910685
51	0xbf95f53c	-1.1715465
52	0xc0100acd	-2.2506592
53	0x3f9c70fb	1.2221979
54	0xbf206dc1	-0.6266747
55	0xbfbbeafe	-1.4681089
56	0xbf400540	-0.7500801
57	0x3e3a2296	0.18177256
58	0xbf38a12f	-0.72120947
59	0xbf64a419	-0.89312893
60	0x3f74782e	0.9549588
61	0xbf1feb28	-0.62468195
62	0x3f42c3b0	0.76079845
63	0xbf91f0ab	-1.1401571
64	0xbfb4210b	-1.4072584
65	0x3d59f38c	0.05321078
66	0xbeef978b	-0.46795306
67	0x400b6a59	2.178366
68	0xbf34d2d4	-0.706342
69	0x3ec3b149	0.38221195
70	0xbf2609f8	-0.6485896
71	0x3cac7cca	0.021055598
72	0x3ee76306	0.45192736
73	0x3dc505dd	0.09620259
74	0x3eea1533	0.457193
75	0xbf935edf	-1.1513327
76	0x3fc6adde	1.552181
77	0xbe694263	-0.22779231
78	0xbf28f00d	-0.6599129
79	0xbeeb3142	-0.45936018
80	0xbf1c7962	-0.61122715
81	0xbf9219fd	-1.1414181
82	0xbf8a58cc	-1.0808349
83	0x3f44659a	0.7671753
84	0x3f6aadd7	0.9167151
85	0xc001217d	-2.017669
86	0xbf5f503b	-0.87231797
87	0x3f891da3	1.071217
88	0x3e79d907	0.24399196
89	0x3f212859	0.6295219
90	0x3dd47988	0.10374743
91	0x3ed64b5f	0.4185438
92	0x3ead3e2f	0.33836505
93	0x3e1fe34e	0.15614054
94	0xbf4a6987	-0.7906727
95	0xbf243bab	-0.64153546
96	0xbf428a47	-0.75992244
97	0xbf657ae5	-0.8964065
98	0xbf440e21	-0.7658406
99	0xbf9a0183	-1.2031711
100	0xbeab93df	-0.33511254
101	0x3f154f91	0.58324534
102	0x3d6a355d	0.057179797
103	0xbfa9fcf9	-1.3280326
104	0xc02370c4	-2.5537577
105	0xbdf07aec	-0.117421955
106	0x3e9d84cc	0.30765378
107	0x3f689ada	0.90861285
108	0x3eb373e5	0.35049358
109	0x3f6e7ca6	0.9315895
110	0x3f743d44	0.95405984
111	0xbf9f2b3b	-1.2435068
112	0xbecf1dff	-0.40452573
113	0xbf5e84b8	-0.8692126
114	0xbfa996b6	-1.3249118
115	0x3cf2bf90	0.02963236
116	0xbf163c85	-0.58686095
117	0xbdc5b9ce	-0.0965458
118	0xbfab808e	-1.3398607
119	0x3f14a6d6	0.5806707
120	0xbf426641	-0.7593728
121	0xbf144377	-0.57915443
122	0xbf4974e9	-0.78694016
123	0xbf7d4318	-0.989305
124	0x3f05b75d	0.52232915
125	0x3fa3d022	1.2797892
126	0xbf83feba	-1.0312111
127	0x3fb8dfb1	1.4443265
128	0xbd4a7280	-0.049425602
129	0x3f851699	1.0397521
130	0x3ecb025c	0.39650238
131	0xc004e4a1	-2.0764544
132	0xbf1dc1c1	-0.6162377
133	0x3f4b37ca	0.79382
134	0xbfc803ad	-1.5626122
135	0x3fc7f807	1.5622567
136	0x3f04bdd8	0.5185218
137	0x3e9aecec	0.30258882
138	0xc01803c8	-2.3752308
139	0x3f8fce77	1.1234883
140	0xbfd4eba0	-1.6634407
141	0xbf1dcafa	-0.6163784
142	0xbf4c254c	-0.7974441
143	0xbf6c80ac	-0.9238384
144	0xbe58f182	-0.21185878
145	0x3eff2090	0.4982953
146	0x3ec72dc6	0.3890211
147	0xbf1e3ef1	-0.6181479
148	0x3f2cd028	0.6750512
149	0xbfa6c4eb	-1.3028845
150	0x3d4b0087	0.04956105
151	0xbf82d2ba	-1.0220559
152	0x3e14b2eb	0.14521377
153	0xbdf0fb3d	-0.1176667
154	0xbf4208de	-0.7579478
155	0x4022cc83	2.5437324
156	0xc019d073	-2.4033477
157	0x406693f0	3.6027794
158	0x3da6f86c	0.081528515
159	0x3ff3067a	1.8986351
160	0x3ef54df6	0.47911042
161	0xc0564e0f	-3.3485143
162	0xc0188af0	-2.38348
163	0x40c2e583	6.0905166
164	0xbf0356ae	-0.5130414
165	0x3f5f0d88	0.8713002
166	0xc0327cad	-2.7888596
167	0xbf3ab9db	-0.7293984
168	0xbf7a0bd8	-0.9767432
169	0x3e869465	0.2628509
170	0xbfadeba3	-1.3587536
171	0xbd4aba24	-0.049493924
172	0x3d82f879	0.06395049
173	0x3f691fe5	0.9106429
174	0x3ee99277	0.45619556
175	0xbf3738db	-0.7157113
176	0x3e5a86b0	0.21340442
177	0x3f030d92	0.5119258
178	0xbfef93b8	-1.8716955
179	0xbebdd526	-0.37076682
180	0xbe6b78bb	-0.22995274
181	0xbeac530c	-0.3365711
182	0x3e066cda	0.13127461
183	0xbfd01ba5	-1.6258436
184	0x3f6286bb	0.8848683
185	0xc091d7e6	-4.557605
186	0xbfa3f46e	-1.2808969
187	0xbfad7ddb	-1.3554033
188	0xc003cfaf	-2.059551
189	0xc027f558	-2.6243496
190	0xbfb3452d	-1.4005486
191	0x3b1b87ec	0.0023732139
192	0xbf28cc89	-0.65937096
193	0x40a11a2d	5.0344453
194	0x4059251a	3.3928895
195	0xbf83a9b2	-1.0286162
196	0x3ede551c	0.43424308
197	0xbde7de2d	-0.113216735
198	0xbf82d10d	-1.0220047
199	0xbf127507	-0.5720982
200	0x3da8c981	0.08241559
201	0x3e9a0d68	0.30088353
202	0x3f3f56fd	0.7474211
203	0x3eb0147c	0.34390628
204	0xbff3893f	-1.9026259
205	0x3f8eb9b6	1.1150424
206	0xbe968f1f	-0.29406068
207	0x3f32ed25	0.69893104
208	0x3f610d88	0.8791127
209	0x3f370146	0.7148632
210	0x3e0c612f	0.13708948
211	0xbe9fc1c6	-0.31202525
212	0xbf0d008a	-0.5507895
213	0xbf0fa25d	-0.5610712
214	0x3fbe6e9e	1.4877508
215	0xbf667730	-0.90025616
216	0x3f3cd464	0.7376158
217	0x3ee7a9d0	0.45246744
218	0x3eb48f89	0.3526576
219	0xbf9874b3	-1.1910614
220	0xbf5c3ca2	-0.8603002
221	0x3f853c8f	1.0409106
222	0xbe8f9a28	-0.280473
223	0xbf11f00c	-0.5700691
224	0x3f5de75c	0.8668115
225	0xbf27c7e3	-0.6553938
226	0xbd239f63	-0.039946925
227	0xbee4f081	-0.4471474
228	0xbe8e5b85	-0.278042
229	0xbfa5dce9	-1.2958041
230	0x3ee8aab8	0.45442748
231	0x3f0f5274	0.5598519
232	0x3f54a29c	0.8306062
233	0xbf25ec9f	-0.6481418
234	0xbef013f5	-0.46890226
235	0x3f270533	0.6524231
236	0x3e576f4c	0.2103855
237	0xbf809b93	-1.0047477
238	0xc0006539	-2.0061781
239	0x3f21cd57	0.6320395
240	0x3faa38b1	1.3298551
241	0x3e41c38a	0.18922248
242	0xbed5e8f6	-0.41779298
243	0x3f72f24f	0.94900984
244	0xbfa00d90	-1.2504139
245	0x3f54cad3	0.83121985
246	0x3d9578b2	0.072984114
247	0xbe010ddd	-0.12602945
248	0xbf2155de	-0.6302165
249	0x3f60dcec	0.878371
250	0xbe33f130	-0.17572474
251	0xbef98c85	-0.4874002
252	0x3f7b9e36	0.98288286
253	0x3f49ba74	0.7880013
254	0x3e9c1b55	0.30489603
255	0xbf8e832a	-1.1133778

model.models.many-body.layers.0.post_message_linear.output_mask f4 [72]
0	0x3f800000	1.0
1	0x3f800000	1.0
2	0x3f800000	1.0
3	0x3f800000	1.0
4	0x3f800000	1.0
5	0x3f800000	1.0
6	0x3f800000	1.0
7	0x3f800000	1.0
8	0x3f800000	1.0
9	0x3f800000	1.0
10	0x3f800000	1.0
11	0x3f800000	1.0
12	0x3f800000	1.0
13	0x3f800000	1.0
14	0x3f800000	1.0
15	0x3f800000	1.0
16	0x3f800000	1.0
17	0x3f800000	1.0
18	0x3f800000	1.0
19	0x3f800000	1.0
20	0x3f800000	1.0
21	0x3f800000	1.0
22	0x3f800000	1.0
23	0x3f800000	1.0
24	0x3f800000	1.0
25	0x3f800000	1.0
26	0x3f800000	1.0
27	0x3f800000	1.0
28	0x3f800000	1.0
29	0x3f800000	1.0
30	0x3f800000	1.0
31	0x3f800000	1.0
32	0x3f800000	1.0
33	0x3f800000	1.0
34	0x3f800000	1.0
35	0x3f800000	1.0
36	0x3f800000	1.0
37	0x3f800000	1.0
38	0x3f800000	1.0
39	0x3f800000	1.0
40	0x3f800000	1.0
41	0x3f800000	1.0
42	0x3f800000	1.0
43	0x3f800000	1.0
44	0x3f800000	1.0
45	0x3f800000	1.0
46	0x3f800000	1.0
47	0x3f800000	1.0
48	0x3f800000	1.0
49	0x3f800000	1.0
50	0x3f800000	1.0
51	0x3f800000	1.0
52	0x3f800000	1.0
53	0x3f800000	1.0
54	0x3f800000	1.0
55	0x3f800000	1.0
56	0x3f800000	1.0
57	0x3f800000	1.0
58	0x3f800000	1.0
59	0x3f800000	1.0
60	0x3f800000	1.0
61	0x3f800000	1.0
62	0x3f800000	1.0
63	0x3f800000	1.0
64	0x3f800000	1.0
65	0x3f800000	1.0
66	0x3f800000	1.0
67	0x3f800000	1.0
68	0x3f800000	1.0
69	0x3f800000	1.0
70	0x3f800000	1.0
71	0x3f800000	1.0

model.models.many-body.layers.0.self_interaction.linear.weight f4 [448]
0	0x3df5217d	0.11969278
1	0x3d2c745a	0.04210315
2	0x3e03ad87	0.12859164
3	0xbf8fe6d9	-1.1242324
4	0x3ef159e2	0.47138888
5	0x3d477353	0.048693966
6	0x3f9af2bf	1.210533
7	0x3f778c13	0.9669811
8	0x3f1b92fc	0.60771155
9	0x3f817469	1.011365
10	0xbeeb7061	-0.45984176
11	0x3e51df0e	0.20495245
12	0x3dc7921d	0.09744666
13	0x3dc6f72b	0.09715112
14	0xbfb9808d	-1.4492356
15	0x3f2f55d1	0.6849032
16	0x3ffa7bcd	1.9569031
17	0x3fa6636c	1.2999091
18	0x3f4c5239	0.7981296
19	0xbec75d2d	-0.38938275
20	0xbebc42f1	-0.36769822
21	0x3f8b5191	1.0884267
22	0xbecc115e	-0.39857
23	0x3f46da85	0.77677184
24	0xbf204a55	-0.6261342
25	0xbe8a5ff0	-0.2702632
26	0x3f6f3506	0.9344028
27	0x3d9dc707	0.07703977
28	0x3fb9c376	1.4512775
29	0xbedf1025	-0.43567005
30	0xbea8dc30	-0.3298049
31	0x3f01527a	0.50516474
32	0xbfe58ef8	-1.7934256
33	0xbee4d642	-0.44694716
34	0xbeb77934	-0.35834658
35	0xbf80ca7e	-1.0061796
36	0xbf5f8322	-0.8730947
37	0x3f0ac091	0.54200083
38	0xbff03cd5	-1.8768564
39	0x3f2d1c93	0.67621726
40	0xbddb7de8	-0.10717374
41	0xbeca55e4	-0.39518654
42	0xbf0116d6	-0.5042547
43	0x3d378234	0.044801906
44	0xbf708645	-0.9395488
45	0xbeaf8736	-0.34282845
46	0xbdc032af	-0.09384667
47	0xbf91d54e	-1.139322
48	0x3f227206	0.63455236
49	0xbf06d886	-0.5267414
50	0x3df4f61b	0.119610034
51	0xbfa52e56	-1.2904766
52	0x3d8e1bce	0.06938897
53	0xbd8e80e9	-0.069581814
54	0xbdf24ddf	-0.11831259
55	0xbf25fb23	-0.6483633
56	0x3e96eee6	0.2947914
57	0xbeea9737	-0.45818493
58	0x3e53d4ce	0.20686647
59	0xbd811ba9	-0.06304104
60	0x3f81201b	1.0087923
61	0x3fa06590	1.2530994
62	0x3e91939c	0.2843293
63	0x3dc9266d	0.09821782
64	0x3ea2ce96	0.31798238
65	0x3f88dccc	1.0692382
66	0xbfc60071	-1.5468885
67	0x3fd8f523	1.694981
68	0x3fdaa1af	1.7080592
69	0x3ee7d771	0.45281556
70	0xbe2998bd	-0.16562171
71	0x3e569633	0.20955734
72	0x3f878996	1.0588863
73	0xbe840942	-0.25788313
74	0xbec4c562	-0.3843184
75	0x3f5e1599	0.86751705
76	0x3e9e71d6	0.30946225
77	0x3f86b278	1.0523214
78	0x3f9c1b69	1.2195865
79	0x3dfa13b1	0.12210787
80	0x3fb34e09	1.400819
81	0x3f80aec7	1.0053338
82	0xbf3acbab	-0.7296702
83	0x3f4ce5e0	0.8003826
84	0x3e9e116f	0.30872676
85	0xbf290134	-0.6601746
86	0xbe394e18	-0.18096197
87	0xbe16a326	-0.14710674
88	0x3f6f5789	0.93492943
89	0x3f8b9a2d	1.0906426
90	0x3d7934f6	0.060841523
91	0xbed1606c	-0.40893877
92	0xbebe8e71	-0.3721805
93	0xbf40fd1b	-0.7538621
94	0xbf17e57e	-0.5933455
95	0x3efba5ce	0.49149936
96	0xc002f273	-2.046048
97	0x3f6fd500	0.9368439
98	0xbf95ef98	-1.1713743
99	0x3da54b91	0.08071054
100	0xbf37b4d5	-0.717603
101	0x3f62fc9a	0.8866669
102	0x3f38d9c7	0.722073
103	0xbb5aa35c	-0.003336153
104	0x3f46dc8d	0.77680284
105	0xbed2ab64	-0.41146386
106	0xbe8338f3	-0.25629386
107	0xbf6a1efb	-0.9145352
108	0xbf2e1eb2	-0.6801559
109	0xbea89a52	-0.32930237
110	0x3dae56a1	0.08512617
111	0xbf1466b3	-0.57969207
112	0x3f050e85	0.5197528
113	0x3db8ef7b	0.09030052
114	0xbf099bd6	-0.5375341
115	0x3f2e9668	0.6819825
116	0xbf8ecb8e	-1.115587
117	0xc00759c0	-2.114853
118	0x3e8f0048	0.27929902
119	0x3f8edfba	1.1162026
120	0x3ed11c65	0.40841976
121	0x3f953ac8	1.1658564
122	0xbf8f993b	-1.1218637
123	0xbe21164e	-0.15731165
124	0x3d7e2dfd	0.062055577
125	0xbf4dc007	-0.80371135
126	0x3d0adc2a	0.03390137
127	0xbc45dcdc	-0.012076583
128	0x3fa7946d	1.3092171
129	0x3eb2a4bd	0.3489131
130	0xbddc80d2	-0.10766758
131	0xbdb19a55	-0.086720146
132	0xbf14578a	-0.57946074
133	0x3eaeb307	0.34120962
134	0xbde07c7e	-0.10961245
135	0x3d273643	0.040823232
136	0x3f3994e7	0.7249283
137	0xbebe65bb	-0.3718699
138	0x3e92a8bc	0.2864436
139	0xbe4f0c02	-0.20219424
140	0xbfb05b6f	-1.3777903
141	0x3f6cd282	0.9250871
142	0x3e3e8522	0.18605474
143	0xbe593442	-0.21211341
144	0xbde3c189	-0.11120898
145	0xbf0a6069	-0.5405336
146	0x3e78ea9e	0.2430825
147	0x3d63be51	0.05560142
148	0x3fd697de	1.6765096
149	0xbecf2333	-0.40456542
150	0x3f09ac25	0.53778297
151	0x3f35be97	0.7099394
152	0xbf318881	-0.69348913
153	0x3f90f9a3	1.1326183
154	0xbde801bc	-0.11328456
155	0x3f771cc2	0.96528256
156	0x4020210e	2.5020175
157	0xbe456b8a	-0.19279304
158	0xbf1e92ec	-0.61942935
159	0x3f1e9013	0.6193859
160	0xbf378775	-0.71691066
161	0x3e3f8b27	0.18705426
162	0xbf485513	-0.7825481
163	0x3efaa924	0.4895717
164	0x3fb40d0f	1.4066485
165	0xbf40a9d9	-0.75259167
166	0x3ef564d5	0.4792849
167	0x3fa22084	1.2666173
168	0xbf04db2f	-0.5189695
169	0xbe9a9c0f	-0.30197188
170	0xbfafd6a1	-1.3737375
171	0xbcdd3ac8	-0.027005568
172	0xbfd38ee2	-1.6527979
173	0xbf84ffe9	-1.0390598
174	0x3eee1013	0.4649664
175	0x3a84685b	0.0010101901
176	0x3ebf9be9	0.37423638
177	0x3f67d610	0.9056101
178	0xbf0ce18f	-0.55031675
179	0xbed6d069	-0.4195588
180	0x3f295334	0.6614258
181	0xbfc17119	-1.511264
182	0x3f88f63c	1.0700145
183	0x3dcb4e9c	0.09927103
184	0xbfcba96c	-1.5911078
185	0x3f0fce21	0.561739
186	0xbf433be8	-0.76263285
187	0xbf541a47	-0.82852596
188	0xbf458a42	-0.7716409
189	0x3fb574c4	1.4176259
190	0xbf972e6b	-1.1811041
191	0xba8dc669	-0.0010816577
192	0x3e327a93	0.17429571
193	0x3f834c1f	1.0257605
194	0x3f34b346	0.7058605
195	0xbc69ca7e	-0.014269469
196	0xbfd094ea	-1.6295445
197	0xbf088830	-0.53332806
198	0x3ea2a196	0.31763905
199	0x3fdad323	1.7095684
200	0x3d9ff713	0.078107975
201	0x3f874ed4	1.0570931
202	0x3b7773f0	0.0037758313
203	0x3fbc4bf8	1.4710684
204	0x3f1d6620	0.61483955
205	0x3e4cb7d2	0.19991997
206	0x3f087aee	0.53312576
207	0x3eaa20a4	0.33228028
208	0x3e452422	0.19252065
209	0xbec06e0a	-0.37583953
210	0xbdeb278c	-0.11482152
211	0x3c8f95ac	0.017527424
212	0x3f0d8287	0.55277294
213	0x3f0561d9	0.5210243
214	0xbf7e6ae0	-0.9938183
215	0xbdd85b42	-0.10564281
216	0xbfa028c1	-1.2512437
217	0x3ec68223	0.3877116
218	0x3fad89b6	1.3557651
219	0x3e965087	0.29358312
220	0xbeab041c	-0.33401573
221	0x3f82df8b	1.022447
222	0xbf975df5	-1.1825548
223	0xbeee476f	-0.46538875
224	0x3fa8a314	1.3174767
225	0xbf84835f	-1.0352591
226	0x3f562da2	0.8366338
227	0x3f3febd5	0.74969226
228	0xbee8a9b8	-0.45441985
229	0xbc88c28e	-0.016694333
230	0x3edc3f6a	0.4301713
231	0xbdad4d20	-0.08461976
232	0x3f6a27e6	0.9146713
233	0xbda42321	-0.08014513
234	0x3eccaf97	0.39977714
235	0xbf5237e5	-0.8211654
236	0x3c6fdd43	0.014640155
237	0xbd6c6563	-0.057713877
238	0x3f6e8204	0.9316714
239	0xbf172bb0	-0.59051037
240	0x3f9d2280	1.2276154
241	0xbf2339d9	-0.63760144
242	0xbf80f7ef	-1.0075663
243	0xbe9a42c9	-0.30129078
244	0x3e874cc1	0.26425746
245	0x3f3bebe6	0.7340683
246	0x3fb2bf21	1.3964578
247	0xbe68a69b	-0.22719805
248	0xbf63d3a1	-0.88994795
249	0x3fac9692	1.348345
250	0x3f12313d	0.5710638
251	0x3f481a53	0.7816517
252	0x3f7de849	0.99182564
253	0x3f2e9957	0.6820273
254	0x3f0a2f00	0.53977966
255	0x3fe39c2c	1.7782035

model.models.many-body.layers.0.self_interaction.linear.output_mask f4 [72]
0	0x3f800000	1.0
1	0x3f800000	1.0
2	0x3f800000	1.0
3	0x3f800000	1.0
4	0x3f800000	1.0
5	0x3f800000	1.0
6	0x3f800000	1.0
7	0x3f800000	1.0
8	0x3f800000	1.0
9	0x3f800000	1.0
10	0x3f800000	1.0
11	0x3f800000	1.0
12	0x3f800000	1.0
13	0x3f800000	1.0
14	0x3f800000	1.0
15	0x3f800000	1.0
16	0x3f800000	1.0
17	0x3f800000	1.0
18	0x3f800000	1.0
19	0x3f800000	1.0
20	0x3f800000	1.0
21	0x3f800000	1.0
22	0x3f800000	1.0
23	0x3f800000	1.0
24	0x3f800000	1.0
25	0x3f800000	1.0
26	0x3f800000	1.0
27	0x3f800000	1.0
28	0x00000000	0.0
29	0x00000000	0.0
30	0x00000000	0.0
31	0x00000000	0.0
32	0x00000000	0.0
33	0x00000000	0.0
34	0x00000000	0.0
35	0x00000000	0.0
36	0x00000000	0.0
37	0x00000000	0.0
38	0x00000000	0.0
39	0x00000000	0.0
40	0x00000000	0.0
41	0x00000000	0.0
42	0x00000000	0.0
43	0x00000000	0.0
44	0x00000000	0.0
45	0x00000000	0.0
46	0x00000000	0.0
47	0x00000000	0.0
48	0x00000000	0.0
49	0x00000000	0.0
50	0x00000000	0.0
51	0x00000000	0.0
52	0x00000000	0.0
53	0x00000000	0.0
54	0x00000000	0.0
55	0x00000000	0.0
56	0x00000000	0.0
57	0x00000000	0.0
58	0x00000000	0.0
59	0x00000000	0.0
60	0x00000000	0.0
61	0x00000000	0.0
62	0x00000000	0.0
63	0x00000000	0.0
64	0x00000000	0.0
65	0x00000000	0.0
66	0x00000000	0.0
67	0x00000000	0.0
68	0x00000000	0.0
69	0x00000000	0.0
70	0x00000000	0.0
71	0x00000000	0.0
