Class-2/graph-pes-results/train-SchNet/checkpoints/last.ckpt (torch, 134823 bytes, 106 tensors)

model.models.offset._offsets f4 [119, 1]
0.0 0.0 0.0 0.0 0.0 0.0 -148.314 0.0
0.0 0.0 0.0 0.0 0.0 0.0 0.0 0.0
0.0 0.0 0.0 0.0 0.0 0.0 0.0 0.0
0.0 0.0 0.0 0.0 0.0 0.0 0.0 0.0
0.0 0.0 0.0 0.0 0.0 0.0 0.0 0.0
0.0 0.0 0.0 0.0 0.0 0.0 0.0 0.0
0.0 0.0 0.0 0.0 0.0 0.0 0.0 0.0
0.0 0.0 0.0 0.0 0.0 0.0 0.0 0.0
0.0 0.0 0.0 0.0 0.0 0.0 0.0 0.0
0.0 0.0 0.0 0.0 0.0 0.0 0.0 0.0
0.0 0.0 0.0 0.0 0.0 0.0 0.0 0.0
0.0 0.0 0.0 0.0 0.0 0.0 0.0 0.0
0.0 0.0 0.0 0.0 0.0 0.0 0.0 0.0
0.0 0.0 0.0 0.0 0.0 0.0 0.0 0.0
0.0 0.0 0.0 0.0 0.0 0.0 0.0
00000000: 0000 0000 0000 0000 0000 0000 0000 0000
00000010: 0000 0000 0000 0000 6250 14c3 0000 0000
00000020: 0000 0000 0000 0000 0000 0000 0000 0000
00000030: 0000 0000 0000 0000 0000 0000 0000 0000
00000040: 0000 0000 0000 0000 0000 0000 0000 0000
00000050: 0000 0000 0000 0000 0000 0000 0000 0000
00000060: 0000 0000 0000 0000 0000 0000 0000 0000
00000070: 0000 0000 0000 0000 0000 0000 0000 0000
00000080: 0000 0000 0000 0000 0000 0000 0000 0000
00000090: 0000 0000 0000 0000 0000 0000 0000 0000
000000a0: 0000 0000 0000 0000 0000 0000 0000 0000
000000b0: 0000 0000 0000 0000 0000 0000 0000 0000
000000c0: 0000 0000 0000 0000 0000 0000 0000 0000
000000d0: 0000 0000 0000 0000 0000 0000 0000 0000
000000e0: 0000 0000 0000 0000 0000 0000 0000 0000
000000f0: 0000 0000 0000 0000 0000 0000 0000 0000
00000100: 0000 0000 0000 0000 0000 0000 0000 0000
00000110: 0000 0000 0000 0000 0000 0000 0000 0000
00000120: 0000 0000 0000 0000 0000 0000 0000 0000
00000130: 0000 0000 0000 0000 0000 0000 0000 0000
00000140: 0000 0000 0000 0000 0000 0000 0000 0000
00000150: 0000 0000 0000 0000 0000 0000 0000 0000
00000160: 0000 0000 0000 0000 0000 0000 0000 0000
00000170: 0000 0000 0000 0000 0000 0000 0000 0000
00000180: 0000 0000 0000 0000 0000 0000 0000 0000
00000190: 0000 0000 0000 0000 0000 0000 0000 0000
000001a0: 0000 0000 0000 0000 0000 0000 0000 0000
000001b0: 0000 0000 0000 0000 0000 0000 0000 0000
000001c0: 0000 0000 0000 0000 0000 0000 0000 0000
000001d0: 0000 0000 0000 0000 0000 0000

model.models.many-body.chemical_embedding._embeddings f4 [119, 16]
-0.2800584 0.22481026 0.8939302 0.40472874 1.1080741 -1.9721822 1.959706 -0.509887
0.07677697 -0.1830874 -1.2058735 -0.7518447 0.21037656 -0.37494853 -1.283309 -0.7339176
1.7233038 -0.47203347 0.5261112 -0.121831656 1.9399617 -0.3630007 -1.0560278 1.500527
1.0458399 -0.3689384 -1.4590611 1.364037 0.16577019 0.07052199 0.02253182 -1.0379791
-1.0008899 0.3431863 -1.2219653 -1.8391407 -0.9805727 0.88668305 1.5086429 -0.49293566
1.3793843 0.94637406 -0.1464802 0.6220103 -0.41446885 1.4276646 0.40879044 -0.5505171
1.8103224 0.037257466 0.16428947 -1.242408 1.5761248 -0.23357488 1.0874518 0.7593507
-0.6456008 -0.6992819 0.2028537 -0.24540891 -0.4086096 -0.15627316 0.006456534 -0.23966509
0.3518226 0.64430046 0.59281176 -1.1814277 0.88866216 1.3726182 -0.82020384 -0.56068313
-0.3045087 0.4297737 2.2195594 -0.5870115 1.4050211 -0.57203454 1.2177118 -0.22351275
1.3934898 -0.37705117 0.74131256 0.13926786 -0.30981237 -1.067375 0.033862304 0.34387696
-0.77905226 0.48352626 0.02142826 2.019905 1.368278 1.515226 0.8936433 -0.95380074
0.19176146 -1.7490659 1.1549333 -0.14897227 -1.2439251 1.4679285 -1.4273123 -0.7016135
0.54207754 2.061875 -0.2935104 0.8237031 0.7490121 0.7583048 -0.67228824 -0.002115661
0.50096005 -1.8493011 0.29821625 -1.3808798 0.28133214 -0.07739771 0.506511 -0.26254272
0.26806363 0.8096592 -0.48670307 -0.23193121 -1.1887094 -0.9173139 0.6467224 0.6252026
-0.08841564 -0.37323448 0.5712995 -0.62021667 0.09581614 0.22824314 -0.6010579 -0.5532704
-1.7805761 0.19394624 0.7930444 -0.07474618 -0.5833562 1.363459 -0.70337033 0.08668538
-0.9983994 -0.17085478 0.35810372 0.21714832 -0.90469253 0.7446983 2.4334345 -0.51424944
-0.011821041 -1.306724 0.2990395 0.2629164 0.47873527 0.34067792 0.29798567 0.71549565
-0.23474468 0.23220953 1.2599009 0.5390777 1.0061566 0.2760708 -0.2623713 -0.096917965
-0.3300299 1.1072984 2.1234963 -1.3702424 2.725339 -0.40324396 0.18457451 1.5102054
0.07723206 1.443563 1.1972967 0.70493984 0.14927527 0.38270602 -0.2840584 0.6829537
0.10576569 -1.5139221 0.44687754 -0.76527864 -0.10939085 -0.060324807 -0.8467182 0.5494163
0.6468688 -0.057669114 0.68997943 1.2275506 1.838303 -0.83716667 0.7658325 0.38517684
-0.04264099 0.22837643 0.6259899 0.0647819 0.25792682 -0.7049954 -0.4750497 0.24579485
0.08311912 -0.30229285 0.36274162 0.62043184 -1.1461488 1.1573921 0.18985671 0.0012527672
-0.7648537 -1.0015498 -1.450686 0.20213558 1.1334363 -1.2378858 0.47839418 0.19979112
0.10651105 -0.12560602 0.5849167 0.6005434 -0.20731544 0.47026053 0.22856994 1.2533274
1.3055804 -0.448367 -1.4527148 0.68160546 0.25770035 -0.94713956 -0.7361761 0.23880565
0.25505474 -0.8186453 2.0565329 0.2557727 -0.15126379 -2.3304594 1.0417333 -0.92080444
0.8211196 0.6696729 0.15311614 0.6838091 -0.48974046 0.9464061 0.4258357 -0.06483427
00000000: d163 8fbe a934 663e 9cd8 643f 9b38 cf3e
00000010: 5fd5 8d3f 7770 fcbf a5d7 fa3f f487 02bf
00000020: 3e3d 9d3d 437b 3bbe 105a 9abf e578 40bf
00000030: f46c 573e 41f9 bfbe 7843 a4bf 06e2 3bbf
00000040: 3895 dc3f 5fae f1be 39af 063f e082 f9bd
00000050: aa50 f83f 3adb b9be eb2b 87bf 4511 c03f
00000060: 15de 853f 7ee5 bcbe 84c2 babf c498 ae3f
00000070: a9bf 293e d56d 903d a794 b83c 80dc 84bf
00000080: 291d 80bf 1db6 af3e 5c69 9cbf f668 ebbf
00000090: d006 7bbf a9fd 623f 361b c13f 1062 fcbe
000000a0: aa8f b03f 9245 723f e8fe 15be 113c 1f3f
000000b0: 4335 d4be b7bd b63f fb4c d13e b0ee 0cbf
000000c0: a5b8 e73f 499b 183d 803b 283e 3a07 9fbf
000000d0: 75be c93f 412e 6fbe 9f31 8b3f cf64 423f
000000e0: 1846 25bf 2304 33bf e1b8 4f3e 794c 7bbe
000000f0: 4735 d1be 1206 20be 5591 d33b c46a 75be
00000100: 1822 b43e e0f0 243f 83c2 173f 0639 97bf
00000110: 5d7f 633f f4b1 af3f e1f8 51bf ee88 0fbf
00000120: 90e8 9bbe 4c0b dc3e 430d 0e40 6346 16bf
00000130: bbd7 b33f db70 12bf fbdd 9b3f 87e0 64be
00000140: e05d b23f da0c c1be a9c6 3d3f 3c9c 0e3e
00000150: ba9f 9ebe be9f 88bf 33b3 0a3d a410 b03e
00000160: f86f 47bf c190 f73e 518a af3c 2046 0140
00000170: bc23 af3f edf2 c13f cfc5 643f 492c 74bf
00000180: 1e5d 443e 64e1 dfbf dbd4 933f 308c 18be
00000190: f038 9fbf 15e5 bb3f 2bb2 b6bf f19c 33bf
000001a0: 98c5 0a3f c3f5 0340 ff46 96be 35de 523f
000001b0: 42bf 3f3f 4320 423f 151b 2cbf e7a6 0abb
000001c0: eb3e 003f e6b5 ecbf cdaf 983e abc0 b0bf
000001d0: c40a 903e b182 9ebd b4aa 013f 006c 86be
000001e0: a33f 893e d345 4f3f 2531 f9be 607f 6dbe
000001f0: a127 98bf 15d5 6abf 998f 253f 470d 203f
00000200: 4213 b5bd 9718 bfbe af40 123f 85c6 1ebf
00000210: 413b c43d 92b8 693e eede 19bf 21a3 0dbf
00000220: ebe9 e3bf d899 463e f504 4b3f 8614 99bd
00000230: d556 15bf d385 ae3f 1410 34bf 1b88 b13d
00000240: 1a97 7fbf 8ef4 2ebe 5f59 b73e 215c 5e3e
00000250: ee99 67bf 8ca4 3e3f 64bd 1b40 daa5 03bf
00000260: 0aad 41bc bb42 a7bf b51b 993e fa9c 863e
00000270: ca1c f53e 566d ae3e 9491 983e b92a 373f
00000280: e960 70be 56c8 6d3e 6f44 a13f ff00 0a3f
00000290: bdc9 803f 2759 8d3e 8855 86be ed7c c6bd
000002a0: aef9 a8be f4bb 8d3f 5de7 0740 1a64 afbf
000002b0: f46b 2e40 fe75 cebe 1a01 3d3e 694e c13f
000002c0: d82b 9e3d acc6 b83f 0541 993f f076 343f
000002d0: 9edb 183e 0bf2 c33e 1a70 91be 0ed6 2e3f
000002e0: af9b d83d 33c8 c1bf 22cd e43e 4de9 43bf
000002f0: 4f08 e0bd 2517 77bd 86c2 58bf 8ca6 0c3f
00000300: 3299 253f 7336 6cbd 7ea2 303f 6120 9d3f
00000310: 834d eb3f 8e50 56bf 990d 443f e635 c53e
00000320: 52a8 2ebd 83db 693e e040 203f 5fac 843d
00000330: fc0e 843e 947a 34bf b739 f3be a5b1 7b3e
00000340: 5b3a aa3d 21c6 9abe 45b9 b93e 9fd4 1e3f
00000350: 01b5 92bf 6d25 943f cc69 423e e433 a43a
00000360: 74cd 43bf c932 80bf 14b0 b9bf a1fc 4e3e
00000370: 7114 913f 0b73 9ebf 15f0 f43e 0b96 4c3e
00000380: 7722 da3d dd9e 00be 1abd 153f 36bd 193f
00000390: 804a 54be fdc5 f03e 3d0e 6a3e 086d a03f
000003a0: 421d a73f 5c90 e5be 8ff2 b9bf b27d 2e3f
000003b0: 4df1 833e bd77 72bf 0976 3cbf 7889 743e
000003c0: 8996 823e bd92 51bf 3c9e 0340 a4f4 823e
000003d0: e5e4 1abe 3f26 15c0 8457 853f d7b9 6bbf
000003e0: e534 523f af6f 2b3f 7aca 1c3e 1d0e 2f3f
000003f0: 43bf fabe ac47 723f 2307 da3e d4c7 84bd

model.models.many-body.interactions.0.linear.weight f4 [16, 16]
0.044972837 0.10335758 -0.18771403 0.10203367 -0.19517425 -0.15096557 0.04325758 -0.038244568
0.20450689 -0.106689304 0.078930035 -0.07336245 0.0132320905 0.20207798 -0.109145015 -0.060473792
-0.11006254 0.1102445 0.10057062 0.07006549 0.042912234 -0.22064444 0.17074843 -0.07367866
-0.05475734 0.104009435 0.13210107 -0.11862247 -0.12630366 -0.13182576 -0.04505111 0.20589733
0.18100904 -0.09949512 -0.15576209 0.15073606 -0.25294653 0.12689474 0.08432111 -0.048307247
0.029595116 0.083490245 -0.098746836 -0.13699351 0.103372306 0.22436585 -0.02534399 -0.09644698
-0.063720405 0.18434805 -0.16401994 -0.2249113 -0.21031454 0.112981364 0.18313022 -0.12498116
0.14025693 -0.19032156 -0.050724857 0.20587213 0.22372267 0.04555091 0.086173534 -0.16118085
0.080967054 0.17720772 -0.2150738 -0.16056001 0.12956786 -0.040651157 0.030652314 0.07808692
-0.004412371 -0.25255153 0.1010051 0.1817954 -0.09867218 0.13304232 0.23480353 -0.12601376
-0.2709277 0.19641005 -0.18539847 0.21153599 -0.024193877 -0.16398993 0.024308274 -0.01125419
-0.10776466 -0.20113769 0.025090469 -0.2127958 -0.20740974 -0.16413599 0.17314464 -0.040296547
0.14130384 -0.1182102 -0.07550595 0.2159411 -0.1421847 0.10645164 -0.16979726 -0.17167541
0.06707934 0.15499288 0.07505742 0.18781112 -0.04227539 -0.15762934 -0.21922852 0.1082538
-0.12471646 0.10760306 -0.2790077 0.11095565 -0.108177535 -0.11211046 0.31507313 0.20921439
-0.07976979 -0.093207195 0.020116469 0.05790582 -0.25607544 -0.050790854 0.28104806 0.05251298
0.21736623 0.040543392 -0.14788254 -0.07758823 -0.04429739 -0.035415 0.025015518 0.12332156
0.16461815 -0.20377615 0.2089937 -0.06761603 0.11178389 -0.2101101 0.040065147 -0.13253763
-0.04067922 -0.33894762 0.35283852 -0.12973076 0.029303107 0.34011796 -0.03899 -0.21057968
0.13152337 0.13260743 -0.12629789 0.07317408 0.23765872 0.26916298 -0.13165097 0.10853109
-0.39406002 -0.01192339 -0.12458892 0.23502342 0.14844519 -0.19728512 -0.014447559 0.27781224
-0.22676583 -0.242479 0.33133966 -0.19206911 -0.22023886 -0.30926263 0.23801562 -0.052735094
0.20952399 -0.22286998 0.19797274 -0.010872057 -0.03354807 -0.000578158 -0.13521919 0.15324111
-0.1887371 0.021956172 0.08153269 0.0125540765 0.16590564 -0.17417133 -0.065689586 -0.12270432
0.10625938 0.044737108 -0.13046207 0.10619627 0.24045835 0.061216827 0.09661404 -0.14160849
-0.1779874 -0.09001357 0.23650719 0.18853787 0.17289695 0.07503679 0.11436613 0.085292675
-0.069719136 -0.21434744 -0.18658042 -0.07242924 0.17366643 -0.15094434 -0.062270083 -0.050071687
-0.11203079 0.14134271 0.037588302 -0.034275234 0.17763959 -0.19505833 0.08769131 0.04071479
-0.13773556 -0.052515104 -0.10949357 -0.19069795 -0.0038016601 -0.06809615 -0.17242649 0.09605801
0.14716989 -0.017448373 -0.17915058 0.15517814 -0.06499498 -0.13381737 -0.21576744 -0.081182525
-0.18028013 0.23718485 -0.06797129 0.2216102 -0.015807806 0.15548252 -0.11383437 0.22278298
-0.17172337 0.048196845 0.024647182 0.1563969 -0.1492181 0.10302986 -0.049760554 -0.19627061
00000000: 7035 383d 24ad d33d 1b38 40be 07f7 d03d
00000010: c2db 47be b896 1abe dc2e 313d 56a6 1cbd
00000020: 416a 513e ec7f dabd 12a6 a13d 0d3f 96bd
00000030: 69cb 583c 88ed 4e3e 6c87 dfbd 5eb3 77bd
00000040: 7868 e1bd dec7 e13d f8f7 cd3d 7f7e 8f3d
00000050: bdc4 2f3d 9ef0 61be add8 2e3e d6e4 96bd
00000060: 3c49 60bd e602 d53d 8145 073e 56f0 f2bd
00000070: bf55 01be 55fd 06be 8387 38bd c0d6 523e
00000080: 6f5a 393e 19c4 cbbd 1980 1fbe 8e5a 1a3e
00000090: 3582 81be b2f0 013e 8cb0 ac3d d2dd 45bd
000000a0: 7571 f23c effc aa3d c83b cabd 0748 0cbe
000000b0: dcb4 d33d 29c0 653e 339e cfbc ff85 c5bd
000000c0: d87f 82bd bcc5 3c3e d8f4 27be 264f 66be
000000d0: b25c 57be c662 e73d 7d86 3b3e 1ff6 ffbd
000000e0: 839f 0f3e a8e3 42be dec4 4fbd 25d0 523e
000000f0: 8e17 653e 9793 3a3d c07b b03d 980c 25be
00000100: 0ed2 a53d f175 353e 4e3c 5cbe d869 24be
00000110: 70ad 043e d481 26bd 901a fb3c 09ec 9f3d
00000120: a795 90bb 6f4e 81be c3db ce3d 9328 3a3e
00000130: a414 cabd 3f3c 083e 5670 703e c009 01be
00000140: 09b7 8abe b71f 493e 19d9 3dbe e49c 583e
00000150: 3d32 c6bc faec 27be 2522 c73c 7e63 38bc
00000160: b8b3 dcbd 0af7 4dbe 878a cd3c 24e7 59be
00000170: 3863 54be 4413 28be d44c 313e fe0d 25bd
00000180: f4b1 103e 3018 f2bd dda2 9abd aa1f 5d3e
00000190: de98 11be 5103 da3d 55df 2dbe aecb 2fbe
000001a0: e560 893d 74b6 1e3e b4b7 993d 8f51 403e
000001b0: f628 2dbd 9669 21be 717d 60be 2bb4 dd3d
000001c0: 586b ffbd fe5e dc3d 19da 8ebe b73c e33d
000001d0: 2f8c ddbd 2b9a e5bd 4451 a13e 4c3c 563e
000001e0: 585e a3bd 6ae3 bebd 4bcb a43c a72e 6d3d
000001f0: 521c 83be 120a 50bd 88e5 8f3e da17 573d
00000200: 4195 5e3e d410 263d 856e 17be 94e6 9ebd
00000210: 2e71 35bd 520f 11bd 58ed cc3c 0490 fc3d
00000220: a991 283e b2aa 50be 7202 563e 467a 8abd
00000230: f4ee e43d 1a27 57be 5a1b 243d f2b7 07be
00000240: 419f 26bd 8b8a adbe 40a7 b43e 24d8 04be
00000250: 120d f03c f123 ae3e fab3 1fbd 33a2 57be
00000260: 10ae 063e 3eca 073e 3c54 01be 4bdc 953d
00000270: cf5c 733e bbcf 893e 83cf 06be 8c45 de3d
00000280: 3cc2 c9be 535a 43bc 7a28 ffbd fba9 703e
00000290: 0402 183e 1c05 4abe 74b5 6cbc 683d 8e3e
000002a0: 4d35 68be 6a4c 78be 5aa5 a93e c4ad 44be
000002b0: 4c86 61be ac57 9ebe 5eba 733e c100 58bd
000002c0: 758d 563e 0738 64be 5eb9 4a3e b620 32bc
000002d0: b369 09bd 878f 17ba e676 0abe 3deb 1c3e
000002e0: 4c44 41be 6edd b33c 9cfa a63d 9daf 4d3c
000002f0: 2be3 293e f859 32be 4388 86bd 674c fbbd
00000300: 859e d93d 423e 373d d997 05be 6e7d d93d
00000310: b73a 763e 7fbe 7a3d 95dd c53d d101 11be
00000320: 5442 36be 0959 b8bd f12e 723e 1210 413e
00000330: e60b 313e e3ac 993d ca38 ea3d edad ae3d
00000340: e8c8 8ebd e57d 5bbe f00e 3fbe c855 94bd
00000350: 9dd5 313e 2791 1abe ea0e 7fbd f817 4dbd
00000360: 6670 e5bd 25bc 103e 31f6 193d 3064 0cbd
00000370: 27e7 353e 5fbd 47be 8097 b33d 8dc4 263d
00000380: 8d0a 0dbe 141a 57bd 2a3e e0bd 5346 43be
00000390: 4625 79bb ff75 8bbd 9290 30be 10ba c43d
000003a0: b4b3 163e e4ef 8ebc 4073 37be 05e7 1e3e
000003b0: 171c 85bd 6c07 09be 24f2 5cbe 0643 a6bd
000003c0: 5b9b 38be 96e0 723e 8834 8bbd c9ed 623e
000003d0: 5f7f 81bc cf36 1f3e ff21 e9bd 3921 643e
000003e0: 40d8 2fbe 0e6a 453d e3e8 c93c 8226 203e
000003f0: a1cc 18be 5201 d33d b9d1 4bbd 2afb 48be

model.models.many-body.interactions.0.cfconv.filter_generator.0.centers f4 [15]
0.6482419 0.5375715 0.5639594 0.79061323 1.236116 1.2721239 1.2294708 1.896388
1.8792081 2.0208058 2.320961 2.663804 2.907367 3.2850559 3.5497165
00000000: 2ef3 253f 499e 093f a55f 103f a165 4a3f
00000010: 0d39 9e3f f5d4 a23f 4d5f 9d3f d8bc f23f
00000020: e489 f03f e254 0140 a08a 1440 c47b 2a40
00000030: 4d12 3a40 5b3e 5240 8e2e 6340

model.models.many-body.interactions.0.cfconv.filter_generator.1.linear_layers.0.weight f4 [16, 15]
-0.27084246 0.02831409 0.1675553 -0.043287322 -0.29309225 -0.49928197 -0.45169073 0.530565
0.2625603 -0.15976952 0.15487954 0.11462958 -0.15694329 -0.2182976 0.017036334 -0.17602152
0.14002393 0.2192177 0.014241839 -0.34374624 -0.42750004 -0.13582438 0.23308569 0.33395544
0.000385678 -0.08396409 -0.13299204 -0.029371394 0.038244065 -0.13434705 -0.47567084 -0.009481786
-0.16869944 0.14252427 -0.25838733 -0.21702923 -0.14032316 0.44236937 0.40913314 0.08211991
0.12161552 0.10782347 -0.10511869 0.06225951 -0.15617444 -0.04886027 0.13368246 0.25136164
0.11655162 0.2485668 0.2126112 0.28216144 -0.21502838 -0.29514095 -0.12054983 -0.15699296
0.26825997 -0.18177126 -0.1761923 -0.060754985 0.39834383 -0.12463043 -0.38571212 -0.010009566
-0.3313063 0.09720204 0.12908381 0.17425099 0.2862921 0.21317935 0.19761953 -0.03129959
-0.04037694 -0.19062637 -0.12724665 -0.185735 -0.45663875 -0.056649033 -0.3110113 0.07043331
0.028379317 0.011779679 -0.16275102 -0.08364203 -0.010208607 0.1597497 0.22792365 -0.010187325
0.02044632 -0.3268681 -0.3032531 0.23358299 0.38388377 0.13943374 -0.50457 -0.095288165
-0.13500498 0.27809894 0.2070645 -0.29579753 -0.27848125 -0.19854812 -0.01697973 0.14002946
-0.1626534 1.1000069 0.39450067 0.2621514 0.26281732 0.42345777 0.36365402 0.24193925
-0.06590761 -0.21916452 0.25779948 -0.21312784 -0.13161668 0.14838666 -0.073249 0.16064404
0.4572454 0.13939768 0.32625636 0.29494363 -0.24770412 -0.21304463 -0.3721939 0.6698609
0.014245559 0.15829703 -0.09619148 0.096562065 0.14308262 -0.1687287 0.056552976 0.5146271
0.55680484 0.1865808 0.21041667 -0.1456448 -0.17843972 -0.2911111 0.24619162 0.46709764
0.25333637 -0.016301693 -0.1702461 -0.09218015 -0.07979719 -0.17863595 0.6127627 0.12716563
-0.06539292 0.35917604 0.30385435 0.5191302 0.12174776 -0.2833483 -0.1978681 0.013694253
-0.21136183 -0.04387533 -0.063336365 -0.21835579 -0.038955227 0.9080145 0.4421065 0.035224017
0.35915846 0.3614955 0.22513871 0.47659627 -0.44332847 -0.2275607 -0.14115024 -0.22269166
0.1258915 0.11515978 -0.035817795 -0.008823485 -1.2298405 -0.72281265 -0.70834863 -0.50645334
-0.27299878 -0.09076771 -0.053077437 0.09815714 0.17076345 -0.11081651 0.108074896 0.1550362
-0.044148233 0.22995472 0.23917606 -0.15132755 -0.28908697 -0.2291191 -0.39508936 0.0008989131
0.11147136 -0.061301675 0.1955908 -0.06258998 0.21924442 0.23862728 -0.10617582 -0.18985583
-0.24330571 0.07885507 0.45547423 -0.07343467 0.12729988 0.38070056 0.099339195 0.33703446
0.036317274 -0.19422711 -0.18212524 0.0792122 -0.1077571 -0.05812791 0.031484094 -0.10518013
0.13788444 -0.12564725 -0.25792155 0.058400393 -0.03625719 0.41171688 0.25093317 -0.00026604586
0.0924997 -0.004815847 0.16944131 -0.06101624 0.029701184 -0.24249572 0.041313905 -0.13994971
00000000: ddab 8abe f3f2 e73c 9e93 2b3e 0c4e 31bd
00000010: 3010 96be e3a1 ffbe 0244 e7be 1cd3 073f
00000020: 4e6e 863e 9f9a 23be be98 1e3e eac2 ea3d
00000030: beb5 20be 6889 5fbe c88f 8b3c fc3e 34be
00000040: 6f62 0f3e 9b7a 603e 9a56 693c 82ff afbe
00000050: 49e1 dabe 8c15 0bbe 04ae 6e3e 35fc aa3e
00000060: d334 ca39 5df5 abbd 112f 08be 479c f0bc
00000070: cfa5 1c3d 4692 09be 218b f3be 7e59 1bbc
00000080: 8cbf 2cbe e2f1 113e 584b 84be e93c 5ebe
00000090: e0b0 0fbe 3d7e e23e e679 d13e 7c2e a83d
000000a0: 8f11 f93d 8dd2 dc3d 7848 d7bd d403 7f3d
000000b0: 31ec 1fbe b521 48bd 0ee4 083e 79b2 803e
000000c0: 9eb2 ee3d 4c88 7e3e c0b6 593e 7777 903e
000000d0: 6630 5cbe b71c 97be d4e2 f6bd c3c2 20be
000000e0: 5f59 893e 3f22 3abe c16b 34be 38da 78bd
000000f0: b9f3 cb3e 3d3e ffbd 0f7c c5be 2aff 23bc
00000100: fba0 a9be dd11 c73d 8c2e 043e da6e 323e
00000110: e194 923e b04b 5a3e c65c 4a3e 0034 00bd
00000120: 4a62 25bd 8f33 43be f24c 02be 5131 3ebe
00000130: 8ecc e9be d108 68bd e03c 9fbe 573f 903d
00000140: be7b e83c 8eff 403c 34a8 26be 834c abbd
00000150: 0042 27bc 6d95 233e d164 693e bde8 26bc
00000160: 0a7f a73c 415b a7be fe43 9bbe 6130 6f3e
00000170: 6a8c c43e b8c7 0e3e 802b 01bf 7126 c3bd
00000180: bf3e 0abe fc62 8e3e b708 543e c672 97be
00000190: 1895 8ebe 3350 4bbe 1319 8bbc e263 0f3e
000001a0: 9d8e 26be 07cd 8c3f fefb c93e b538 863e
000001b0: fe8f 863e 75cf d83e dc30 ba3e ecbe 773e
000001c0: 92fa 86bd aa6c 60be 4bfe 833e 2f3e 5abe
000001d0: 86c6 06be acf2 173e 9203 96bd df7f 243e
000001e0: 121c ea3e 44be 0e3e 130b a73e da02 973e
000001f0: 26a6 7dbe 5f28 5abe 3390 bebe 017c 2b3f
00000200: 3566 693c 9e18 223e 0a00 c5bd 55c2 c53d
00000210: 4084 123e 37c7 2cbe 18a4 673d 9abe 033f
00000220: c38a 0e3f 0a0f 3f3e 7877 573e e923 15be
00000230: e7b8 36be 840c 95be a819 7c3e 6c27 ef3e
00000240: 4eb5 813e 218b 85bc fe54 2ebe f2c8 bcbd
00000250: b66c a3bd 58ec 36be 04de 1c3f b537 023e
00000260: b9ec 85bd ece5 b73e cc92 9b3e b7e5 043f
00000270: e456 f93d 0713 91be ef9d 4abe dc5d 603c
00000280: 3c6f 58be 9eb6 33bd 7fb6 81bd a998 5fbe
00000290: 848f 1fbd a373 683f c85b e23e 0f47 103d
000002a0: 9ee3 b73e f015 b93e c38a 663e 6d04 f43e
000002b0: f3fb e2be ac05 69be b089 10be 4809 64be
000002c0: b4e9 003e e4d8 eb3d aeb5 12bd 6190 10bc
000002d0: 6a6b 9dbf 400a 39bf 5656 35bf eda6 01bf
000002e0: 7fc6 8bbe 6ce4 b9bd ba67 59bd 9c06 c93d
000002f0: 9ddc 2e3e c4f3 e2bd 5f56 dd3d cfc1 1e3e
00000300: c7d4 34bd 4079 6b3e 92ea 743e 9cf5 1abe
00000310: 3503 94be 339e 6abe 2749 cabe 09a5 6b3a
00000320: 194b e43d 7717 7bbd f448 483e 2d2f 80bd
00000330: 9c81 603e b65a 743e b572 d9bd 9169 42be
00000340: 2225 79be c47e a13d eb33 e93e eb64 96bd
00000350: e65a 023e 2feb c23e 5972 cb3d c88f ac3e
00000360: 6cc1 143d 79e3 46be 0a7f 3abe 023a a23d
00000370: c1af dcbd 8817 6ebd 77f5 003d ae68 d7bd
00000380: 9431 0d3e aca9 00be 4b0e 84be 4035 6f3d
00000390: 6b82 14bd 8ecc d23e 507a 803e 127c 8bb9
000003a0: 7c70 bd3d 41ce 9dbb 0682 2d3e 2aec 79bd
000003b0: e64f f33c cc50 78be c538 293d fa4e 0fbe

model.models.many-body.interactions.0.cfconv.filter_generator.1.linear_layers.0.bias f4 [16]
0.13462228 0.1358064 -0.040178463 0.11436932 0.22568344 0.19391796 0.18686579 -0.043680772
-0.031057343 0.13359278 0.121363156 -0.0008145274 -0.17040043 0.07949027 -0.18893236 -0.005768656
00000000: 6cda 093e d510 0b3e 2c92 24bd 763a ea3d
00000010: 8f19 673e 6e92 463e bf59 3f3e 9cea 32bd
00000020: f86b febc 8ccc 083e 3f8d f83d 0286 55ba
00000030: 737d 2ebe cbcb a23d 7c77 41be fe06 bdbb

model.models.many-body.interactions.0.cfconv.filter_generator.1.linear_layers.1.weight f4 [16, 16]
0.22633274 0.16332163 0.014176491 -0.09431028 -0.19406669 -0.012452229 -0.058973704 -0.05295464
0.15566896 0.18999177 -0.32584876 -0.26227593 0.14468127 0.09451009 0.050088633 0.13671887
0.1972968 0.2761516 0.1546055 -0.24345006 0.13145992 0.091701955 0.03238755 -0.3184853
-0.01442856 0.2758321 -0.55586123 -0.1349732 -0.015016689 0.0027611337 -0.13188808 -0.08706514
-0.14003678 -0.40299055 -0.32372507 -0.20922217 -0.28351185 -0.07266858 -0.118705064 -0.09487717
-0.20311446 -0.28564936 -0.28051403 -0.18962215 -0.025123617 -0.35909447 0.14450686 0.10220477
-0.050346103 0.10033897 -0.20252123 0.18112399 -0.14978397 0.18577802 -0.19629173 -0.19965284
0.2637622 -0.07568917 -0.1291907 0.103446946 0.02515256 0.14908937 0.028178073 0.13035087
-0.19622336 -0.38014287 -0.050932523 0.06565987 0.03884317 0.20870134 -0.2577753 0.3431351
-0.23305795 -0.20525151 0.3007331 0.04544698 0.05352223 0.027479015 -0.0044906633 0.19322364
-0.50660324 -0.22585467 -0.30128312 0.086162455 0.11550157 -0.14738026 0.039842393 0.38816708
-0.06071057 0.056865096 0.40554732 0.2434095 0.08426632 0.13495645 0.22207928 -0.15754767
0.26496997 0.41566482 0.2614016 -0.12430627 -0.04979238 -0.21150635 0.06851028 -0.024012534
0.15056737 0.09503007 -0.21949553 -0.3642774 -0.012283472 -0.052014012 -0.15503645 -0.10185504
0.44907302 0.48344734 0.17790413 -0.11461918 0.17774789 0.0568688 0.16580524 -0.2327861
0.3952265 0.20164172 -0.5370882 -0.216241 0.051277716 0.07060218 -0.24475503 -0.17050494
-0.092830315 0.02754178 -0.017869154 -0.09124778 -0.06772108 0.041086197 0.13835733 -0.025591739
-0.022421148 -0.11829011 -0.11932208 -0.027446311 0.03041744 0.16286762 0.06860674 -0.07299905
-0.48736385 -0.060910627 0.046282206 -0.124510996 0.058024578 0.044411577 0.12857214 0.7882215
0.32881242 0.37743342 0.60050803 0.3611738 -0.54187804 -0.31461975 0.21343565 0.051454287
0.20689873 -0.30807528 -0.05445684 0.45911562 0.037158508 0.38253242 -0.050834846 -0.2896976
-0.25229445 -0.48803434 0.42638534 0.12444881 -0.064314626 -0.17975816 0.08763377 -0.33999538
-0.02804936 0.2807717 -0.090903796 -0.10936991 0.096034855 -0.0052477773 -0.11268687 0.25708327
0.29408428 0.11424957 -0.018500209 0.07218839 0.2063641 0.20136274 0.17582478 -0.04813429
-0.11602341 -0.08163081 -0.02484068 0.010021849 0.029271575 -0.06670381 0.43910563 -0.22814351
0.23192972 0.149002 0.08166786 -0.008023304 0.13227865 -0.2755238 0.15836349 -0.060544945
-0.13838476 0.086670056 0.12761089 -0.17825758 0.12501992 -0.029918052 -0.159428 0.0497258
0.15543072 -0.118412785 0.16924478 -0.2725098 -0.08985941 -0.15440455 0.09393691 -2.4681767e-05
-0.13282335 -0.046077974 -0.11201453 -0.11754913 -0.08065312 0.17825335 -0.13666226 0.045532923
-0.32619902 -0.106133014 -0.22565268 -0.085875 -0.017926322 0.045547947 -0.0672783 -0.0070142443
0.030501606 0.07889713 0.043424606 -0.15661721 -0.03620999 -0.10536365 0.041561056 0.27395016
0.17136103 -0.12240074 0.27083075 -0.14858173 -0.104209065 0.09682935 0.010183496 -0.028482623
00000000: c5c3 673e c93d 273e 8344 683c c025 c1bd
00000010: 6bb9 46be 6f04 4cbc 698e 71bd f7e6 58bd
00000020: af67 1f3e 348d 423e a6d5 a6be 0849 86be
00000030: 5427 143e 828e c13d bd29 4d3d 0800 0c3e
00000040: 2c08 4a3e be63 8d3e e750 1e3e f94a 79be
00000050: 6e9d 063e 3cce bb3d cfa8 043d 8110 a3be
00000060: c465 6cbc dd39 8d3e ec4c 0ebf 6a36 0abe
00000070: 8f08 76bc 23f4 343b ab0d 07be 354f b2bd
00000080: cd65 0fbe c754 cebe 4bbf a5be 563e 56be
00000090: 7728 91be 44d3 94bd a41b f3bd f64e c2bd
000000a0: 3dfd 4fbe a240 92be 899f 8fbe 4f2c 42be
000000b0: 0bd0 cdbc 3bdb b7be 9bf9 133e bc50 d13d
000000c0: b737 4ebd 857e cd3d ba61 4fbe 9178 393e
000000d0: f860 19be 983c 3e3e b300 49be cb71 4cbe
000000e0: d70b 873e ec02 9bbd 914a 04be fedb d33d
000000f0: be0c ce3c e2aa 183e b4d5 e63c b37a 053e
00000100: c7ee 48be 16a2 c2be 9f9e 50bd af78 863d
00000110: 041a 1f3d ceb5 553e 20fb 83be 67af af3e
00000120: bea6 6ebe 742d 52be b0f9 993e 9d26 3a3d
00000130: 203a 5b3d ac1b e13c 6a26 93bb 6bdc 453e
00000140: c0b0 01bf 7246 67be c841 9abe f175 b03d
00000150: 168c ec3d daea 16be c731 233d d6bd c63e
00000160: a6ab 78bd 60eb 683d e6a3 cf3e 5740 793e
00000170: d293 ac3d 0632 0a3e c068 633e 2d54 21be
00000180: 25aa 873e 05d2 d43e 6ed6 853e 4994 febd
00000190: 18f3 4bbd 1f95 58be 1e4f 8c3d efb5 c4bc
000001a0: 552e 1a3e 209f c23d 70c3 60be 9182 babe
000001b0: 9e40 49bc a50c 55bd e0c1 1ebe 6099 d0bd
000001c0: e6ec e53e 6986 f73e 802c 363e 76bd eabd
000001d0: 8b03 363e 42ef 683d d9c8 293e 7b5f 6ebe
000001e0: 215b ca3e 2b7b 4e3e 9d7e 09bf 486e 5dbe
000001f0: 9508 523d e097 903d 10a1 7abe d998 2ebe
00000200: d21d bebd 4d9f e13c 5562 92bc 1ee0 babd
00000210: 59b1 8abd 004a 283d 8bad 0d3e c4a5 d1bc
00000220: 8eac b7bc 1642 f2bd 225f f4bd 16d7 e0bc
00000230: ff2d f93c c5c6 263e b181 8c3d 8780 95bd
00000240: c187 f9be 6c7d 79bd 6992 3d3d 9fff febd
00000250: 2eab 6d3d eae8 353d 6aa8 033e e2c8 493f
00000260: 1a5a a83e f43e c13e e5ba 193f c6eb b83e
00000270: 85b8 0abf d715 a1be e08e 5a3e bbc1 523d
00000280: 43dd 533e 0bbc 9dbe 230e 5fbd 3411 eb3e
00000290: 8533 183d 4adb c33e 3338 50bd 3e53 94be
000002a0: bd2c 81be a3df f9be 2e4f da3e 05df fe3d
000002b0: 63b7 83bd 8612 38be 5679 b33d e013 aebe
000002c0: c5c7 e5bc 4fc1 8f3e c52b babd 55fd dfbd
000002d0: ecad c43d 8cf5 abbb 60c8 e6bd 6ba0 833e
000002e0: 3792 963e aefb e93d c08d 97bc 82d7 933d
000002f0: 1c51 533e 0932 4e3e 690b 343e 7628 45bd
00000300: ae9d edbd 0e2e a7bd af7e cbbc ae32 243c
00000310: f1ca ef3c 029c 88bd 74d2 e03e 749e 69be
00000320: fc7e 6d3e fb93 183e 7b41 a73d 2d74 03bc
00000330: 0e74 073e 7511 8dbe 0a2a 223e fafd 77bd
00000340: bcb4 0dbe 1280 b13d 6eac 023e 2889 36be
00000350: 3905 003e b416 f5bc 1841 23be 48ad 4b3d
00000360: 3b29 1f3e 6782 f2bd 814e 2d3e 6886 8bbe
00000370: 3608 b8bd 3a1c 1ebe ff61 c03d b10b cfb7
00000380: d802 08be 42bc 3cbd e067 e5bd 99bd f0bd
00000390: 772d a5bd 0c88 363e 31f1 0bbe bb80 3a3d
000003a0: 8f03 a7be 445c d9bd 7f11 67be 3bdf afbd
000003b0: 39da 92bc 7c90 3a3d 35c9 89bd bfd7 e5bb
000003c0: 81de f93c d294 a13d 00de 313d 4360 20be
000003d0: ed50 14bd e6c8 d7bd ed3b 2a3d 3243 8c3e
000003e0: 4479 2f3e 3dad fabd 54aa 8a3e cf25 18be
000003f0: 906b d5bd 774e c63d aed8 263c 6454 e9bc

model.models.many-body.interactions.0.cfconv.filter_generator.1.linear_layers.1.bias f4 [16]
0.07631483 0.10081891 0.06364046 0.020954708 0.19992627 0.039816182 0.08268205 0.031742834
0.11248839 -0.009645571 -0.07338716 -0.19248478 0.022501165 0.021846121 -0.010729358 0.1054666
00000000: f34a 9c3d 257a ce3d ee55 823d 35a9 ab3c
00000010: 79b9 4c3e 4b16 233d 3555 a93d c604 023d
00000020: 5060 e63d 7508 1ebc 024c 96bd bb1a 45be
00000030: 5d54 b83c a3f6 b23c 30ca 2fbc dffe d73d

model.models.many-body.interactions.0.mlp.linear_layers.0.weight f4 [16, 16]
0.051189 -0.14488018 -0.057657853 0.0033991502 -0.22752213 -0.06357445 -0.15065652 -0.15155828
-0.19066194 0.2670481 -0.041508343 -0.07668479 0.11530641 -0.09230892 0.16841425 -0.20394775
0.015869953 -0.14651456 -0.14930788 0.008701894 -0.16246378 0.06280665 -0.09043596 0.027647808
-0.050285768 0.252154 0.04637056 -0.0011240032 0.04894712 -0.11224835 0.0999583 0.04805247
0.03192151 0.23222996 0.24023753 0.017586714 0.18704748 -0.13001582 -0.046361893 0.23335354
-0.029448774 0.1714444 -0.04271155 -0.194395 -0.08662581 -0.14017162 0.20310114 0.11505722
-0.16168597 -0.1364357 0.005761921 0.18111393 0.023018738 0.124659516 0.102930084 0.04442216
-0.0036988193 0.01591682 0.0020729378 0.15695424 0.2218686 -0.21310222 -0.02186953 -0.17352608
-0.12128803 -0.0584272 -0.20919862 -0.14733955 0.0050475528 0.4272114 -0.1488826 -0.046171125
0.18206587 -0.19354017 -0.054415654 0.21809584 -0.38583764 -0.20876825 -0.21503872 0.13677587
0.16684188 -0.013330997 0.34488165 0.029011311 0.19358902 0.14293307 -0.08160161 0.036849596
0.073111854 -0.37751874 -0.16458875 0.3646793 -0.03423135 0.306493 -0.14925015 0.018529182
0.12017826 -0.12278333 0.2167451 0.12536104 -0.112131566 -0.16717687 -0.09872775 0.12974615
0.10631523 0.027945757 -0.08938109 0.22561705 -0.2785109 -0.21060604 0.10303883 0.13134001
0.050423685 0.0015125793 -0.14592887 -0.19602698 -0.22700064 -0.09051002 0.15718919 0.1226031
-0.1001964 -0.19433473 -0.28320244 -0.058221508 -0.11393471 -0.18152127 -0.020505954 0.1188906
0.050986312 -0.11995341 -0.07543699 -0.19175738 0.13571475 0.31233978 0.028486088 -0.22780286
-0.12518372 0.14991112 -0.06084346 0.015904306 -0.02162784 -0.2159198 0.018617656 0.1121433
-0.15092258 -0.09315734 0.1800089 0.06674034 -0.20622429 0.046412367 -0.12741084 -0.14458776
-0.09836902 -0.13725641 0.09198881 0.096425414 0.036159016 -0.16174757 0.109996945 0.04693145
0.010258782 0.23315836 -0.13442284 -0.10016427 -0.15820388 -0.295441 -0.21702012 0.13412146
0.1690851 0.10612029 -0.22418927 -0.10504355 0.044881113 -0.23525469 0.17590623 0.14448151
-0.10349476 -0.25774166 -0.029996928 -0.04014171 -0.040302448 -0.020574693 0.21186608 -0.2742345
-0.1041222 -0.047831915 0.28173968 -0.122475885 -0.20151037 -0.17244014 -0.061710075 0.08584818
0.32492995 0.044494774 0.52799577 0.022738546 0.3589753 0.114900775 -0.3810303 0.022708455
0.011109192 -0.3713926 -0.017693242 0.26352552 0.13325356 0.10641258 -0.21428998 -0.06691469
-0.048913047 0.021030918 0.26173344 -0.12879485 -0.07996326 0.15022247 0.06706459 -0.10992355
0.13152486 -0.20523988 -0.5200713 0.03501677 -0.31151393 -0.17794408 0.0807272 0.031706825
0.09270275 0.23927136 0.13119312 0.35708663 0.23901315 -0.53922623 0.07060765 0.57969683
0.14193839 0.23101185 0.47317505 0.28097224 0.14955723 0.12674402 -0.019697025 0.005621981
-0.015870897 0.02879307 0.029310394 0.053286195 0.10709782 0.27896017 0.082117766 0.20753041
-0.001532385 -0.32863173 -0.30394801 -0.10828228 0.08753802 -0.15172437 -0.017525844 -0.10245972
00000000: 8fab 513d 785b 14be a42a 6cbd 47c4 5e3b
00000010: 90fb 68be 5233 82bd b445 1abe 1832 1bbe
00000020: e23c 43be 87ba 883e a704 2abd ea0c 9dbd
00000030: c425 ec3d 760c bdbd c974 2c3e aed7 50be
00000040: b401 823c ea07 16be 2ae4 18be 6492 0e3c
00000050: e85c 26be c6a0 803d 7d36 b9bd a87d e23c
00000060: 73f8 4dbd 541a 813e 0eef 3d3d 4a53 93ba
00000070: c67c 483d 77e2 e5bd f0b6 cc3d abd2 443d
00000080: 21c0 023d b1cd 6d3e d400 763e 0312 903c
00000090: 6089 3f3e de22 05be f8e5 3dbd 3bf4 6e3e
000000a0: 8e3e f1bc 1f8f 2f3e 4ef2 2ebd 7c0f 47be
000000b0: df68 b1bd 2689 0fbe bff9 4f3e 1fa3 eb3d
000000c0: 0291 25be cdb5 0bbe 7fce bc3b ee75 393e
000000d0: cb91 bc3c 7d4d ff3d 02cd d23d 03f4 353d
000000e0: e467 72bb fe63 823c 20da 073b 9db8 203e
000000f0: 8631 633e 7837 5abe bb27 b3bc d2b0 31be
00000100: dc65 f8bd 5c51 6fbd 2a38 56be 2ee0 16be
00000110: f165 a53b 74bb da3e ae74 18be ef1d 3dbd
00000120: 7a6f 3a3e 652f 46be f3e2 5ebd 8454 5f3e
00000130: 838c c5be 58c7 55be 1c33 5cbe f90e 0c3e
00000140: 99d8 2a3e 416a 5abc 5494 b03e 21a9 ed3c
00000150: 333c 463e 0c5d 123e bf1e a7bd 9aef 163d
00000160: abbb 953d 234a c1be f489 28be 3fb7 ba3e
00000170: 2c36 0cbd a7ec 9c3e 08d5 18be 83ca 973c
00000180: 0520 f63d d475 fbbd 6df2 5d3e a55e 003e
00000190: 3ca5 e5bd 6a30 2bbe c631 cabd 2ddc 043e
000001a0: cdbb d93d 80ee e43c 6f0d b7bd 2808 673e
000001b0: fb98 8ebe 1ca9 57be 0606 d33d ff7d 063e
000001c0: 1189 4e3d bd41 c63a 616e 15be 4cbb 48be
000001d0: db72 68be 515d b9bd 34f6 203e 5617 fb3d
000001e0: c533 cdbd afff 46be e9ff 90be ad79 6ebd
000001f0: 9a56 e9bd b6e0 39be 1afc a7bc ea7c f33d
00000200: 06d7 503d 22aa f5bd b57e 9abd 0c5c 44be
00000210: cff8 0a3e 00eb 9f3e a85b e93c 2745 69be
00000220: 2930 00be 4d82 193e fe36 79bd bf49 823c
00000230: de2c b1bc 141a 5dbe 0e84 983c 63ab e53d
00000240: 738b 1abe 47c9 bebd 4154 383e 29af 883d
00000250: 762c 53be e51a 3e3d fd77 02be d00e 14be
00000260: b275 c9bd f28c 0cbe a164 bc3d b07a c53d
00000270: 7a1b 143d 28a1 25be 1446 e13d 313b 403d
00000280: 7314 283c 11c1 6e3e 24a6 09be ed22 cdbd
00000290: 3300 22be 0b44 97be 863a 5ebe 2357 093e
000002a0: a524 2d3e 9855 d93d df91 65be 1321 d7bd
000002b0: 42d5 373d 9be6 70be c320 343e f6f2 133e
000002c0: 10f5 d3bd b7f6 83be 1ebc f5bc a26b 24bd
000002d0: 2e14 25bd 428c a8bc 6cf3 583e 7768 8cbe
000002e0: 053e d5bd 66eb 43bd 2f40 903e a3d4 fabd
000002f0: bc58 4ebe 2694 30be b4c3 7cbd 2cd1 af3d
00000300: 385d a63e 2740 363d bb2a 073f 3046 ba3c
00000310: 9ccb b73e 1951 eb3d 6716 c3be 1507 ba3c
00000320: 5403 363c 2c27 bebe 6bf1 90bc d1ec 863e
00000330: 9f73 083e d7ee d93d d56e 5bbe 920a 89bd
00000340: 0c59 48bd 0849 ac3c ed01 863e cce2 03be
00000350: c7c3 a3bd ebd3 193e 2959 893d 991f e1bd
00000360: 74ae 063e 672a 52be 6523 05bf bf6d 0f3d
00000370: c17e 9fbe f936 36be 4d54 a53d 04df 013d
00000380: f0da bd3d 8d03 753e 7d57 063e 0fd4 b63e
00000390: ddbf 743e bb0a 0abf be9a 903d 0367 143f
000003a0: 4c58 113e 5f8e 6c3e 0044 f23e 98db 8f3e
000003b0: 8825 193e 2fc9 013e a85b a1bc 9838 b83b
000003c0: af03 82bc 72df eb3c 5a1c f03c a042 5a3d
000003d0: 1a56 db3d ded3 8e3e 5c2d a83d da82 543e
000003e0: 4fda c8ba 6b42 a8be 139f 9bbe 1ac3 ddbd
000003f0: 2247 b33d a25d 1bbe 5c92 8fbc 67d6 d1bd

model.models.many-body.interactions.0.mlp.linear_layers.0.bias f4 [16]
0.17210408 0.34492022 0.3682663 0.15145771 0.09784572 -0.14993314 0.115481965 0.025694516
-0.16270493 -0.0050631883 -0.46181673 0.1703767 -0.47270486 -0.18066221 -0.5025663 0.012215852
00000000: 0d3c 303e 6299 b03e 678d bc3e bb17 1b3e
00000010: 5663 c83d 1388 19be cf81 ec3d 4e7d d23c
00000020: 1f9c 26be 1ae9 a5bb 3e73 ecbe 3b77 2e3e
00000030: 5f06 f2be 84ff 38be 2fa8 00bf ff24 483c

model.models.many-body.interactions.0.mlp.linear_layers.1.weight f4 [16, 16]
-0.0013724535 -0.19366816 0.11726196 -0.19371243 -0.0058146096 -0.14615159 0.22589284 -0.1518802
0.046060614 -0.13810076 0.29846984 -0.20189846 -0.036560163 -0.19710541 -0.21747646 0.18250184
0.05930251 -0.1599101 -0.067123786 -0.14045964 -0.13378696 0.1504363 -0.19385867 -0.074262604
0.037597843 0.24056432 -0.121232286 0.1186774 0.25060928 -0.14751865 0.23722203 -0.060292877
0.1668159 0.1995418 -0.048802707 -0.25700238 0.011505573 -0.25345877 -0.18996914 0.14059138
-0.09959918 0.09422758 0.1607127 0.14795363 -0.2720128 0.099510305 -0.32669374 -0.14389136
-0.046397112 -0.23357093 -0.13152166 0.011771183 0.3975021 0.18222761 0.260248 -0.27727172
-0.069699 -0.18512796 0.16449094 -0.25452197 0.42954025 0.14696229 0.20959018 -0.15583907
0.100191616 0.0871718 0.17183347 0.0052845464 0.19498695 0.18553914 0.08867628 -0.14879796
-0.07143318 0.13163789 0.096856624 0.0008721104 -0.110474855 0.10330473 0.16290665 0.119062774
0.092764854 -0.15927713 -0.0051282477 0.21094595 -0.07010928 -0.15280098 -0.011645634 0.1587304
-0.15915371 0.029820902 -0.022192098 0.1348238 -0.0731397 0.078189425 -0.13884293 -0.140051
-0.19348116 -0.2213684 -0.23964742 -0.10172193 0.2586246 0.021938344 0.084583655 0.0994754
0.1378332 -0.14971203 0.17813778 -0.109216474 0.34200794 -0.046384234 -0.09810665 0.12047705
-0.12048429 0.26225057 0.014424022 -0.20212542 -0.12887695 0.26068366 0.08307942 -0.0649197
-0.009234857 -0.018435778 0.25179964 0.008771028 0.24996737 -0.17545581 0.27738622 -0.00032328523
0.024278931 0.16509031 -0.40795892 0.06489475 0.1995571 0.1707764 0.10518906 0.009956961
-0.2258627 0.057380058 -0.3371175 -0.19043711 0.043268733 -0.23122476 0.107539356 0.15288672
-0.09938319 0.0801214 0.06816263 -0.18448555 -0.16372302 -0.06734006 0.038888577 0.025381608
0.03821504 0.050454576 0.075028114 -0.04752527 -0.25557303 0.06325774 -0.07222686 0.07374721
-0.23642953 -0.11010276 0.2610711 -0.043966334 0.1408753 -0.22165756 -0.22033025 -0.12820624
0.20921452 0.17229474 -0.15260021 0.13136901 -0.15440129 0.13910769 -0.13913994 -0.020556241
0.085177004 -0.16067907 -0.091535956 0.081020884 0.08222076 -0.20292279 -0.08594821 0.055600207
0.105153985 0.12371468 0.1299649 -0.2554424 0.158396 0.16246392 0.007199411 0.15889454
-0.1672793 -0.31340498 0.15793768 -0.04607984 -0.028417278 -0.0973926 0.09517898 -0.14633693
-0.13431111 -0.26633266 0.2546545 -0.26565075 0.09880835 -0.28388637 0.1895986 -0.12696828
0.08099661 -0.16744547 -0.1887854 0.10182336 0.17691003 -0.023721954 -0.15849271 0.058101434
-0.25582173 -0.16772857 -0.18714233 0.105314635 -0.08311496 -0.060792476 0.18580133 -0.17167598
0.16705166 -0.036061887 -0.13263108 0.06570259 -0.14208862 0.11394165 -0.11197421 0.13328966
0.19018768 -0.09600933 0.15500097 0.11406714 0.27984577 0.23674275 -0.14672314 0.12843029
0.28507045 -0.02739894 -0.07035132 0.010173188 0.083143026 0.089891925 -0.20369835 0.28460655
0.10426468 0.0806421 0.33440053 0.1578071 -0.08536603 -0.0676623 0.024393097 0.015194771
00000000: e6e3 b3ba f250 46be 0a27 f03d 8d5c 46be
00000010: 7b88 bebb c3a8 15be 7450 673e 7c86 1bbe
00000020: 0eaa 3c3d 496a 0dbe 0ad1 983e 78be 4ebe
00000030: 1cc0 15bd 00d6 49be 26b2 5ebe c3e1 3a3e
00000040: 30e7 723d 79bf 23be 3278 89bd a7d4 0fbe
00000050: 73ff 08be f90b 1a3e e382 46be fe16 98bd
00000060: 3200 1a3d 7e56 763e a248 f8bd 230d f33d
00000070: dc4f 803e 210f 17be 55ea 723e aaf5 76bd
00000080: cad1 2a3e b054 4c3e 59e5 47bd d195 83be
00000090: df81 3c3c 59c5 81be 4587 42be 30f7 0f3e
000000a0: a8fa cbbd 64fa c03d df91 243e 2881 173e
000000b0: 4345 8bbe 0fcc cb3d 6744 a7be 4258 13be
000000c0: e60a 3ebd 382d 6fbe 9dad 06be ecdb 403c
000000d0: 6585 cb3e e099 3a3e 3a3f 853e 8ff6 8dbe
000000e0: 59be 8ebd 2f92 3dbe 5070 283e b450 82be
000000f0: b3ec db3e 487d 163e cf9e 563e 4794 1fbe
00000100: 4331 cd3d 2187 b23d 1df5 2f3e fd29 ad3b
00000110: a9aa 473e f9fd 3d3e e99b b53d 7e5e 18be
00000120: 8f4b 92bd 15cc 063e c45c c63d 579e 643a
00000130: a440 e2bd 6e91 d33d 00d1 263e 2fd7 f33d
00000140: 80fb bd3d 8b19 23be dc0a a8bb 3702 583e
00000150: 7495 8fbd dc77 1cbe 54cd 3ebc 398a 223e
00000160: 31f9 22be f74a f43c 34cc b5bc 400f 0a3e
00000170: 44ca 95bd c721 a03d d72c 0ebe 8869 0fbe
00000180: ed1f 46be 66ae 62be 2266 75be 9653 d0bd
00000190: 726a 843e 0bb8 b33c 323a ad3d c2b9 cb3d
000001a0: 2524 0d3e 1c4e 19be c069 363e e3ac dfbd
000001b0: aa1b af3e 65fd 3dbd 24ec c8bd acbc f63d
000001c0: 78c0 f6bd b545 863e bc52 6c3c f7f9 4ebe
000001d0: 52f8 03be 5478 853e 8b25 aa3d 9ff4 84bd
000001e0: cc4d 17bc a106 97bc e2eb 803e 5cb4 0f3c
000001f0: 72f7 7f3e b0aa 33be 9105 8e3e 9c7e a9b9
00000200: 9ce4 c63c 6f0d 293e fedf d0be 8ae7 843d
00000210: b258 4c3e 02e0 2e3e 5d6d d73d 8522 233c
00000220: 8d48 67be 5a07 6b3d aa9a acbe f201 43be
00000230: 8e3a 313d 2fc6 6cbe 983d dc3d 568e 1c3e
00000240: 6a89 cbbd b016 a43d d998 8b3d c8e9 3cbe
00000250: 02a7 27be 96e9 89bd a149 1f3d 17ed cf3c
00000260: 6087 1c3d 75a9 4e3d 57a8 993d dca9 42bd
00000270: 78da 82be 468d 813d adeb 93bd c708 973d
00000280: 951a 72be 8e7d e1bd 1cab 853e 0b16 34bd
00000290: 9d41 103e 33fa 62be 419e 61be 7f48 03be
000002a0: 553c 563e 086e 303e 3b43 1cbe 9985 063e
000002b0: 5f1b 1ebe 3f72 0e3e b37a 0ebe 9065 a8bc
000002c0: 4871 ae3d 0e89 24be 3477 bbbd 47ee a53d
000002d0: 5c63 a83d feca 4fbe 9d05 b0bd 0bbd 633d
000002e0: f95a d73d 1f5e fd3d 8515 053e 59c9 82be
000002f0: 9032 223e f15c 263e 09e9 eb3b 40b5 223e
00000300: 444b 2bbe 9e76 a0be 6aba 213e 37be 3cbd
00000310: 5acb e8bc c575 c7bd 32ed c23d 59d9 15be
00000320: da88 09be c15c 88be 1362 823e 6003 88be
00000330: 085c ca3d 8e59 91be 2326 423e f903 02be
00000340: 8de1 a53d d376 2bbe f650 41be c488 d03d
00000350: e727 353e 8b54 c2bc ea4b 22be c5fb 6d3d
00000360: 11fb 82be 0ac1 2bbe 3da2 3fbe 33af d73d
00000370: 2d38 aabd 8801 79bd b442 3e3e d4cb 2fbe
00000380: 970f 2b3e a1b5 13bd 71d0 07be 148f 863d
00000390: ae7f 11be 3d5a e93d bc52 e5bd 167d 083e
000003a0: 8fc0 423e 8aa0 c4bd 93b8 1e3e 089c e93d
000003b0: f247 8f3e b16c 723e 973e 16be 3b83 033e
000003c0: c1f4 913e be73 e0bc 5a14 90bd 71ad 263c
000003d0: e446 aa3d 4219 b83d 4d96 50be f3b7 913e
000003e0: b888 d53d af27 a53d 8c36 ab3e 2f98 213e
000003f0: 63d4 aebd 8892 8abd 08d4 c73c 7df3 783c

model.models.many-body.interactions.0.mlp.linear_layers.1.bias f4 [16]
0.19854103 -0.019777112 0.09071084 -0.03610063 0.10616159 0.089305796 -0.29456457 -0.14901134
0.00017876156 0.1423257 0.25537893 0.08063787 0.02819256 0.020743694 -0.20088609 -0.1233931
00000000: 574e 4b3e 9c03 a2bc 9bc6 b93d 41de 13bd
00000010: 3f6b d93d f5e5 b63d 2bd1 96be 6e96 18be
00000020: f171 3b39 d4bd 113e 07c1 823e 7825 a53d
00000030: 15f4 e63c aeee a93c 15b5 4dbe 86b5 fcbd

model.models.many-body.interactions.1.linear.weight f4 [16, 16]
-0.19264643 0.011217864 0.02170046 0.021854298 -0.011570436 -0.07640062 0.06596118 0.13715987
0.017761488 -0.020222051 -0.030985795 0.0022171182 0.032125447 -0.124773875 0.24795897 0.15467258
-0.09861745 0.1753578 -0.10034847 -0.035004623 0.18005149 -0.32254776 0.32052946 0.42955354
-0.21733308 -0.16302122 -0.12522921 -0.12384976 -0.06672217 -0.34216344 0.5456572 0.16608928
-0.30877152 0.07743242 -0.13341707 0.08612219 0.20511301 -0.08982381 -0.13633752 -0.054176934
-0.19180454 -0.20633559 0.011990334 -0.047960725 -0.05810019 -0.09180568 0.3923186 0.052033275
-0.09433312 0.22051938 0.016398665 0.047085166 0.1469917 0.107737415 -0.14375317 0.1391716
-0.081158206 0.14690134 0.2841667 -0.21520953 -0.13556366 -0.10180724 0.024371324 -0.16037507
0.23815356 0.017660212 -0.124608316 -0.06771168 -0.101703934 0.12602736 -0.14957766 0.19328523
0.17345743 0.106946036 0.35964534 -0.122789666 0.172983 0.039621025 -0.40984014 -0.19029146
0.12289139 0.15736732 0.22455966 -0.2334144 -0.05109471 0.098080434 0.10343293 -0.18287203
-0.32555878 0.1277255 0.20168485 0.18363567 -0.20970301 0.18973371 -0.12599215 -0.18961145
0.25190243 -0.18721598 0.19683112 -0.16243255 -0.23897718 0.23222324 -0.116205946 0.075029336
-0.05470254 0.04004617 -0.20156366 -0.18383709 0.1287165 -0.012931112 0.025922086 0.21081428
0.09017576 0.10876846 0.16180906 0.09244574 -0.20924371 0.15493928 -0.24272195 0.0025589743
-0.11441875 0.1312287 0.0023069235 -0.23234813 0.15575378 0.2612312 -0.4184048 0.038354173
0.17316528 -0.35125208 0.19273002 -0.12311213 -0.10012434 -0.09746031 -0.053828526 -0.16463532
0.014067254 0.08415027 0.15799035 0.094569415 0.207188 0.040451854 -1.0423008 -0.082730316
0.07866709 -0.23627439 -0.083302416 0.13680294 -0.2145564 0.16818585 0.031093968 -0.050891418
0.09736656 0.064987674 0.15971182 0.092105806 0.07769082 0.09364643 -0.22772752 -0.15984938
0.25736728 -0.27277932 0.2224359 0.13772596 -0.10476635 -0.06584605 0.1432235 0.19483435
-0.030141352 -0.12569404 -0.3243227 0.18438405 0.13418327 -0.22672342 -0.26977023 0.046892457
0.12847896 0.1438074 0.0043971697 0.13549185 -0.24350716 -0.12222141 -0.20359334 -0.23909855
-0.116690606 0.1775178 0.06869162 -0.17371967 -0.31101555 0.039966963 0.16576791 0.13296954
-0.26899287 0.28518772 -0.15225181 -0.05742189 0.14645381 -0.15599857 -0.26711446 0.086341284
-0.27666107 0.11168325 -0.38236025 -0.06950867 -0.022069473 0.053167827 -0.29746562 0.10145882
-0.3136492 0.10870863 0.070435986 -0.072514154 -0.051674407 -0.12419559 0.20577033 0.13340636
0.2195904 0.11758004 -0.12047943 -0.16573 -0.22937784 0.12844332 0.29542762 0.053423665
0.08482335 -0.018826399 -0.10001462 -0.14774545 -0.031399842 0.16224848 -0.0015910205 0.05905648
0.36659437 0.32982758 -0.032385163 0.039197847 -0.035176214 -0.009843761 -0.3116906 -0.013009901
0.028374445 -0.069515444 -0.07540632 -0.23442405 0.07304345 0.16363086 0.16950345 0.09906273
-0.1053543 -0.15187632 0.24757664 -0.17016965 -0.0042620786 -0.16028543 0.34198797 0.2494044
00000000: 1b45 45be 22cb 373c 2ac5 b13c c907 b33c
00000010: ed91 3dbc ee77 9cbd a816 873d a373 0c3e
00000020: 8a80 913c b7a8 a5bc ecd5 fdbc 124d 113b
00000030: f995 033d 7289 ffbd f5e8 7d3e 7d62 1e3e
00000040: f2f7 c9bd ff90 333e 8083 cdbd 0261 0fbd
00000050: 6b5f 383e fb24 a5be 701c a43e 71ee db3e
00000060: 908c 5ebe 09ef 26be 163c 00be f1a4 fdbd
00000070: a2a5 88bd 0c30 afbe 31b0 0b3f 4f13 2a3e
00000080: 4d17 9ebe e394 9e3d 7c9e 08be d560 b03d
00000090: 2509 523e 8cf5 b7bd 109c 0bbe a2e8 5dbd
000000a0: 6968 44be a349 53be 1b73 443c 7772 44bd
000000b0: 77fa 6dbd 9e04 bcbd fcdd c83e d820 553d
000000c0: b931 c1bd d5cf 613e 7e56 863c 60dc 403d
000000d0: fe84 163e 6fa5 dc3d 0834 13be 0083 0e3e
000000e0: 4636 a6bd 4e6d 163e 4c7e 913e e35f 5cbe
000000f0: 33d1 0abe 5080 d0bd 5fa6 c73c 5d39 24be
00000100: 87de 733e 26ac 903c a532 ffbd 6cac 8abd
00000110: 274a d0bd 510d 013e e32a 19be 90ec 453e
00000120: d39e 313e 8606 db3d 6f23 b83e 2679 fbbd
00000130: 7522 313e a849 223d 91d6 d1be c4db 42be
00000140: 7bae fb3d e624 213e f8f2 653e 2f04 6fbe
00000150: b048 51bd 65de c83d a5d4 d33d ce42 3bbe
00000160: a4af a6be 79ca 023e 7986 4e3e fd0a 3c3e
00000170: 63bc 56be 8e49 423e 1604 01be 8129 42be
00000180: 5bf9 803e 8cb5 3fbe 198e 493e b854 26be
00000190: 6fb6 74be eecb 6d3e 62fd edbd fba8 993d
000001a0: c50f 60bd 7407 243d b466 4ebe ca3f 3cbe
000001b0: 42ce 033e 04dd 53bc 8e5a d43c b3df 573e
000001c0: 12ae b83d 00c2 de3d 46b1 253e 3154 bd3d
000001d0: fc43 56be 67a8 1e3e 1a8c 78be 77b4 273b
000001e0: 6154 eabd d160 063e c12f 173b abec 6dbe
000001f0: eb7d 1f3e 19c0 853e 2739 d6be 4419 1d3d
00000200: 3d52 313e 50d7 b3be 055b 453e 3622 fcbd
00000210: fd0d cdbd 4599 c7bd 4d7b 5cbd 2996 28be
00000220: 577a 663c fa56 ac3d 39c8 213e 9cad c13d
00000230: 1729 543e d8b0 253d 1d6a 85bf 836e a9bd
00000240: 361c a13d eaf1 71be 759a aabd 1216 0c3e
00000250: acb4 5bbe e938 2c3e c7b8 fe3c 8573 50bd
00000260: 1e68 c73d 4218 853d 7f8b 233e f8a1 bc3d
00000270: 5d1c 9f3d b3c9 bf3d 6731 69be 8eaf 23be
00000280: a5c5 833e bba9 8bbe 3dc6 633e 0908 0d3e
00000290: bd8f d6bd 4bda 86bd 2ea9 123e a882 473e
000002a0: ffea f6bc f0b5 00be a00d a6be 2ccf 3c3e
000002b0: 5767 093e 2f2a 68be 531f 8abe 4e12 403d
000002c0: fd8f 033e 3f42 133e 2216 903b 60be 0a3e
000002d0: f159 79be 384f fabd c67a 50be 40d6 74be
000002e0: 7cfb eebd 3ac7 353e 31ae 8c3d 92e3 31be
000002f0: 6e3d 9fbe 66b4 233d 10bf 293e 2b29 083e
00000300: 6fb9 89be 2004 923e e6e7 1bbe 3733 6bbd
00000310: fdf7 153e 17be 1fbe 3ac3 88be b3d3 b03d
00000320: 85a6 8dbe 30ba e43d b9c4 c3be 905a 8ebd
00000330: 0acb b4bc 82c6 593d 6a4d 98be a4c9 cf3d
00000340: a196 a0be a1a2 de3d be40 903d 4d82 94bd
00000350: 8ba8 53bd 425a febd 75b5 523e ad9b 083e
00000360: 4edc 603e cecd f03d ebbd f6bd 20b5 29be
00000370: 06e2 6abe a586 033e 4a42 973e c6d2 5a3d
00000380: ddb7 ad3d d239 9abc 77d4 ccbd 954a 17be
00000390: 1f9d 00bd 7724 263e ca89 d0ba 35e5 713d
000003a0: 42b2 bb3e 29df a83e 4ea6 04bd ec8d 203d
000003b0: ef14 10bd ba47 21bc e995 9fbe 7b27 55bc
000003c0: 8671 e83c 1d5e 8ebd a16e 9abd dc0c 70be
000003d0: ce97 953d d98e 273e 5092 2d3e 67e1 ca3d
000003e0: ffc3 d7bd 7785 1bbe bb84 7d3e f440 2ebe
000003f0: e8a8 8bbb dd21 24be 0c19 af3e de63 7f3e

model.models.many-body.interactions.1.cfconv.filter_generator.0.centers f4 [15]
0.7331311 0.75174475 0.66778845 0.73841447 1.1227958 1.15024 1.1564173 1.7102497
1.7087485 2.123664 2.4173274 2.9527128 2.8818398 3.2070093 3.7511652
00000000: 7bae 3b3f 5872 403f 2ff4 2a3f bb08 3d3f
00000010: c6b7 8f3f 103b 933f 7b05 943f 76e9 da3f
00000020: 45b8 da3f 1cea 0740 7eb5 1a40 3ff9 3c40
00000030: 1070 3840 a43f 4d40 1713 7040
