Class-2/graph-pes-results/train-NequiP/model.pt (torch, 235666 bytes, 35 tensors)

_offsets f4 [119, 1]
0.0 0.0 0.0 0.0 0.0 0.0 -148.314 0.0
0.0 0.0 0.0 0.0 0.0 0.0 0.0 0.0
0.0 0.0 0.0 0.0 0.0 0.0 0.0 0.0
0.0 0.0 0.0 0.0 0.0 0.0 0.0 0.0
0.0 0.0 0.0 0.0 0.0 0.0 0.0 0.0
0.0 0.0 0.0 0.0 0.0 0.0 0.0 0.0
0.0 0.0 0.0 0.0 0.0 0.0 0.0 0.0
0.0 0.0 0.0 0.0 0.0 0.0 0.0 0.0
0.0 0.0 0.0 0.0 0.0 0.0 0.0 0.0
0.0 0.0 0.0 0.0 0.0 0.0 0.0 0.0
0.0 0.0 0.0 0.0 0.0 0.0 0.0 0.0
0.0 0.0 0.0 0.0 0.0 0.0 0.0 0.0
0.0 0.0 0.0 0.0 0.0 0.0 0.0 0.0
0.0 0.0 0.0 0.0 0.0 0.0 0.0 0.0
0.0 0.0 0.0 0.0 0.0 0.0 0.0
00000000: 0000 0000 0000 0000 0000 0000 0000 0000
00000010: 0000 0000 0000 0000 6250 14c3 0000 0000
00000020: 0000 0000 0000 0000 0000 0000 0000 0000
00000030: 0000 0000 0000 0000 0000 0000 0000 0000
00000040: 0000 0000 0000 0000 0000 0000 0000 0000
00000050: 0000 0000 0000 0000 0000 0000 0000 0000
00000060: 0000 0000 0000 0000 0000 0000 0000 0000
00000070: 0000 0000 0000 0000 0000 0000 0000 0000
00000080: 0000 0000 0000 0000 0000 0000 0000 0000
00000090: 0000 0000 0000 0000 0000 0000 0000 0000
000000a0: 0000 0000 0000 0000 0000 0000 0000 0000
000000b0: 0000 0000 0000 0000 0000 0000 0000 0000
000000c0: 0000 0000 0000 0000 0000 0000 0000 0000
000000d0: 0000 0000 0000 0000 0000 0000 0000 0000
000000e0: 0000 0000 0000 0000 0000 0000 0000 0000
000000f0: 0000 0000 0000 0000 0000 0000 0000 0000
00000100: 0000 0000 0000 0000 0000 0000 0000 0000
00000110: 0000 0000 0000 0000 0000 0000 0000 0000
00000120: 0000 0000 0000 0000 0000 0000 0000 0000
00000130: 0000 0000 0000 0000 0000 0000 0000 0000
00000140: 0000 0000 0000 0000 0000 0000 0000 0000
00000150: 0000 0000 0000 0000 0000 0000 0000 0000
00000160: 0000 0000 0000 0000 0000 0000 0000 0000
00000170: 0000 0000 0000 0000 0000 0000 0000 0000
00000180: 0000 0000 0000 0000 0000 0000 0000 0000
00000190: 0000 0000 0000 0000 0000 0000 0000 0000
000001a0: 0000 0000 0000 0000 0000 0000 0000 0000
000001b0: 0000 0000 0000 0000 0000 0000 0000 0000
000001c0: 0000 0000 0000 0000 0000 0000 0000 0000
000001d0: 0000 0000 0000 0000 0000 0000

_embeddings f4 [119, 16]
0.74637157 0.45231962 0.06307661 0.71397376 0.4516023 -0.06482184 0.875359 -1.2138724
0.62288725 0.5227445 -1.0490242 0.711912 1.388579 -0.24623746 1.1184866 -0.7780698
-0.004205356 -0.3947736 0.2547811 0.8940971 1.0819218 0.40201804 0.25307882 0.20925218
0.25450718 -0.5961596 -1.2167743 1.135895 -0.16658314 0.3928905 0.091356486 0.41441503
-0.023604255 1.0867623 -0.16713738 0.23714483 0.5705283 -0.5304534 -0.11586417 -0.57037383
-0.6472899 -1.4952823 -0.2040371 -0.19981521 -0.4959346 -0.31119668 0.93010366 -0.4598035
-1.0570372 -1.161335 -0.9374011 0.59053826 -0.049623884 0.3970061 1.421744 0.51683676
-0.16942564 0.4713261 -1.4889212 -0.120355844 -0.64039034 0.049608305 0.47266662 1.0241657
-0.033045862 0.40842533 0.11591043 1.4798635 -0.16437612 -0.46478078 0.10925111 -0.02474709
-0.7197636 0.040539674 -0.1730573 -0.6131434 -0.09377193 0.21682346 -1.7811344 -0.95237565
-0.67456037 0.1556664 -0.43442747 -0.86839515 1.1977423 -0.27102312 -0.39280784 -0.011462063
0.2663454 -0.5782261 0.7424873 -1.1017889 0.03324171 -0.4262244 -1.4102781 0.40749115
0.57130045 -0.8869316 1.2292943 -0.1443018 0.89271593 0.59784657 1.3866162 0.83255595
0.116651945 -1.1235049 0.6273631 -0.56181747 -1.6144627 -0.36541107 0.23581272 0.3822596
2.1490154 -0.5899919 0.103025414 0.796005 0.23884931 0.6407017 1.7748915 1.1055255
0.9113704 -1.0543476 0.18487498 1.8081158 0.79138523 0.6581645 -0.5172225 0.5887176
-0.47122616 -0.5112293 0.88874406 -0.03393187 0.790504 0.13501969 -0.26948705 1.6148399
-0.24256854 -0.11351814 0.66731465 0.6249026 2.0248182 0.28870857 -0.5186986 0.4742421
-1.1562709 0.42385653 -0.037560124 -0.89305425 -1.0089208 1.1613106 0.23054115 -0.98377174
-1.125316 -0.6274398 -0.13687429 0.46926543 -0.5982517 0.87999076 0.6675997 -0.9764128
1.0935018 0.025191298 0.4625857 0.38344878 -0.8022078 -1.4073073 -0.081135236 0.52010804
0.7746137 -0.49086428 -0.024419414 0.52257395 -1.560707 -0.76403373 0.3026178 0.20544662
1.1570407 0.15593386 -0.79945225 1.1507152 0.13435726 0.21569638 -1.457093 0.24114677
-0.49336484 0.16660924 -0.3278865 0.57369286 1.8128109 0.014975984 0.9005448 -0.6837092
0.5078161 -0.92878103 -0.61145216 -0.6297139 1.1721923 -0.044892464 -0.54399246 0.4933748
-1.5041537 -0.8658224 0.57957274 -0.454711 1.6813158 0.36077195 0.6564281 -0.4322124
1.4751705 0.15877096 -0.24413794 0.16474314 0.5852091 0.76706207 0.39311853 -1.3959224
0.6025761 0.36627507 -0.7370744 0.057845786 0.21777944 0.47262552 -0.26206782 -0.33285606
0.27507195 -1.0086379 1.3342389 1.251965 -0.42175922 0.81944895 0.14424345 -0.5615195
-0.24044724 0.048514884 0.39556527 -1.1118014 -1.1086907 1.2637953 -0.54702395 -0.056934234
-1.7496778 -0.010929651 -0.06866915 0.32813683 -0.9134134 -0.72151786 -0.7239258 0.30178252
-0.4626716 1.0520287 0.14581746 -0.13226542 -0.4949916 -1.0750057 -0.04973549 1.3029866
00000000: 3512 3f3f 7096 e73e 4f2e 813d fcc6 363f
00000010: 6b38 e73e 50c1 84bd 8717 603f 2c60 9bbf
00000020: 8a75 1f3f 95d2 053f 6d46 86bf dd3f 363f
00000030: f5bc b13f ac25 7cbe 922a 8f3f 952f 47bf
00000040: 15cd 89bb c41f cabe ab72 823e 8ce3 643f
00000050: 6a7c 8a3f 4fd5 cd3e 8c93 813e 3446 563e
00000060: c44e 823e ea9d 18bf 43bf 9bbf 0265 913f
00000070: c594 2abe f228 c93e 1c19 bb3d 352e d43e
00000080: b65d c1bc 071b 8b3f 1026 2bbe 18d6 723e
00000090: 250e 123f cbcb 07bf 324a edbd 0504 12bf
000000a0: cab4 25bf 6965 bfbf 1aef 50be 5c9c 4cbe
000000b0: 24eb fdbe 2c55 9fbe 461b 6e3f 5d6b ebbe
000000c0: ff4c 87bf a0a6 94bf 85f9 6fbf 842d 173f
000000d0: 6a42 4bbd 6244 cb3e b5fb b53f 6a4f 043f
000000e0: ea7d 2dbe a851 f13e f894 bebf 207d f6bd
000000f0: 9ff0 23bf 1432 4b3d 5c01 f23e dd17 833f
00000100: 195b 07bd 201d d13e 7362 ed3d 2b6c bd3f
00000110: 3752 28be bff7 edbe 0cbf df3d 69ba cabc
00000120: 6d42 38bf ee0c 263d ef35 31be f7f6 1cbf
00000130: 7f0b c0bd f806 5e3e 36fc e3bf e4ce 73bf
00000140: fdaf 2cbf 0367 1f3e 476d debe 254f 5ebf
00000150: 9f4f 993f 8bc3 8abe 1c1e c9be 60cb 3bbc
00000160: 6d5e 883e a006 14bf a613 3e3f 6b07 8dbf
00000170: 7628 083d 163a dabe fe83 b4bf aea2 d03e
00000180: bf40 123f f30d 63bf 8459 9d3f dac3 13be
00000190: 0889 643f 790c 193f a47c b13f 6322 553f
000001a0: 37e7 ee3d 02cf 8fbf de9a 203f 45d3 0fbf
000001b0: b7a6 cebf 2917 bbbe e478 713e 88b7 c33e
000001c0: 7889 0940 b609 17bf fdfe d23d fcc6 4b3f
000001d0: ea94 743e 0705 243f a52f e33f dc81 8d3f
000001e0: 924f 693f ddf4 86bf de4f 3d3e 5770 e73f
000001f0: 3998 4a3f 787d 283f b268 04bf 32b6 163f
00000200: 8e44 f1be ecdf 02bf bb84 633f 25fc 0abd
00000210: 785e 4a3f 9a42 0a3e 35fa 89be 13b3 ce3f
00000220: e363 78be 337c e8bd 22d5 2a3f 9ef9 1f3f
00000230: 9f96 0140 9cd1 933e 6ec9 04bf dccf f23e
00000240: af00 94bf b903 d93e a5d8 19bd 349f 64bf
00000250: 5124 81bf d3a5 943f fb12 6c3e 77d8 7bbf
00000260: 5b0a 90bf e59f 20bf c628 0cbe 8f43 f03e
00000270: 0627 19bf 1347 613f d0e7 2a3f 30f6 79bf
00000280: def7 8b3f fb5d ce3c 08d8 ec3e 6653 c43e
00000290: 7e5d 4dbf a522 b4bf 3b2a a6bd cd25 053f
000002a0: 154d 463f 9052 fbbe 390b c8bc 68c7 053f
000002b0: 3fc5 c7bf b797 43bf b8f0 9a3e 9960 523e
000002c0: e919 943f 20ad 1f3e e7a8 4cbf a34a 933f
000002d0: f394 093e 83df 5c3e 0682 babf 2eef 763e
000002e0: 519a fcbe 9d9b 2a3e bde0 a7be 89dd 123f
000002f0: 300a e83f d45d 753c 1b8a 663f 9107 2fbf
00000300: 3c00 023f 98c4 6dbf 2188 1cbf ee34 21bf
00000310: 660a 963f 29e1 37bd 1743 0bbf 9f9b fc3e
00000320: 1c88 c0bf 89a6 5dbf e15e 143f e1cf e8be
00000330: 5b35 d73f 1ab7 b83e ac0b 283f f24a ddbe
00000340: 63d2 bc3f db94 223e 4cff 79be 6db2 283e
00000350: 43d0 153f 2e5e 443f d546 c93e 96ad b2bf
00000360: 6d42 1a3f 6888 bb3e e8b0 3cbf b4ef 6c3d
00000370: 9301 5f3e f9fb f13e c12d 86be 1c6c aabe
00000380: 3bd6 8c3e 0c1b 81bf 57c8 aa3f 6440 a03f
00000390: d3f0 d7be 68c7 513f 8eb4 133e bebf 0fbf
000003a0: cd37 76be 8bb7 463d 8887 ca3e 824f 8ebf
000003b0: 94e9 8dbf 0bc4 a13f c309 0cbf df33 69bd
000003c0: 71f5 dfbf 4712 33bc 69a2 8cbd 8d01 a83e
000003d0: 76d5 69bf 65b5 38bf 3453 39bf 3d83 9a3e
000003e0: 4be3 ecbe e0a8 863f 2c51 153e 9670 07be
000003f0: 8a6f fdbe c999 89bf 71b7 4bbd 44c8 a63f

weight f4 [256]
-1.3066871 -1.8459324 -0.2510594 0.549596 0.374486 0.21511312 -0.049287084 0.99031365
-0.15916847 0.8669507 -1.1005878 1.0933964 1.747571 -1.597257 1.5185467 1.0536525
-0.32927933 -0.0911292 0.14532523 -1.14393 0.030866219 0.29852346 -0.38894263 1.2161515
0.7017291 0.35347775 -0.8449255 0.43245205 -1.6578054 -0.5956022 1.089789 0.63127524
-1.3232772 1.2850199 -0.048741728 0.38567975 -0.3311354 0.61003566 0.5914045 -2.1990178
-0.54108256 -0.9069412 -0.35002074 -0.30838603 0.9157079 -0.5548614 0.13249928 -0.46634054
-0.68736804 -0.27274165 -0.5750346 -0.053318277 1.2192765 1.1352074 0.2818949 -0.022297593
-0.6951719 -0.08500469 0.79460776 -0.24166192 -0.5056468 -0.7967316 0.3215034 -1.0662453
0.15420252 -0.691234 -0.21362811 0.05116817 0.049199384 0.1768868 -0.5266023 -0.009437275
0.41546142 -0.010509024 -0.6929365 0.38290018 -0.25320783 -0.2332129 -0.3718582 0.5721575
0.1511546 -0.83013564 1.106163 1.1688741 -1.0402544 -0.9093821 0.3928576 -1.4306399
0.7292664 0.41419894 -1.3771696 -0.16882354 1.4911782 -1.0349844 -0.13080817 1.056088
-0.29035428 -0.59672314 0.63714534 1.1351262 -0.11206164 -1.2412353 -0.5123674 -0.79760313
-0.21508324 0.6055919 0.7000599 -0.21795084 0.33118546 -1.3924564 -0.7830851 -1.3898264
0.18035871 -0.33370125 0.113699846 0.6987007 0.5865887 -1.1716924 0.9946291 -0.95071703
-0.6477841 -0.42602614 -1.0729614 -0.09879565 -0.07827224 -0.8130871 -0.92810565 -0.016711
0.11579208 -0.5109498 0.9806643 0.036543116 -0.15576506 -1.8962326 -0.32736364 0.26407564
-0.11117347 0.017511731 0.24468157 -0.030775689 1.3748548 -0.04199413 0.558662 -0.49091232
-0.16585241 0.7666125 -0.5307375 0.37810656 -0.12882802 1.0453535 -0.023929939 0.20479102
-0.84367543 0.4226593 0.042081837 -0.2897335 -1.1377739 0.6892601 0.1740854 1.7382994
-0.006171628 0.07769228 -0.15650706 1.7357248 0.44120827 -0.39547244 2.2477345 0.33992574
1.0966167 -0.16883363 -0.33874196 0.4794507 1.139424 -0.32076517 -0.67363065 -0.14610514
-0.5362831 -0.5201733 -0.16317448 -0.6490536 -0.91594106 0.053883914 -1.1877221 0.64777744
0.061177857 -0.20616558 0.56528753 -0.010694113 -0.99872625 0.30786708 0.8917444 1.0552582
0.079974584 -1.1901298 0.22925964 -0.29098246 -0.06119059 0.93772835 -0.9760982 1.7757913
0.08324012 1.1167696 -0.26064292 0.55746126 0.07422631 -0.14410436 -1.3920536 0.40059084
0.1680646 0.74752116 0.06508296 -0.91759 0.5948952 0.15570532 -0.6471434 0.7322578
-1.2144578 -0.059793565 0.71878123 0.21630153 -0.03903112 -0.7499525 0.27689546 1.1935339
-0.110405184 0.24456899 0.15129551 1.1459188 -0.30150542 -0.33359352 0.28774592 -0.16787247
0.17979893 -0.8046574 -0.95556325 -0.22022328 0.71569496 -1.028517 1.3261092 -0.36919153
-1.6180168 1.0819836 -0.39365223 0.37801993 -0.086070485 -1.1123806 0.4110041 -0.898288
0.7271861 0.062606424 -0.5411292 1.2137487 -0.6606596 -0.33015043 -0.27549487 -0.49047568
00000000: 8641 a7bf 8347 ecbf dc8a 80be 53b2 0c3f
00000010: a1bc bf3e 9d46 5c3e 41e1 49bd 3285 7d3f
00000020: 0ffd 22be 7bf0 5d3f 10e0 8cbf 6af4 8b3f
00000030: 68b0 df3f eb72 ccbf bd5f c23f 16de 863f
00000040: 4d97 a8be f2a1 babd 23d0 143e 4c6c 92bf
00000050: 27db fc3c 11d8 983e 7d23 c7be daaa 9b3f
00000060: 85a4 333f 09fb b43e 0a4d 58bf 5b6a dd3e
00000070: f832 d4bf 6379 18bf 357e 8b3f 419b 213f
00000080: 2661 a9bf 887b a43f 68a5 47bd d177 c53e
00000090: 948a a9be 4c2b 1c3f 4966 173f b5bc 0cc0
000000a0: 6384 0abf 4c2d 68bf eb35 b3be c6e4 9dbe
000000b0: d56b 6a3f 660b 0ebf e4ad 073e 30c4 eebe
000000c0: 5af7 2fbf cba4 8bbe 7835 13bf 4464 5abd
000000d0: 4111 9c3f 7a4e 913f 8754 903e 71a9 b6bc
000000e0: c9f6 31bf f016 aebd 6a6b 4b3f 3976 77be
000000f0: 1272 01bf 9af6 4bbf 189c a43e ba7a 88bf
00000100: 44e7 1d3e b6f4 30bf 54c1 5abe b795 513d
00000110: 4b85 493d d021 353e 69cf 06bf cd9e 1abc
00000120: 5cb7 d43e 0b2e 2cbc 4964 31bf 7e0b c43e
00000130: 75a4 81be 5dcf 6ebe 3364 bebe ea78 123f
00000140: 45c8 1a3e c583 54bf c096 8d3f ab9d 953f
00000150: 0e27 85bf 44cd 68bf a224 c93e 351f b7bf
00000160: 34b1 3a3f e211 d43e 1847 b0bf 14e0 2cbe
00000170: edde be3f 5e7a 84bf 94f2 05be e42d 873f
00000180: 51a9 94be d9c2 18bf f51b 233f d14b 913f
00000190: 9380 e5bd cce0 9ebf 832a 03bf b82f 4cbf
000001a0: c83e 5cbe 1208 1b3f 2037 333f 812e 5fbe
000001b0: 2491 a93e 033c b2bf 4478 48bf d5e5 b1bf
000001c0: f4af 383e e4da aabe 77db e83d 0dde 323f
000001d0: ad2a 163f 04fa 95bf 03a0 7e3f 3162 73bf
000001e0: 2ed5 25bf 1920 dabe cd56 89bf 6055 cabd
000001f0: 324d a0bd 7a26 50bf 5598 6dbf 82e5 88bc
00000200: 6624 ed3d 9bcd 02bf d10c 7b3f 3cae 153d
00000210: e080 1fbe c0b7 f2bf 359c a7be ec34 873e
00000220: ebae e3bd c374 8f3c ce8d 7a3e 4c1d fcbc
00000230: 3efb af3f 0902 2cbd 7904 0f3f dc58 fbbe
00000240: 37d5 29be b840 443f 6ade 07bf 2f97 c13e
00000250: 7eeb 03be 25ce 853f b808 c4bc bdb4 513e
00000260: 1dfb 57bf cd66 d83e 015e 2c3d f357 94be
00000270: 93a2 91bf 5a73 303f 7143 323e 9880 de3f
00000280: 5e3b cabb 211d 9f3d 6343 20be 3b2c de3f
00000290: 0de6 e13e 5d7b cabe e2da 0f40 bf0a ae3e
000002a0: f05d 8c3f b9e2 2cbe 966f adbe 907a f53e
000002b0: a5d8 913f 553b a4be 0f73 2cbf 969c 15be
000002c0: d949 09bf 142a 05bf 3617 27be 6028 26bf
000002d0: 1d7b 6abf 61b5 5c3d 4707 98bf bed4 253f
000002e0: a295 7a3d 121d 53be afb6 103f 5c36 2fbc
000002f0: 86ac 7fbf c1a0 9d3e 5c49 643f b312 873f
00000300: b7c9 a33d 2c56 98bf 0ac3 6a3e a7fb 94be
00000310: fca2 7abd f70e 703f 92e1 79bf 214d e33f
00000320: cc79 aa3d 4ef2 8e3f fd72 85be c8b5 0e3f
00000330: f703 983d 1890 13be d02e b2bf 3e1a cd3e
00000340: 2019 2c3e 8c5d 3f3f 374a 853d 2ee7 6abf
00000350: 0d4b 183f 3771 1f3e 31ab 25bf 3f75 3b3f
00000360: 5a73 9bbf 19ea 74bd 0c02 383f 267e 5d3e
00000370: 18df 1fbd e3fc 3fbf 3ec5 8d3e b8c5 983f
00000380: 1d1c e2bd 4b70 7a3e 36ed 1a3e 78ad 923f
00000390: eb5e 9abe c5cc aabe 6f53 933e c3e6 2bbe
000003a0: 361d 383e 07fe 4dbf cb9f 74bf 3682 61be
000003b0: c937 373f 72a6 83bf f2bd a93f ac06 bdbe
000003c0: 2d1b cfbf 707e 8a3f c98c c9be d48b c13e
000003d0: b945 b0bd 7d62 8ebf 216f d23e 34f6 65bf
000003e0: de28 3a3f cc37 803d 7187 0abf 1e5c 9b3f
000003f0: fd20 29bf 7a09 a9be aa0d 8dbe a11f fbbe

output_mask f4 [16]
1.0 1.0 1.0 1.0 1.0 1.0 1.0 1.0
1.0 1.0 1.0 1.0 1.0 1.0 1.0 1.0
00000000: 0000 803f 0000 803f 0000 803f 0000 803f
00000010: 0000 803f 0000 803f 0000 803f 0000 803f
00000020: 0000 803f 0000 803f 0000 803f 0000 803f
00000030: 0000 803f 0000 803f 0000 803f 0000 803f

output_mask f4 [144]
1.0 1.0 1.0 1.0 1.0 1.0 1.0 1.0
1.0 1.0 1.0 1.0 1.0 1.0 1.0 1.0
1.0 1.0 1.0 1.0 1.0 1.0 1.0 1.0
1.0 1.0 1.0 1.0 1.0 1.0 1.0 1.0
1.0 1.0 1.0 1.0 1.0 1.0 1.0 1.0
1.0 1.0 1.0 1.0 1.0 1.0 1.0 1.0
1.0 1.0 1.0 1.0 1.0 1.0 1.0 1.0
1.0 1.0 1.0 1.0 1.0 1.0 1.0 1.0
1.0 1.0 1.0 1.0 1.0 1.0 1.0 1.0
1.0 1.0 1.0 1.0 1.0 1.0 1.0 1.0
1.0 1.0 1.0 1.0 1.0 1.0 1.0 1.0
1.0 1.0 1.0 1.0 1.0 1.0 1.0 1.0
1.0 1.0 1.0 1.0 1.0 1.0 1.0 1.0
1.0 1.0 1.0 1.0 1.0 1.0 1.0 1.0
1.0 1.0 1.0 1.0 1.0 1.0 1.0 1.0
1.0 1.0 1.0 1.0 1.0 1.0 1.0 1.0
1.0 1.0 1.0 1.0 1.0 1.0 1.0 1.0
1.0 1.0 1.0 1.0 1.0 1.0 1.0 1.0
00000000: 0000 803f 0000 803f 0000 803f 0000 803f
00000010: 0000 803f 0000 803f 0000 803f 0000 803f
00000020: 0000 803f 0000 803f 0000 803f 0000 803f
00000030: 0000 803f 0000 803f 0000 803f 0000 803f
00000040: 0000 803f 0000 803f 0000 803f 0000 803f
00000050: 0000 803f 0000 803f 0000 803f 0000 803f
00000060: 0000 803f 0000 803f 0000 803f 0000 803f
00000070: 0000 803f 0000 803f 0000 803f 0000 803f
00000080: 0000 803f 0000 803f 0000 803f 0000 803f
00000090: 0000 803f 0000 803f 0000 803f 0000 803f
000000a0: 0000 803f 0000 803f 0000 803f 0000 803f
000000b0: 0000 803f 0000 803f 0000 803f 0000 803f
000000c0: 0000 803f 0000 803f 0000 803f 0000 803f
000000d0: 0000 803f 0000 803f 0000 803f 0000 803f
000000e0: 0000 803f 0000 803f 0000 803f 0000 803f
000000f0: 0000 803f 0000 803f 0000 803f 0000 803f
00000100: 0000 803f 0000 803f 0000 803f 0000 803f
00000110: 0000 803f 0000 803f 0000 803f 0000 803f
00000120: 0000 803f 0000 803f 0000 803f 0000 803f
00000130: 0000 803f 0000 803f 0000 803f 0000 803f
00000140: 0000 803f 0000 803f 0000 803f 0000 803f
00000150: 0000 803f 0000 803f 0000 803f 0000 803f
00000160: 0000 803f 0000 803f 0000 803f 0000 803f
00000170: 0000 803f 0000 803f 0000 803f 0000 803f
00000180: 0000 803f 0000 803f 0000 803f 0000 803f
00000190: 0000 803f 0000 803f 0000 803f 0000 803f
000001a0: 0000 803f 0000 803f 0000 803f 0000 803f
000001b0: 0000 803f 0000 803f 0000 803f 0000 803f
000001c0: 0000 803f 0000 803f 0000 803f 0000 803f
000001d0: 0000 803f 0000 803f 0000 803f 0000 803f
000001e0: 0000 803f 0000 803f 0000 803f 0000 803f
000001f0: 0000 803f 0000 803f 0000 803f 0000 803f
00000200: 0000 803f 0000 803f 0000 803f 0000 803f
00000210: 0000 803f 0000 803f 0000 803f 0000 803f
00000220: 0000 803f 0000 803f 0000 803f 0000 803f
00000230: 0000 803f 0000 803f 0000 803f 0000 803f

frequencies f4 [8]
1.1734325 1.3699999 2.1816614 3.2997882 3.9936614 4.6377106 5.113611 6.098432
00000000: 0933 963f 285c af3f 57a0 0b40 bb2f 5340
00000010: 2698 7f40 2068 9440 b4a2 a340 5b26 c340

weight f4 [8, 8]
-0.032798957 -0.009978606 0.0044582486 0.49131534 1.3641653 -0.98655176 -0.76844686 0.42912465
0.32391605 0.75297916 0.041216094 -0.5654544 -0.411701 0.021062762 0.33844018 0.26033163
-0.018085228 -0.25946304 -0.56212956 1.1091197 0.27670297 -0.62402225 0.047485143 -0.20611769
0.06663138 0.50283545 -0.36406806 -0.2127445 -0.43970162 0.16927847 0.7076849 0.11551835
0.32471988 0.8332247 0.004255415 -0.39370626 -0.10406068 -0.56072086 0.16990566 -0.10945682
0.3223891 0.52639097 -0.77021235 -0.105248876 0.7157456 0.34288216 -0.6885042 -0.34261075
0.073655285 0.07115203 -0.4563707 -0.16151077 -0.62607616 -0.053610954 0.7338719 -0.34674957
-0.2260347 0.54149073 0.9264295 -0.06827382 -0.33639786 -0.71100193 -0.13323511 0.50768316
00000000: 3358 06bd 4f7d 23bc 8016 923b af8d fb3e
00000010: f89c ae3f a88e 7cbf efb8 44bf 3ab6 db3e
00000020: 53d8 a53e 3ec3 403f 35d2 283d 9fc1 10bf
00000030: 79ca d2be d08b ac3c 0848 ad3e 304a 853e
00000040: 7927 94bc 57d8 84be b9e7 0fbf a2f7 8d3f
00000050: 03ac 8d3e ecbf 1fbf c87f 423d 8410 53be
00000060: 0876 883d d3b9 003f 2167 babe b2d9 59be
00000070: 9220 e1be 5657 2d3e d62a 353f e294 ec3d
00000080: af41 a63e 374e 553f 0271 8b3b de93 c9be
00000090: c41d d5bd 678b 0fbf c0fb 2d3e e62a e0bd
000000a0: 2f10 a53e 8fc1 063f a32c 45bf b98c d7bd
000000b0: 1b3b 373f 408e af3e d041 30bf ad6a afbe
000000c0: 95d8 963d 28b8 913d 6ca9 e9be 1463 25be
000000d0: 8746 20bf 2997 5bbd 07df 3b3f 2989 b1be
000000e0: a475 67be 239f 0a3f 7c2a 6d3f 25d3 8bbd
000000f0: 573c acbe 3904 36bf c96e 08be 86f7 013f

bias f4 [8]
0.023909088 0.2074818 0.1424266 -0.14210685 -0.2702459 0.04274073 0.19893023 0.00033260218
00000000: fedc c33c 1c76 543e 47d8 113e 7584 11be
00000010: ac5d 8abe e710 2f3d 5eb4 4b3e 1c61 ae39

weight f4 [8, 8]
-0.020581204 0.28008845 -0.5033105 0.8179724 0.38450083 -0.01811656 0.24400054 0.3341724
-0.36733636 0.22154291 -1.5429707 -0.7583341 -0.57625484 -0.6212728 -0.33351362 0.19176067
-0.66953737 0.29478943 -0.8664859 0.08529537 0.09990057 0.9471176 -0.058790468 0.21257134
0.30517167 -0.08451333 -0.55076855 -0.58403563 0.5234722 0.7367245 -0.3600806 0.4927479
-0.24552973 -0.017377436 -0.8759245 -0.004944825 -0.13298832 0.033116348 0.40055236 -0.46769872
-0.30824673 0.39044043 -0.077855274 0.3462094 0.5122191 -0.3171552 0.31151688 0.37191042
-0.43805155 -0.097977616 0.35790244 0.18366814 0.11761693 -0.7336185 0.23430508 0.35971612
0.018631186 0.45066378 -0.25661898 0.41636205 0.59916675 0.36323845 -0.07904197 0.5257772
00000000: ea99 a8bc c167 8f3e f5d8 00bf a466 513f
00000010: 4bdd c43e 2e69 94bc 47db 793e a518 ab3e
00000020: 8313 bcbe 25dc 623e 1080 c5bf 2f22 42bf
00000030: 7085 13bf bc0b 1fbf 4cc2 aabe e95c 443e
00000040: cd66 2bbf a4ee 963e 05d2 5dbf 57af ae3d
00000050: ac98 cc3d 4d76 723f 46ce 70bd 4dac 593e
00000060: 763f 9c3e 5315 adbd 2bff 0cbf 5c83 15bf
00000070: 4602 063f fa99 3c3f 7c5c b8be 7449 fc3e
00000080: 256c 7bbe 205b 8ebc 973c 60bf 3308 a2bb
00000090: 172e 08be 02a5 073d 3315 cd3e 3576 efbe
000000a0: 84d2 9dbe cfe7 c73e 9672 9fbd 5c42 b13e
000000b0: ca20 033f 2b62 a2be 247f 9f3e 0b6b be3e
000000c0: 4b48 e0be 7da8 c8bd fd3e b73e 8013 3c3e
000000d0: 25e1 f03d 6cce 3bbf aced 6f3e b62c b83e
000000e0: 6ea0 983c 67bd e63e 9063 83be 682d d53e
000000f0: fe62 193f 64fa b93e c2e0 a1bd 5699 063f

bias f4 [8]
0.2530801 0.07979737 -0.20949633 -0.14588022 -0.22859283 0.1585729 -0.17633323 -0.42560804
00000000: b793 813e ce6c a33d 3586 56be a061 15be
00000010: 3d14 6abe ef60 223e b390 34be 4ce9 d9be

weight f4 [48, 8]
0.088957906 -0.09468819 0.48145145 0.11054012 0.4696447 0.25381297 0.35336936 0.23502985
-0.21594302 0.22253999 0.28393713 0.25078955 -0.24711345 -0.08842939 0.2210708 -0.19153193
-0.21478225 -0.43222255 0.20214409 0.13753489 -0.20337191 -0.11430411 0.16420527 0.33143118
-0.3475449 -0.1781843 -0.28657734 0.05077509 0.030749682 -0.30564243 -0.12869659 -0.36836183
-0.017465059 0.21134898 -0.21190873 0.10474777 -0.0900539 -0.0883357 0.022551017 0.07010914
-0.31515494 0.7640915 -1.0738045 -0.41797525 -0.22651194 0.0069252094 0.6717655 -0.15747243
0.05843325 -0.5759585 -0.46891436 -0.2660888 -0.40655556 -0.1346025 -0.8857383 -0.78783584
0.5324389 0.12548716 0.58666253 -0.2148611 -0.21744397 0.50727856 0.22509247 0.63750494
-0.18576437 0.20733152 0.2347819 -0.12465354 -0.13816975 0.1708553 -0.08509157 -0.18599817
0.40799877 0.007518512 0.055598594 0.008401818 -0.39114 0.06892367 -0.056303307 -0.24582493
-0.042444482 0.053718884 -0.1035702 0.21067387 -1.0826696 0.39803463 0.21339518 0.52892566
0.07338426 0.025397489 0.0034822568 -0.12958154 -0.12011067 -0.12899402 0.07576295 -0.055846564
-0.18783434 -1.7619066 -1.0093356 0.60810655 -0.62704563 0.104812644 -0.2595549 0.41272303
-0.22689156 0.5123303 -0.276884 0.5638406 -0.48214853 -0.13674076 -0.09290229 0.09875648
0.016408162 0.2876325 0.09764512 -0.09482832 -0.09387131 0.25997704 0.09812066 0.08161744
0.116487004 -0.19102958 0.08372888 0.4670338 -0.20259747 -0.027358871 0.3262865 0.35244682
0.027610462 -0.04579762 -0.12999728 0.33533397 -0.57825875 0.14417054 -0.37937963 -0.09320015
0.03805936 -0.29790092 0.546309 -0.21777102 0.17722975 0.09178472 0.106885925 -0.36249742
0.24112591 -0.43404666 0.47909516 -0.10864712 0.2879523 -0.2276181 -0.7325127 0.67059624
0.32160893 -0.76408035 0.7585084 -0.2569931 0.413089 -0.14355634 -0.6884605 0.55366087
0.15474746 0.31397876 -0.16812503 -0.293776 0.15808357 0.19985951 -0.14539652 0.06963092
0.2186444 -0.2877443 0.78131396 0.016450284 -0.7069064 -0.15152092 -0.6222497 0.55829746
-0.20774536 -1.0360272 1.1973175 -1.237415 -0.40988767 0.14024399 0.89117813 0.18900602
0.21252812 -0.7333993 0.36616746 0.03720957 0.30288482 -0.28549024 -0.7533852 -0.34538078
0.20383109 -0.7227535 0.09567174 -0.23299582 -0.31624544 -0.25100365 -0.74678797 0.29450142
-0.23493035 1.0576948 -0.06515927 0.68211085 0.5669436 -0.1952392 -0.63674015 0.17393623
-0.35954717 1.1927823 -0.53978765 0.818687 -0.046315577 0.27557564 0.5771719 0.028385418
-0.20129693 0.7111396 0.70293134 0.43043774 0.7564032 0.057825252 0.4232525 0.60627526
0.08462816 0.54561776 1.109665 -0.54472 0.38837746 -0.0428288 0.38159993 0.39353573
-0.09016776 0.59756964 -0.7934029 -0.47755313 -0.24920213 -0.25729787 0.38905454 -0.1912043
-0.14530651 -0.510219 0.58187 -0.10141838 -0.030047769 0.120348826 -0.37580842 0.48986912
-0.16488323 -0.5162567 0.48303974 -0.71603996 0.51102555 -0.08320347 0.2532589 0.17524926
00000000: 902f b63d e2eb c1bd ce80 f63e dc62 e23d
00000010: 4575 f03e c6f3 813e d4ec b43e aaab 703e
00000020: 2b20 5dbe 86e1 633e 3560 913e 7d67 803e
00000030: 4f0b 7dbe 781a b5bd 6260 623e f220 44be
00000040: e1ef 5bbe 464c ddbe dcfe 4e3e f2d5 0c3e
00000050: ba40 50be 4618 eabd 6d25 283e 59b1 a93e
00000060: 68f1 b1be f275 36be 44ba 92be 8af9 4f3d
00000070: c2e6 fb3c 2a7d 9cbe 0ac9 03be ec99 bcbe
00000080: e212 8fbc de6b 583e 9afe 58be 0086 d63d
00000090: 2e6e b8bd 59e9 b4bd e9bc b83c 6195 8f3d
000000a0: fd5b a1be 809b 433f 6d72 89bf da00 d6be
000000b0: bff2 67be deec e23b d3f8 2b3f 7440 21be
000000c0: b457 6f3d 0472 13bf 8b15 f0be cb3c 88be
000000d0: 0d28 d0be 3dd5 09be bfbf 62bf 9caf 49bf
000000e0: ea4d 083f b57f 003e 842f 163f 8c04 5cbe
000000f0: a2a9 5ebe 02dd 013f a47e 663e 8633 233f
00000100: 0439 3ebe b74e 543e ab6a 703e 5b4a ffbd
00000110: 5f7c 0dbe b1f4 2e3e 7d44 aebd 4e76 3ebe
00000120: 37e5 d03e da5d f63b 5abb 633d c7a7 093c
00000130: 8143 c8be da27 8d3d 4c9e 66bd 88b9 7bbe
00000140: 44da 2dbd 5508 5c3d 9d1c d4bd e4ba 573e
00000150: eb94 8abf 32cb cb3e 4484 5a3e ac67 073f
00000160: 7d4a 963d 650e d03c 9336 643b 06b1 04be
00000170: 95fc f5bd 0217 04be 9b29 9b3d 5ebf 64bd
00000180: a557 40be 2886 e1bf e931 81bf dfac 1b3f
00000190: 1086 20bf 03a8 d63d 61e4 84be 6f50 d33e
000001a0: 4356 68be 1428 033f bdc3 8dbe dc57 103f
000001b0: 2cdc f6be c505 0cbe 8e43 bebd d640 ca3d
000001c0: 696a 863c 9144 933e 2afa c73d 5a35 c2bd
000001d0: 9a3f c0bd b61b 853e 7cf3 c83d 0b27 a73d
000001e0: bd90 ee3d 429d 43be 0c7a ab3d 0e1f ef3e
000001f0: b675 4fbe b61f e0bc 060f a73e e973 b43e
00000200: 562f e23c 4996 3bbd 021e 05be e5b0 ab3e
00000210: c408 14bf 71a1 133e 0c3e c2be b8df bebd
00000220: 22e4 1b3d 7886 98be e8da 0b3f 5eff 5ebe
00000230: b77b 353e a1f9 bb3d 02e7 da3d 4399 b9be
00000240: b6e9 763e 5d3b debe f64b f53e 6282 debd
00000250: 7c6e 933e b814 69be f485 3bbf 32ac 2b3f
00000260: eda9 a43e c59a 43bf 9b2d 423f 9994 83be
00000270: 6780 d33e 6f00 13be f33e 30bf b8bc 0d3f
00000280: 1e76 1e3e d3c1 a03e f828 2cbe cf69 96be
00000290: a9e0 213e f9a7 4c3e d3e2 14be a89a 8e3d
000002a0: 51e4 5f3e 3953 93be 3104 483f bfc2 863c
000002b0: d1f7 34bf 4d28 1bbe c24b 1fbf 95ec 0e3f
000002c0: 33bb 54be 8a9c 84bf b341 993f 9d63 9ebf
000002d0: ccdc d1be 1f9c 0f3e 4024 643f cb8a 413e
000002e0: f9a0 593e 0ec0 3bbf 4d7a bb3e 1069 183d
000002f0: b813 9b3e c72b 92be dadd 40bf c0d5 b0be
00000300: 19b9 503e 6006 39bf 8cef c33d 7596 6ebe
00000310: ecea a1be 8d83 80be 7f2d 3fbf e4c8 963e
00000320: 9591 70be 8b62 873f 3972 85bd d19e 2e3f
00000330: 3723 113f c9ec 47be 6701 23bf 571c 323e
00000340: 9116 b8be 17ad 983f 862f 0abf 7995 513f
00000350: 67b5 3dbd 4018 8d3e 8ac1 133f 8988 e83c
00000360: c820 4ebe 3f0d 363f 4ff3 333f 5662 dc3e
00000370: a4a3 413f 2cda 6c3d 8db4 d83e db34 1b3f
00000380: 8751 ad3d 9bad 0b3f 8109 8e3f c572 0bbf
00000390: 69d9 c63e 406d 2fbd 1161 c33e 847d c93e
000003a0: e0a9 b8bd 53fa 183f 741c 4bbf d881 f4be
000003b0: d82e 7fbe 8cbc 83be 2832 c73e 0fcb 43be
000003c0: 3bcb 14be b69d 02bf 6ff5 143f 71b4 cfbd
000003d0: bd26 f6bc 7279 f63d f669 c0be 20d0 fa3e
000003e0: 26d7 28be 6629 04bf fc50 f73e 654e 37bf
000003f0: 92d2 023f 9566 aabd 27ab 813e 8b74 333e

bias f4 [48]
0.053502586 0.13086613 -0.0373406 0.29580784 0.059574813 0.0037706206 0.13853885 0.20287454
0.20657603 0.3741983 -0.21106496 0.06989272 0.044448998 0.2597973 -0.022268323 0.07539995
0.78281254 0.127129 -0.0023508314 -0.024300484 0.07091775 -0.27584973 -0.26701865 0.267207
-0.21513599 -0.0340076 -0.06839444 -0.49531445 0.35467267 0.08071178 -0.041918267 -0.5445171
0.01818747 -0.012098637 -0.1285183 -0.4815077 0.03305393 -0.28026992 -0.33083904 -0.41899452
-0.031610273 -0.112155735 -0.24159665 -0.21770154 -0.07279747 -0.10401018 -0.07623661 -0.28017607
00000000: 8725 5b3d c501 063e 75f2 18bd 2074 973e
00000010: b804 743d 841c 773b 21dd 0d3e 58be 4f3e
00000020: ab88 533e eb96 bf3e 6a21 58be ea23 8f3d
00000030: 2710 363d 2704 853e 0f6c b6bc 4a6b 9a3d
00000040: 6766 483f 1b2e 023e 6810 1abb cf11 c7bc
00000050: 533d 913d 2d3c 8dbe abb6 88be 5bcf 883e
00000060: 9c4c 5cbe 8e4b 0bbd 6212 8cbd db99 fdbe
00000070: a897 b53e 384c a53d 7db2 2bbd 7965 0bbf
00000080: e4fd 943c 5d39 46bc 4d9a 03be 2d88 f6be
00000090: 8f63 073d 8a7f 8fbe bc63 a9be 7386 d6be
000000a0: c679 01bd e8b1 e5bd 1d65 77be 27ed 5ebe
000000b0: d716 95bd 4a03 d5bd f121 9cbd 3d73 8fbe

coefficients f4 [3]
-28.0 48.0 -21.0
00000000: 0000 e0c1 0000 4042 0000 a8c1

output_mask f4 [44]
1.0 1.0 1.0 1.0 1.0 1.0 1.0 1.0
1.0 1.0 1.0 1.0 1.0 1.0 1.0 1.0
1.0 1.0 1.0 1.0 1.0 1.0 1.0 1.0
1.0 1.0 1.0 1.0 1.0 1.0 1.0 1.0
1.0 1.0 1.0 1.0 1.0 1.0 1.0 1.0
1.0 1.0 1.0 1.0
00000000: 0000 803f 0000 803f 0000 803f 0000 803f
00000010: 0000 803f 0000 803f 0000 803f 0000 803f
00000020: 0000 803f 0000 803f 0000 803f 0000 803f
00000030: 0000 803f 0000 803f 0000 803f 0000 803f
00000040: 0000 803f 0000 803f 0000 803f 0000 803f
00000050: 0000 803f 0000 803f 0000 803f 0000 803f
00000060: 0000 803f 0000 803f 0000 803f 0000 803f
00000070: 0000 803f 0000 803f 0000 803f 0000 803f
00000080: 0000 803f 0000 803f 0000 803f 0000 803f
00000090: 0000 803f 0000 803f 0000 803f 0000 803f
000000a0: 0000 803f 0000 803f 0000 803f 0000 803f

weight f4 [640]
-2.0235155 -0.31849307 -0.3588371 -0.9759797 -0.7628285 -0.042448338 -0.54959214 1.3932242
0.45257986 -1.1809764 -1.0910289 -1.8592365 -1.3019361 1.3823817 -0.16027051 0.9861922
-0.32417116 -0.7799853 0.1895546 -1.2311316 -0.74681896 1.5525693 0.29088154 -0.78341544
-0.3454663 0.6922807 -0.75747466 0.9524903 -0.6964186 0.87880415 -0.27305785 0.9592002
0.38193986 -0.22386219 -1.8090695 -1.2968022 -0.23480374 -0.15868653 0.1799057 -0.44597095
0.20131734 -1.7877487 -1.0350244 0.7061744 -2.45776 0.9171219 -0.3672732 -0.13318518
-1.874533 -0.40265667 -2.5911298 -1.1721728 -2.2505593 1.2221017 -0.62691545 -1.4680436
-0.75012344 0.18183616 -0.7211968 -0.8930963 0.9548934 -0.6247973 0.76079506 -1.1402705
-1.4073901 0.05309719 -0.46793383 2.1784503 -0.7064611 0.3821838 -0.64867663 0.021103332
0.45219016 0.09596021 0.45697963 -1.1511915 1.551796 -0.22766697 -0.6599441 -0.459435
-0.6113978 -1.1413673 -1.0809253 0.76715803 0.9165821 -2.017568 -0.87240124 1.0709352
0.24420373 0.62945753 0.103694975 0.41852117 0.33836186 0.15616609 -0.7905294 -0.6416306
-0.76000357 -0.8964586 -0.76595 -1.203591 -0.3353782 0.58383983 0.056653168 -1.328015
-2.5532708 -0.1176675 0.30757007 0.90875673 0.35016343 0.93186694 0.9547232 -1.2437768
-0.40460774 -0.8692041 -1.3248484 0.029469546 -0.58628076 -0.096548826 -1.3399514 0.5807026
-0.7594255 -0.57915074 -0.7867101 -0.9893829 0.5225291 1.279853 -1.0312952 1.4451153
-0.049220502 1.0420377 0.39685965 -2.0769281 -0.6156185 0.7946291 -1.563086 1.5644282
0.5179955 0.302944 -2.375081 1.1231669 -1.6633394 -0.6165189 -0.7975539 -0.92337704
-0.21214871 0.49831188 0.3890813 -0.61814183 0.6751152 -1.3029177 0.049325407 -1.022083
0.14528784 -0.117633104 -0.7579432 2.5437489 -2.4035962 3.602838 0.08130606 1.8986931
0.4793014 -3.348919 -2.3835611 6.0917764 -0.51280403 0.87122834 -2.7890613 -0.7293062
-0.97690606 0.26285377 -1.358909 -0.04962309 0.0640257 0.9107142 0.45623976 -0.71575904
0.2134367 0.5120146 -1.8717804 -0.37077177 -0.22990106 -0.33657357 0.13129035 -1.6261564
0.884675 -4.557617 -1.281077 -1.3555613 -2.0590458 -2.6248765 -1.4006196 0.0021966302
-0.6593395 5.034687 3.393263 -1.0286316 0.4342166 -0.11313853 -1.0220271 -0.5722308
0.082509145 0.30083773 0.747416 0.3438855 -1.9027846 1.1150286 -0.29393634 0.6989275
0.8790937 0.7148641 0.13705385 -0.31206444 -0.55065346 -0.56119496 1.4875908 -0.9001889
0.7376207 0.45253673 0.35264182 -1.1912475 -0.8604904 1.0410937 -0.28042752 -0.57017875
0.8668459 -0.65547717 -0.039993398 -0.4472685 -0.2780171 -1.2958533 0.4544944 0.55991644
0.8306897 -0.6481032 -0.46894866 0.6524989 0.21047029 -1.0047773 -2.0062892 0.6320451
1.3296095 0.18948726 -0.41769436 0.94892454 -1.2499895 0.83114725 0.072991565 -0.12582727
-0.6301582 0.8783366 -0.17570613 -0.48738202 0.98295003 0.7881171 0.3049699 -1.1134591
00000000: 4781 01c0 8611 a3be 7fb9 b7be ced9 79bf
00000010: bb48 43bf 4fde 2dbd 12b2 0cbf 2c55 b23f
00000020: 8cb8 e73e 3c2a 97bf d6a6 8bbf 76fb edbf
00000030: d8a5 a6bf e2f1 b03f f41d 24be 1877 7c3f
00000040: c3f9 a5be 1ead 47bf 9a1a 423e b895 9dbf
00000050: 872f 3fbf 97ba c63f 6dee 943e ea8d 48bf
00000060: f5e0 b0be 4f39 313f dce9 41bf 68d6 733f
00000070: 7d48 32bf 4ff9 603f 3dce 8bbe 258e 753f
00000080: 9f8d c33e 213c 65be 978f e7bf 9dfd a5bf
00000090: 6470 70be b97e 22be 3339 383e 4e56 e4be
000000a0: 2226 4e3e f3d4 e4bf ae7b 84bf d8c7 343f
000000b0: f14b 1dc0 80c8 6a3f 3c0b bcbe b261 08be
000000c0: b3f0 efbf 0429 cebe 12d5 25c0 c209 96bf
000000d0: 2a09 10c0 d46d 9c3f 887d 20bf dae8 bbbf
000000e0: 1708 40bf 4233 3a3e 5aa0 38bf f6a1 64bf
000000f0: e573 743f b7f2 1fbf 77c3 423f 62f4 91bf
00000100: 5c25 b4bf 707c 593d 0695 efbe bb6b 0b40
00000110: a2da 34bf 98ad c33e ac0f 26bf e5e0 ac3c
00000120: 7885 e73e c986 c43d 3cf9 e93e 3e5a 93bf
00000130: 40a1 c63f 8821 69be 19f2 28bf 103b ebbe
00000140: 9184 1cbf 5318 92bf c35b 8abf 7864 443f
00000150: 20a5 6a3f d61f 01c0 b055 5fbf 6814 893f
00000160: 8b10 7a3e 2124 213f 085e d43d 6848 d63e
00000170: c43d ad3e 01ea 1f3e 2260 4abf e741 24bf
00000180: 988f 42bf 507e 65bf 4d15 44bf 450f 9abf
00000190: b1b6 abbe 8776 153f 270d 683d 65fc a9bf
000001a0: ca68 23c0 a9fb f0bd d379 9d3e 48a4 683f
000001b0: 9f48 b33e d58e 6e3f bd68 743f 1434 9fbf
000001c0: bf28 cfbe 2984 5ebf a294 a9bf 1e6a f13c
000001d0: 7f16 16bf 64bb c5bd 8783 abbf eda8 143f
000001e0: b669 42bf 3943 14bf d565 49bf 3348 7dbf
000001f0: 78c4 053f 39d2 a33f 7b01 84bf 8af9 b83f
00000200: 709b 49bd 7e61 853f 3031 cb3e 64ec 04c0
00000210: 2d99 1dbf d06c 4b3f 3413 c8bf 2f3f c83f
00000220: 5a9b 043f 7a1b 9b3e 5401 18c0 efc3 8f3f
00000230: 4ee8 d4bf 2fd4 1dbf 7e2c 4cbf 7062 6cbf
00000240: 833d 59be bc22 ff3e aa35 c73e 8b3e 1ebf
00000250: 5ad4 2c3f 02c6 a6bf 7009 4a3d 9ed3 82bf
00000260: 56c6 143e a0e9 f0bd 9108 42bf c8cc 2240
00000270: 85d4 19c0 e694 6640 cb83 a63d 6008 f33f
00000280: fe66 f53e b054 56c0 448c 18c0 d5ef c240
00000290: 2047 03bf d208 5f3f fb7f 32c0 d0b3 3abf
000002a0: 8416 7abf c594 863e bbf0 adbf 9541 4bbd
000002b0: e81f 833d 9124 693f 4298 e93e fc3b 37bf
000002c0: 268f 5a3e 6413 033f 8096 efbf ccd5 bdbe
000002d0: 2f6b 6bbe 5f53 acbe fa70 063e e525 d0bf
000002e0: 107a 623f 00d8 91c0 55fa a3bf 0883 adbf
000002f0: 68c7 03c0 fafd 27c0 8147 b3bf 57f5 0f3b
00000300: 79ca 28bf 281c a140 392b 5940 33aa 83bf
00000310: a351 de3e 2cb5 e7bd c9d1 82bf b87d 12bf
00000320: 8efa a83d 6707 9a3e a856 3f3f c311 b03e
00000330: 728e f3bf 42b9 8e3f d37e 96be eaec 323f
00000340: 490c 613f 5501 373f d857 0c3e e9c6 9fbe
00000350: a0f7 0cbf 79aa 0fbf 6069 be3f c872 66bf
00000360: b6d4 3c3f e5b2 e73e 788d b43e cc7a 98bf
00000370: 1949 5cbf 8f42 853f 3294 8fbe 3cf7 11bf
00000380: 9de9 5d3f 5acd 27bf 1ed0 23bd 6000 e5be
00000390: 4258 8ebe 85de a5bf 7db3 e83e af56 0f3f
000003a0: 15a8 543f 17ea 25bf 0a1a f0be 2b0a 273f
000003b0: 8685 573e 8b9c 80bf 0b67 00c0 b5cd 213f
000003c0: a530 aa3f f308 423e 09dc d5be b8ec 723f
000003d0: a8ff 9fbf 11c6 543f 9a7c 953d ddd8 00be
000003e0: 0c52 21bf abda 603f 4fec 33be 238a f9be
000003f0: 9da2 7b3f 0bc2 493f 0425 9c3e d485 8ebf

output_mask f4 [72]
1.0 1.0 1.0 1.0 1.0 1.0 1.0 1.0
1.0 1.0 1.0 1.0 1.0 1.0 1.0 1.0
1.0 1.0 1.0 1.0 1.0 1.0 1.0 1.0
1.0 1.0 1.0 1.0 1.0 1.0 1.0 1.0
1.0 1.0 1.0 1.0 1.0 1.0 1.0 1.0
1.0 1.0 1.0 1.0 1.0 1.0 1.0 1.0
1.0 1.0 1.0 1.0 1.0 1.0 1.0 1.0
1.0 1.0 1.0 1.0 1.0 1.0 1.0 1.0
1.0 1.0 1.0 1.0 1.0 1.0 1.0 1.0
00000000: 0000 803f 0000 803f 0000 803f 0000 803f
00000010: 0000 803f 0000 803f 0000 803f 0000 803f
00000020: 0000 803f 0000 803f 0000 803f 0000 803f
00000030: 0000 803f 0000 803f 0000 803f 0000 803f
00000040: 0000 803f 0000 803f 0000 803f 0000 803f
00000050: 0000 803f 0000 803f 0000 803f 0000 803f
00000060: 0000 803f 0000 803f 0000 803f 0000 803f
00000070: 0000 803f 0000 803f 0000 803f 0000 803f
00000080: 0000 803f 0000 803f 0000 803f 0000 803f
00000090: 0000 803f 0000 803f 0000 803f 0000 803f
000000a0: 0000 803f 0000 803f 0000 803f 0000 803f
000000b0: 0000 803f 0000 803f 0000 803f 0000 803f
000000c0: 0000 803f 0000 803f 0000 803f 0000 803f
000000d0: 0000 803f 0000 803f 0000 803f 0000 803f
000000e0: 0000 803f 0000 803f 0000 803f 0000 803f
000000f0: 0000 803f 0000 803f 0000 803f 0000 803f
00000100: 0000 803f 0000 803f 0000 803f 0000 803f
00000110: 0000 803f 0000 803f 0000 803f 0000 803f

weight f4 [448]
0.11975114 0.04202253 0.12854339 -1.1242069 0.47141305 0.0487313 1.2106493 0.96706873
0.60777974 1.0114785 -0.46002784 0.20500097 0.097482346 0.09720018 -1.4492942 0.68480116
1.956912 1.2999675 0.7982002 -0.3895399 -0.3677467 1.0883176 -0.39856562 0.77676326
-0.62609816 -0.2703408 0.93423086 0.077105 1.4513186 -0.43561462 -0.32977065 0.50510484
-1.7935399 -0.44701105 -0.35840484 -1.006272 -0.87317765 0.5419927 -1.8768209 0.6762278
-0.10720975 -0.39525414 -0.5043206 0.04495076 -0.93948853 -0.34282917 -0.093873195 -1.1392602
0.6346157 -0.52659744 0.119588315 -1.2904991 0.06931761 -0.06952645 -0.118089035 -0.6484634
0.29486042 -0.45829776 0.2068237 -0.06295043 1.0088571 1.2532132 0.28438243 0.09824627
0.3180302 1.0693507 -1.547144 1.6951257 1.7081984 0.4528879 -0.16560216 0.20942536
1.0588354 -0.2579224 -0.38432315 0.8674404 0.30945885 1.0522128 1.2196959 0.12205813
1.4009845 1.005345 -0.7299461 0.80049294 0.30869305 -0.6601337 -0.18091442 -0.14721388
0.93499446 1.0906767 0.060808025 -0.40898994 -0.372235 -0.75395685 -0.59322757 0.49149573
-2.0462189 0.9368595 -1.1714864 0.08086584 -0.7175241 0.88674843 0.72209775 -0.0032025122
0.77687675 -0.41130793 -0.2563411 -0.9145354 -0.6802785 -0.32926318 0.08536908 -0.57979363
0.51983666 0.09022333 -0.53762585 0.6821226 -1.1156627 -2.1149585 0.27935213 1.1162946
0.40847507 1.1659791 -1.1220891 -0.15728737 0.062088624 -0.80371857 0.033934362 -0.01222281
1.3091862 0.34891388 -0.107654236 -0.08685727 -0.579524 0.34105363 -0.10959015 0.040768195
0.725049 -0.37195468 0.2862304 -0.20214814 -1.3778303 0.9250637 0.18601027 -0.21203177
-0.11122236 -0.54053426 0.24313477 0.055627607 1.6766481 -0.40454975 0.5376623 0.71001893
-0.6935048 1.1327311 -0.113261 0.9652008 2.5020561 -0.19282739 -0.6194489 0.6192939
-0.7169792 0.1868872 -0.782569 0.48954564 1.4068146 -0.7527017 0.47908303 1.2667574
-0.5189557 -0.3020745 -1.3738837 -0.0269124 -1.6529142 -1.0390965 0.46503204 0.0010324229
0.374289 0.905713 -0.5505072 -0.41955188 0.6614999 -1.5113218 1.0701151 0.09913179
-1.5913287 0.56175226 -0.7626627 -0.82871264 -0.7717141 1.417538 -1.1811551 -0.0011394413
0.17438258 1.0257714 0.7056748 -0.014210564 -1.6296046 -0.5334462 0.31760237 1.7097739
0.07810711 1.0571977 0.003811889 1.4711908 0.6149074 0.19997545 0.53300524 0.33233732
0.19256228 -0.37582195 -0.114798166 0.017382367 0.5526876 0.52103764 -0.99386334 -0.10578134
-1.2513477 0.38755766 1.3558848 0.29354516 -0.33396244 1.0224578 -1.1828659 -0.4653588
1.3176228 -1.0354159 0.8366293 0.74983984 -0.45445454 -0.016658891 0.4302369 -0.08460123
0.9147616 -0.0801052 0.39964354 -0.8211837 0.014672524 -0.057672642 0.9317642 -0.5907021
1.22757 -0.6376628 -1.0076164 -0.3014452 0.26425093 0.73393357 1.3965775 -0.22727416
-0.8899297 1.3483732 0.57086015 0.7817641 0.9918417 0.682155 0.5398712 1.7782284
00000000: 1640 f53d d11f 2c3d e1a0 033e 03e6 8fbf
00000010: 0d5d f13e 799a 473d 8ef6 9a3f d191 773f
00000020: 7497 1b3f 2178 813f c588 ebbe c6eb 513e
00000030: d3a4 c73d e310 c73d 7982 b9bf 214f 2f3f
00000040: 187c fa3f 5665 a63f d956 4c3f c671 c7be
00000050: 4c49 bcbe fe4d 8b3f cb10 ccbe f5d9 463f
00000060: f847 20bf 1c6a 8abe c129 6f3f 3ae9 9d3d
00000070: cfc4 b93f e108 dfbe b3d7 a8be 8d4e 013f
00000080: b792 e5bf a2de e4be d780 b7be 85cd 80bf
00000090: 9288 5fbf 09c0 0a3f ab3b f0bf 441d 2d3f
000000a0: c990 dbbd c05e cabe 281b 01bf 4a1e 383d
000000b0: 5282 70bf 4e87 afbe 9740 c0bd 47d3 91bf
000000c0: 2d76 223f 17cf 06bf b8ea f43d 132f a5bf
000000d0: 64f6 8d3d e263 8ebd aad8 f1bd b301 26bf
000000e0: f2f7 963e 01a6 eabe 98c9 533e 28ec 80bd
000000f0: 3b22 813f 4a69 a03f 939a 913e 5735 c93d
00000100: dbd4 a23e 7ce0 883f d108 c6bf e1f9 d83f
00000110: 3fa6 da3f ece0 e73e 9d93 29be 9a73 563e
00000120: eb87 873f 680e 84be 01c6 c4be 9310 5e3f
00000130: 6471 9e3e e9ae 863f ff1e 9c3f 9df9 f93d
00000140: 7653 b33f 25af 803f bfdd 3abf 1bed 4c3f
00000150: 040d 9e3e 86fe 28bf a141 39be 3cbf 16be
00000160: cc5b 6f3f 4b9b 8b3f d611 793d 2167 d1be
00000170: 9695 bebe 5103 41bf c3dd 17bf 54a5 fb3e
00000180: 40f5 02c0 06d6 6f3f 44f3 95bf fd9c a53d
00000190: a9af 37bf f201 633f 66db 383f 3de1 51bb
000001a0: 65e1 463f f496 d2be 243f 83be fe1e 6abf
000001b0: bb26 2ebf 2f95 a8be fcd5 ae3d 5b6d 14bf
000001c0: 0414 053f 02c7 b83d d9a1 09bf 969f 2e3f
000001d0: 09ce 8ebf 7b5b 07c0 3e07 8f3e bee2 8e3f
000001e0: a523 d13e ce3e 953f 9ea0 8fbf f10f 21be
000001f0: a450 7e3d 80c0 4dbf c2fe 0a3d 2e42 48bc
00000200: 6a93 a73f d7a4 b23e d379 dcbd 39e2 b1bd
00000210: af5b 14bf 959e ae3e cd70 e0bd 8dfc 263d
00000220: d09c 393f d870 bebe ca8c 923e ecff 4ebe
00000230: be5c b0bf fad0 6c3f 7a79 3e3e db1e 59be
00000240: 8cc8 e3bd 7460 0abf 52f8 783e c6d9 633d
00000250: 689c d63f 2521 cfbe 3da4 093f cdc3 353f
00000260: 8889 31bf 55fd 903f 62f5 e7bd 6617 773f
00000270: b021 2040 8b74 45be 3494 1ebf 0c8a 1e3f
00000280: f38b 37bf 5c5f 3f3e 7156 48bf baa5 fa3e
00000290: 8012 b43f 0fb1 40bf 5f4a f53e 1b25 a23f
000002a0: 48da 04bf 82a9 9abe 6cdb afbf 6577 dcbc
000002b0: b192 d3bf 1d01 85bf ae18 ee3e 5d52 873a
000002c0: cfa2 bf3e cfdc 673f 0aee 0cbf 81cf d6be
000002d0: 0f58 293f fe72 c1bf 88f9 883f 9c05 cb3d
000002e0: a9b0 cbbf ffce 0f3f dd3d 43bf 8326 54bf
000002f0: 0e8f 45bf e371 b53f 1730 97bf 4e59 95ba
00000300: 5991 323e 7a4c 833f 1ba7 343f 6dd3 68bc
00000310: e296 d0bf ee8f 08bf c79c a23e dfd9 da3f
00000320: 9ff6 9f3d 4152 873f e3d0 793b fb4f bc3f
00000330: 926a 1d3f 5dc6 4c3e 0873 083f 1e28 aa3e
00000340: 0c2f 453e bc6b c0be 4d1b ebbd 7765 8e3c
00000350: ef7c 0d3f b962 053f d46d 7ebf e3a3 d8bd
00000360: 292c a0bf f56d c63e a28d ad3f 8d4b 963e
00000370: 20fd aabe e6df 823f 2668 97bf 8243 eebe
00000380: dda7 a83f 8288 84bf 562d 563f 81f5 3f3f
00000390: 44ae e8be 3a78 88bc 0348 dc3e 6943 adbd
000003a0: d12d 6a3f 320e a4bd 149e cc3e 1839 52bf
000003b0: 0765 703c 263a 6cbd 1988 6e3f 4138 17bf
000003c0: 0421 9d3f df3d 23bf 93f9 80bf 0657 9abe
000003d0: e64b 873e 12e3 3b3f 0dc3 b23f 8fba 68be
000003e0: 6fd2 63bf 7e97 ac3f e423 123f b121 483f
000003f0: 56e9 7d3f b6a1 2e3f 0035 0a3f fd9c e33f

output_mask f4 [72]
1.0 1.0 1.0 1.0 1.0 1.0 1.0 1.0
1.0 1.0 1.0 1.0 1.0 1.0 1.0 1.0
1.0 1.0 1.0 1.0 1.0 1.0 1.0 1.0
1.0 1.0 1.0 1.0 0.0 0.0 0.0 0.0
0.0 0.0 0.0 0.0 0.0 0.0 0.0 0.0
0.0 0.0 0.0 0.0 0.0 0.0 0.0 0.0
0.0 0.0 0.0 0.0 0.0 0.0 0.0 0.0
0.0 0.0 0.0 0.0 0.0 0.0 0.0 0.0
0.0 0.0 0.0 0.0 0.0 0.0 0.0 0.0
00000000: 0000 803f 0000 803f 0000 803f 0000 803f
00000010: 0000 803f 0000 803f 0000 803f 0000 803f
00000020: 0000 803f 0000 803f 0000 803f 0000 803f
00000030: 0000 803f 0000 803f 0000 803f 0000 803f
00000040: 0000 803f 0000 803f 0000 803f 0000 803f
00000050: 0000 803f 0000 803f 0000 803f 0000 803f
00000060: 0000 803f 0000 803f 0000 803f 0000 803f
00000070: 0000 0000 0000 0000 0000 0000 0000 0000
00000080: 0000 0000 0000 0000 0000 0000 0000 0000
00000090: 0000 0000 0000 0000 0000 0000 0000 0000
000000a0: 0000 0000 0000 0000 0000 0000 0000 0000
000000b0: 0000 0000 0000 0000 0000 0000 0000 0000
000000c0: 0000 0000 0000 0000 0000 0000 0000 0000
000000d0: 0000 0000 0000 0000 0000 0000 0000 0000
000000e0: 0000 0000 0000 0000 0000 0000 0000 0000
000000f0: 0000 0000 0000 0000 0000 0000 0000 0000
00000100: 0000 0000 0000 0000 0000 0000 0000 0000
00000110: 0000 0000 0000 0000 0000 0000 0000 0000

weight f4 [336]
1.7450435 1.9470965 0.22118059 -1.7515185 0.91001594 0.20935453 0.3307609 0.5014441
-0.5832704 -0.6955353 1.3447524 0.5358715 -0.53268987 0.4343577 0.83095884 0.027116604
0.6098981 -1.494513 0.41562212 -0.805984 -0.48571265 0.1988224 0.29128605 0.036694895
-0.71753514 -1.5659858 1.179195 -0.07399052 -1.6973978 -0.24980505 0.80952233 -1.2797854
1.0531379 -0.14469513 1.0227716 1.1248 -0.6767559 0.5802734 0.3082023 -0.71255285
1.5280004 2.1902254 0.15560594 0.98403555 -0.9332714 -0.5768878 -0.8315822 -0.43965086
-0.30037576 0.8203675 -0.027699636 0.08634311 0.30349192 -0.60256743 0.047597878 0.6804337
0.10523913 0.92085016 0.33887526 0.76774913 0.30822986 0.5795692 -0.14052422 -0.61245215
0.8844733 -1.5576154 0.9992461 0.5707301 1.241352 0.1905841 -0.6676265 -0.2874516
-0.17684916 -0.81265914 0.95194876 0.29936525 0.6970497 -1.3934855 0.35958612 0.4261757
-0.002960089 -1.0022256 -0.023048613 0.8956486 -0.08715169 0.7789602 -1.2441779 -1.0841639
0.24837397 0.7748969 -0.71894294 1.8352199 0.11187329 0.036317002 -0.9281847 0.24094674
-0.2357014 0.27698955 -0.7164084 -0.07637443 -1.4642626 -0.24775648 0.4307274 -0.36728907
-0.39001402 -1.336577 1.0672774 0.9991826 0.33168578 -1.0283959 -0.33669207 1.7639682
-1.6945835 0.5523787 -0.6869392 1.0838062 0.31578332 -0.75460416 -0.054351 -0.29769915
-1.6685843 1.0112706 0.3883443 -0.6469929 -0.9150059 1.139961 -0.88264525 1.3241674
0.47153467 -0.6044311 -0.6556693 0.5339485 -0.08600457 -0.0018236757 -0.076142445 0.1125909
0.8277606 -0.05047671 1.1999463 -0.01813816 0.6817942 -1.2943852 -0.05236969 0.27436107
0.27701822 -0.25308278 0.85358274 -0.36645705 -0.04476681 1.4141825 1.4093233 -2.749432
0.06204945 0.78345233 0.22786276 0.24364719 -0.05508233 0.8562158 -1.1536994 -0.017257178
0.65765107 -0.4061897 0.15579262 -0.073843166 -0.5162878 -1.0931574 0.5877694 0.8083017
1.9077373 -0.098753065 1.1689869 0.9090469 -0.10612597 1.187661 0.3596764 1.1246432
0.068865 -1.2315987 0.90997845 0.57714814 -0.1111606 0.99713624 0.24045348 -0.21435353
2.0658622 -0.7455378 0.5581577 1.4317987 -0.6700206 -0.9534342 -0.03350525 0.24758711
-0.28081188 -0.14420737 2.3218317 -0.5726087 -1.0572789 -1.3459256 2.0321236 0.7186651
-1.7830046 2.3033924 1.715142 0.38005942 0.008053825 -0.36565927 -0.28308183 -1.0543919
0.6897882 -0.33545393 -0.2893054 -0.24325663 -0.72792065 -0.07265977 -0.65992206 1.4797547
0.9582961 0.31986836 0.27116424 0.7886492 -0.5287967 0.3948444 -0.9429645 -0.8442899
-0.8217765 0.35399723 0.47209078 -0.7551175 -0.83329314 0.99075603 -1.3481475 -0.98964846
-0.79551834 -0.5237105 1.3346632 0.23672366 -1.166236 -1.8915083 -0.48654172 -1.3115113
1.4873354 -0.6461352 0.5299389 -0.44641072 -1.13904 -0.48110047 0.18081976 0.6064034
-0.97481585 0.19098754 1.6059715 -0.5447765 0.033363026 0.28686062 0.14046648 -0.32679582
00000000: 965d df3f 753a f93f 2a7d 623e c231 e0bf
00000010: cef6 683f 0961 563e 7e59 a93e a45e 003f
00000020: 3551 15bf 9a0e 32bf d920 ac3f e02e 093f
00000030: 5d5e 08bf 2264 de3e b8b9 543f a423 de3c
00000040: 4822 1c3f 344c bfbf 6ccc d43e f854 4ebf
00000050: 54af f8be 1998 4b3e 7223 953e 634d 163d
00000060: 62b0 37bf 3972 c8bf ddef 963f 5788 97bd
00000070: 5544 d9bf e5cc 7fbe db3c 4f3f 02d0 a3bf
00000080: 39cd 863f f62a 14be 2eea 823f 72f9 8f3f
00000090: e03f 2dbf cc8c 143f b1cc 9d3e dd69 36bf
000000a0: 8495 c33f a72c 0c40 2a57 1f3e c1e9 7b3f
000000b0: e0ea 6ebf ebae 13bf 92e2 54bf eb19 e1be
000000c0: daca 99be 9b03 523f 59ea e2bc a8d4 b03d
000000d0: 4b63 9b3e dc41 1abf fef5 423d e730 2e3f
000000e0: 9d87 d73d d6bc 6b3f 0f81 ad3e 358b 443f
000000f0: 4ed0 9d3e a65e 143f 95e5 0fbe aac9 1cbf
00000100: d86c 623f f15f c7bf 98ce 7f3f 5e1b 123f
00000110: 9fe4 9e3f 7a28 433e 92e9 2abf db2c 93be
00000120: f217 35be 6e0a 50bf eab2 733f 6746 993e
00000130: d971 323f bc5d b2bf ac1b b83e b433 da3e
00000140: 0dfe 41bb ee48 80bf 72d0 bcbc 3a49 653f
00000150: 967c b2bd f069 473f 3941 9fbf e2c5 8abf
00000160: bf55 7e3e a55f 463f a50c 38bf 7ce8 ea3f
00000170: d31d e53d 23c1 143d 839d 6dbf beba 763e
00000180: b55b 71be 93d1 8d3e 8a66 37bf 326a 9cbd
00000190: f56c bbbf e0b3 7dbe 4d88 dc3e 500d bcbe
000001a0: ebaf c7be f514 abbf 8c9c 883f 6eca 7f3f
000001b0: b8d2 a93e 7aa2 83bf e762 acbe b6c9 e13f
000001c0: 1de8 d8bf b168 0d3f 3fdb 2fbf 29ba 8a3f
000001d0: 5aae a13e bd2d 41bf 279f 5ebd 066c 98be
000001e0: 2c94 d5bf 5171 813f 10d5 c63e 54a1 25bf
000001f0: d43d 6abf 3eea 913f 0af5 61bf 517e a93f
00000200: fe6c f13e ffbb 1abf f1d9 27bf d9b0 083f
00000210: 2a23 b0bd 6708 efba 92f0 9bbd 0f96 e63d
00000220: 1ee8 533f abc0 4ebd d797 993f 7b96 94bc
00000230: 118a 2e3f 6aae a5bf 9a81 56bd 0e79 8c3e
00000240: 55d5 8d3e 1194 81be 6684 5a3f 42a0 bbbe
00000250: 675d 37bd ef03 b53f b564 b43f b2f6 2fc0
00000260: 9027 7e3d 5590 483f db54 693e a67e 793e
00000270: 029e 61bd f530 5b3f 6cac 93bf ed5e 8dbc
00000280: d25b 283f 19f8 cfbe 1a88 1f3e 163b 97bd
00000290: 702b 04bf 95ec 8bbf 0e78 163f dcec 4e3f
000002a0: bc30 f43f 0c3f cabd 5da1 953f 4cb7 683f
000002b0: 9358 d9bd 4705 983f 8127 b83e 4ff4 8f3f
000002c0: 1809 8d3d 07a5 9dbf 59f4 683f fbbf 133f
000002d0: 2ba8 e3bd 5244 7f3f 7039 763e 7e7f 5bbe
000002e0: 1637 0440 91db 3ebf 6ce3 0e3f 2e45 b73f
000002f0: 7886 2bbf 4414 74bf cd3c 09bd 7a87 7d3e
00000300: 93c6 8fbe 19ab 13be e498 1440 7c96 12bf
00000310: ea54 87bf 4a47 acbf 500e 0240 70fa 373f
00000320: 7f39 e4bf c86a 1340 c689 db3f 2697 c23e
00000330: 31f4 033c b137 bbbe 1af0 90be 50f6 86bf
00000340: f695 303f 9ec0 abbe d61f 94be 4418 79be
00000350: 0259 3abf a5ce 94bd a7f0 28bf 9a68 bd3f
00000360: e552 753f c9c5 a33e 0ad6 8a3e eae4 493f
00000370: 385f 07bf 0c29 ca3e 1f66 71bf 6223 58bf
00000380: f25f 52bf 203f b53e e2b5 f13e 614f 41bf
00000390: b352 55bf 30a2 7d3f 1990 acbf 9a59 7dbf
000003a0: 17a7 4bbf e411 06bf 3ed6 aa3f b067 723e
000003b0: 3947 95bf f21c f2bf ff1b f9be 9adf a7bf
000003c0: 0261 be3f 1e69 25bf 13aa 073f f28f e4be
000003d0: 10cc 91bf cd52 f6be d128 393e 413d 1b3f
000003e0: 888d 79bf 3d92 433e 7990 cd3f 7976 0bbf
000003f0: aba7 083d 65df 923e 72d6 0f3e c851 a7be

output_mask f4 [60]
1.0 1.0 1.0 1.0 1.0 1.0 1.0 1.0
1.0 1.0 1.0 1.0 1.0 1.0 1.0 1.0
1.0 1.0 1.0 1.0 1.0 1.0 1.0 1.0
1.0 1.0 1.0 1.0 1.0 1.0 1.0 1.0
1.0 1.0 1.0 1.0 1.0 1.0 1.0 1.0
1.0 1.0 1.0 1.0 1.0 1.0 1.0 1.0
1.0 1.0 1.0 1.0 1.0 1.0 1.0 1.0
1.0 1.0 1.0 1.0
00000000: 0000 803f 0000 803f 0000 803f 0000 803f
00000010: 0000 803f 0000 803f 0000 803f 0000 803f
00000020: 0000 803f 0000 803f 0000 803f 0000 803f
00000030: 0000 803f 0000 803f 0000 803f 0000 803f
00000040: 0000 803f 0000 803f 0000 803f 0000 803f
00000050: 0000 803f 0000 803f 0000 803f 0000 803f
00000060: 0000 803f 0000 803f 0000 803f 0000 803f
00000070: 0000 803f 0000 803f 0000 803f 0000 803f
00000080: 0000 803f 0000 803f 0000 803f 0000 803f
00000090: 0000 803f 0000 803f 0000 803f 0000 803f
000000a0: 0000 803f 0000 803f 0000 803f 0000 803f
000000b0: 0000 803f 0000 803f 0000 803f 0000 803f
000000c0: 0000 803f 0000 803f 0000 803f 0000 803f
000000d0: 0000 803f 0000 803f 0000 803f 0000 803f
000000e0: 0000 803f 0000 803f 0000 803f 0000 803f
