Class-2/graph-pes-results/train-PaiNN/checkpoints/best.ckpt (torch, 85280 bytes, 48 tensors)

model.models.offset._offsets f4 [119, 1]
00000000: 0000 0000 0000 0000 0000 0000 0000 0000
00000010: 0000 0000 0000 0000 6250 14c3 0000 0000
00000020: 0000 0000 0000 0000 0000 0000 0000 0000
00000030: 0000 0000 0000 0000 0000 0000 0000 0000
00000040: 0000 0000 0000 0000 0000 0000 0000 0000
00000050: 0000 0000 0000 0000 0000 0000 0000 0000
00000060: 0000 0000 0000 0000 0000 0000 0000 0000
00000070: 0000 0000 0000 0000 0000 0000 0000 0000
00000080: 0000 0000 0000 0000 0000 0000 0000 0000
00000090: 0000 0000 0000 0000 0000 0000 0000 0000
000000a0: 0000 0000 0000 0000 0000 0000 0000 0000
000000b0: 0000 0000 0000 0000 0000 0000 0000 0000
000000c0: 0000 0000 0000 0000 0000 0000 0000 0000
000000d0: 0000 0000 0000 0000 0000 0000 0000 0000
000000e0: 0000 0000 0000 0000 0000 0000 0000 0000
000000f0: 0000 0000 0000 0000 0000 0000 0000 0000
00000100: 0000 0000 0000 0000 0000 0000 0000 0000
00000110: 0000 0000 0000 0000 0000 0000 0000 0000
00000120: 0000 0000 0000 0000 0000 0000 0000 0000
00000130: 0000 0000 0000 0000 0000 0000 0000 0000
00000140: 0000 0000 0000 0000 0000 0000 0000 0000
00000150: 0000 0000 0000 0000 0000 0000 0000 0000
00000160: 0000 0000 0000 0000 0000 0000 0000 0000
00000170: 0000 0000 0000 0000 0000 0000 0000 0000
00000180: 0000 0000 0000 0000 0000 0000 0000 0000
00000190: 0000 0000 0000 0000 0000 0000 0000 0000
000001a0: 0000 0000 0000 0000 0000 0000 0000 0000
000001b0: 0000 0000 0000 0000 0000 0000 0000 0000
000001c0: 0000 0000 0000 0000 0000 0000 0000 0000
000001d0: 0000 0000 0000 0000 0000 0000
0.0 0.0 0.0 0.0 0.0 0.0 -148.314 0.0
0.0 0.0 0.0 0.0 0.0 0.0 0.0 0.0
0.0 0.0 0.0 0.0 0.0 0.0 0.0 0.0
0.0 0.0 0.0 0.0 0.0 0.0 0.0 0.0
0.0 0.0 0.0 0.0 0.0 0.0 0.0 0.0
0.0 0.0 0.0 0.0 0.0 0.0 0.0 0.0
0.0 0.0 0.0 0.0 0.0 0.0 0.0 0.0
0.0 0.0 0.0 0.0 0.0 0.0 0.0 0.0
0.0 0.0 0.0 0.0 0.0 0.0 0.0 0.0
0.0 0.0 0.0 0.0 0.0 0.0 0.0 0.0
0.0 0.0 0.0 0.0 0.0 0.0 0.0 0.0
0.0 0.0 0.0 0.0 0.0 0.0 0.0 0.0
0.0 0.0 0.0 0.0 0.0 0.0 0.0 0.0
0.0 0.0 0.0 0.0 0.0 0.0 0.0 0.0
0.0 0.0 0.0 0.0 0.0 0.0 0.0

model.models.many-body.z_embedding._embeddings f4 [119, 16]
00000000: 6d97 2ebf 64f8 b13f db89 12bf edf8 8abf
00000010: 8905 75bf a6f1 7fbf da2f 84bf b2b9 06be
00000020: 02c7 21bf f340 7c3e f691 2d3e af1e d33e
00000030: bbd3 ba3f 9fe7 ebbf ac27 8cbe f133 2dbe
00000040: 5484 ad3f 5536 b53e 85e1 8dbf 8b60 79bf
00000050: 9c90 333f 5415 36bf d95c 51bf 0381 12bf
00000060: 1c71 84bf 1bfe 4c3f 6fce e5be 32fc 503f
00000070: 9bdc c6bf e3db 00bf 6d9f 833f 9b22 cc3f
00000080: 685e 62bf 1b96 12c0 9c9b c1be 0a89 32bf
00000090: 4941 a83f dd3f 853f 7bfe e13f 0492 4bbf
000000a0: d8e7 c83e a7da f1bf b5d5 c73e d121 c3be
000000b0: 1645 69bf ac75 5c3e e984 acbf 563d a13e
000000c0: 6adc d23e 9d44 f4be 5dae ac3e 1c34 a33e
000000d0: 65ef ddbf 5ad8 b7bf 810e 11bf 2d4f eebe
000000e0: fccf 90bf af8e 9ebe 365e 8fbf 47b2 903f
000000f0: e68c 633f 749d 693f 1f1c a6bf e6af 2abe
00000100: 520b debe 6ebe 93bf fc0e 4bbe ee21 8bbf
00000110: f1bb 783f 1252 37bf 9012 d93b 8486 f13e
00000120: a09f 5ebc 8bd4 fdbe f979 8ebe f5d6 d5be
00000130: 23be 9f3e 7d0c 9e3d 02b7 203f 1ae5 2fbe
00000140: 4ad0 07bf 9ae8 a93f 180e 20bf dab2 7bbe
00000150: 933e 8bbf f1a1 48bf dc91 8cbf 6da3 4b3f
00000160: 6a74 293f 8e3b 80be dbec d33e 6dda 97be
00000170: 7342 3bbf 2c9f 21bf f408 61bf d97b 7d3f
00000180: 92b0 a9bf 7e8e 373f fbe7 48bf 5859 59be
00000190: 3750 8d3e d2be 54bd d044 ac3f 07b6 f63f
000001a0: 8e52 b4be 9dc0 063f d0d9 08c0 2e14 1dbe
000001b0: 5263 a93d bccf b3bf e021 1f3f 1742 86bf
000001c0: 5c33 e13f f698 99be b59c ab3e 2285 91bf
000001d0: 5065 bbbf 5438 0a3c 42c0 743f 88c5 07c0
000001e0: 70e4 a1bf 900c 273f 3414 26bd a348 863d
000001f0: 501b 75bf 0dff 71bd 0078 803f 00d7 4fbf
00000200: 618d 8d3f 95f4 8c3f 4ca3 583f 2601 9f3f
00000210: af3c 84bf b2e7 533f 4fd7 e6bf 8f85 7cbf
00000220: d914 a23e 2d19 3dbe d829 683e a80b 6dbf
00000230: 2e46 ad3f fe86 13bf b750 53bf 2780 0e3f
00000240: ce91 efbe 5e8c 26bf 1b75 693e ffbb cebf
00000250: 09b6 4f3c cd95 6cbe 94ed a13f b3f7 ccbf
00000260: 9382 443f c559 923f fbae a33f c2ad b8bf
00000270: ccb2 43bf bdf1 25bd 76d7 5fbf 0848 80bf
00000280: 671a b6bf d493 fb3e 7834 1840 c5bc 423f
00000290: 0fa7 97be 181d a1bf fd3e d43f 9d5f f5bf
000002a0: 821b a1bf 683d d13f 38cf 1ebe 2e42 38bf
000002b0: cb94 2a3f ece8 25c0 e955 33bf c865 b03e
000002c0: fa6e 433f 07ec 7a3f 67c5 9e3e 8714 853f
000002d0: 9a02 1dbf 22fd 0f3f dc20 c63b 9b7e c9bf
000002e0: 67f6 2940 14a4 aabe c98c afbf c204 c8bf
000002f0: 4996 f23e fb9d 8c3e c1a1 14c0 6f8b b7be
00000300: c5c8 74be 2eb6 e5bf bc3d 62be a008 923f
00000310: c73f 9a3d cc43 b1bf f082 9c3e 1fce 69bf
00000320: 6077 40bf cc29 9e3f 23c6 8b3f 812f 33bf
00000330: 30b7 f93f c535 11bf efdf 053e bab1 a43f
00000340: 8f87 c9be c2c2 5fbf dd89 ed3d 0746 a2bf
00000350: a9ac a6bf b960 833f e387 8dbf 103a edbe
00000360: b58d 38bf b392 d73f 214e d4be 9420 6cbf
00000370: 34d2 06bf 1ede 753d 5b78 bf3f 5a48 bb3e
00000380: 0fb2 143f 6a96 7e3c aea8 cbbd fed7 563f
00000390: dcc3 0dbf 215b 8b3f 2e7e e43f e6e7 553f
000003a0: 8e69 f6bd da75 023e cfe4 5c3e a656 4d3f
000003b0: ffe4 babe 970f 1d3f af9e 35bf b388 1c3d
000003c0: cad8 1c3f d268 5a3f 38e2 9ebf a691 9fbe
000003d0: 105c fabf 050d 7abf 69c0 77bf dde0 28bf
000003e0: 850c a63d 07f8 e4bf 6f2b 8dbe 663a 003f
000003f0: 365a 45bf 160c 5e3f 050e 2cbf 5c39 83bf
-0.6819981 1.3903928 -0.572416 -1.0857216 -0.9571157 -0.999781 -1.0327103 -0.13156775
-0.63194287 0.24634151 0.16950211 0.41234347 1.4595865 -1.843006 -0.27374017 -0.16914345
1.3556008 0.35393015 -1.1084448 -0.9741294 0.7014253 -0.71126294 -0.817823 -0.57228106
-1.0347018 0.80075234 -0.4488406 0.8163482 -1.5536073 -0.5033552 1.0283028 1.5948061
-0.884253 -2.2904117 -0.37814033 -0.69740355 1.3144923 1.0410115 1.7655786 -0.7951968
0.39239383 -1.8894852 0.39030233 -0.38111737 -0.9112104 0.21529263 -1.3478061 0.31492108
0.41183788 -0.47708598 0.3372678 0.31875694 -1.7338682 -1.43629 -0.56662756 -0.4654478
-1.1313472 -0.30968234 -1.1200626 1.1304406 0.8888687 0.9125588 -1.2977332 -0.16668662
-0.43368012 -1.154249 -0.19829935 -1.086973 0.97161776 -0.71609604 0.0066245273 0.4717294
-0.013587862 -0.4957622 -0.27827433 -0.41765562 0.3119975 0.07717226 0.6277925 -0.17177239
-0.530522 1.3274109 -0.62521505 -0.24579945 -1.0878471 -0.783721 -1.0982013 0.7954624
0.6619326 -0.25045437 0.41391644 -0.29658833 -0.7314827 -0.631335 -0.87904286 0.990171
-1.325701 0.717018 -0.78478974 -0.21225488 0.27600262 -0.051939793 1.34585 1.92743
-0.35219234 0.52637655 -2.1382942 -0.15339729 0.08270897 -1.404777 0.62161064 -1.0488919
1.7593799 -0.29999512 0.33517995 -1.1368754 -1.4640293 0.008436281 0.9560586 -2.1214314
-1.2647839 0.65253544 -0.04054661 0.06556823 -0.957448 -0.059081126 1.0036621 -0.8118744
1.105877 1.101214 0.8462417 1.2422225 -1.0331019 0.82775414 -1.8034457 -0.98641294
0.3165653 -0.18466635 0.22672212 -0.9259591 1.3537042 -0.57627857 -0.82545036 0.55664295
-0.46790928 -0.65057933 0.22798578 -1.6151122 0.012677678 -0.2310402 1.2650628 -1.6013092
0.7676174 1.1433645 1.2787775 -1.4428027 -0.764447 -0.040513743 -0.8743814 -1.0021982
-1.4226807 0.4913622 2.3782024 0.7606929 -0.29619643 -1.2587004 1.6581722 -1.9169804
-1.258652 1.6346865 -0.15508735 -0.7197598 0.6663329 -2.5923414 -0.70052963 0.34452653
0.7634121 0.980164 0.3100998 1.039689 -0.61332095 0.56245625 0.0060463976 -1.5741762
2.6556642 -0.33328307 -1.3714839 -1.5626452 0.47380283 0.2746428 -2.3223727 -0.35848567
-0.23904712 -1.7946222 -0.22093862 1.1408882 0.07531696 -1.3848815 0.30568647 -0.9133014
-0.7518215 1.2356505 1.0919842 -0.6999436 1.9509029 -0.5672267 0.13073705 1.2866738
-0.39361235 -0.8740655 0.11598561 -1.2677621 -1.3021442 1.0263892 -1.1057094 -0.4633336
-0.7209123 1.6841644 -0.41465858 -0.9223721 -0.52664495 0.06002628 1.4958605 0.36578637
0.58084196 0.015538791 -0.099442825 0.8392333 -0.5537698 1.0887185 1.7851007 0.83556974
-0.12031852 0.1274027 0.21571659 0.8021034 -0.36502835 0.61351913 -0.70945257 0.038216304
0.61268294 0.85316193 -1.2412786 -0.31165808 -1.9559345 -0.97676116 -0.9677797 -0.65968114
0.08107857 -1.7888192 -0.275722 0.5008911 -0.77090776 0.8673719 -0.6720889 -1.025188

model.models.many-body.interactions.0.filter_generator.components.0.0.frequencies f4 [15]
00000000: 937d 753f 7372 ba3f adbd 0f40 6f71 4840
00000010: c68e 7e40 8f32 9840 82a2 a640 9a29 c240
00000020: 7194 e340 a861 f540 a274 0b41 2139 1841
00000030: 8f01 2441 00fb 2a41 7319 3d41
0.95894736 1.4566177 2.245952 3.1319234 3.9774642 4.7561717 5.2073374 6.0675783
7.1118703 7.668171 8.715975 9.5139475 10.2503805 10.686279 11.818713

model.models.many-body.interactions.0.filter_generator.components.0.1.weight f4 [48, 15]
00000000: 480f 34be 2555 683e 9740 703d 26e2 c13d
00000010: 226a afbe befa d13d 5f14 843e aaee 0dbe
00000020: fe7c debc 0501 8cbd 2968 ccbc 87d9 e6bd
00000030: 65a1 e73d 7690 863d 0307 813d 28b5 e0bc
00000040: 7431 533e 9e75 0abd 584c c0be 9613 66be
00000050: 96de 9f3e b8df 1d3d 81c0 433d 2574 bdbd
00000060: de47 17be 5251 02be a3fd 413d 9d8e 183e
00000070: 7e27 473d 189c c4bd e428 a73b 92e2 8c3e
00000080: 001d 613e 7436 543e 2f1b 673d a233 9a3e
00000090: a11d 5b3e c220 97bd 2a0f 5c3e 1908 5bbe
000000a0: a3bc 5b3d 0df0 1bbe f29f f23d b4e0 133e
000000b0: 00bb cc3d 9a08 9fbd 7e5f 3cbe fd91 e3bd
000000c0: 6999 3a3e ad0d e53e b6cd 01be 6cf0 f4bd
000000d0: 96c1 c7bb d184 e4bd 8311 3c3e 8ca7 9ebc
000000e0: f41e 483d 8e88 c5bd 6107 27be 4752 973d
000000f0: cab4 103e cf2e dc3e 7ced f9bc 7f6a 9e3d
00000100: 82cd d0bd 6379 8abe a93d f53d 577f 473e
00000110: ba4c 6dbe 8aae fa3d f3bd 173d 27f0 50bd
00000120: 2aa4 cb3d 2911 8ebd e422 eebd eae1 d33d
00000130: 1878 8fbe 7ddd 67be c32c 3c3e 6009 02bc
00000140: 3958 1ebc 2b5f 5d3e e3ee 63bd 5c97 24be
00000150: 57cf 053e 5bec 8b3e 22e0 443a 238b 293e
00000160: f3f6 77be 9cbb b53d 5a18 733e d7df df3d
00000170: 24fc 04be a9aa 80be b9a0 0fbe 10b1 22bd
00000180: 1765 303c 64b2 1d3e 0401 a0bd 1b4f c6be
00000190: fef5 9ebe 9914 4abe 72bf 1d3e 88fe 703c
000001a0: 0dc8 58bd 0915 0bbe 151a 893d a178 2fbc
000001b0: 50fc 15bd 45af 8b3e 38e2 c7bd fa00 58be
000001c0: 669c 943d 01c3 b13d 7bec 873e 1f27 123e
000001d0: 05ee 03be 8b2d c33d c18b bcbc a1ee 673d
000001e0: 17eb a7bd 5a2a 023f fd0e 90bd 0296 09bf
000001f0: fe80 e4be f224 d93e 17f1 32bd 82f1 533d
00000200: 979a 8ebd 3bb6 873c 39ab f7bc fc32 19be
00000210: c01b 6dbd 1229 bfbd 04ab 0e3b 17f7 1a3e
00000220: ec90 4c3e 23c6 94bd e491 113e bcd6 a3ba
00000230: bd38 5e3e 0421 2a3e 4ee9 4b3c 998a f53d
00000240: 0589 133c 9fd3 f9bc 0d02 50bd 7b17 27be
00000250: 0c25 ff3d be10 193e e006 28bd dfd0 073e
00000260: d515 283e 5efb a6bd 828f b6bd ea02 193e
00000270: bf87 ec3d 4805 343e f62f 7c3d 69a0 ffbc
00000280: 15a7 7a3d 04d5 823c 2794 b33d 19a3 32be
00000290: ced3 12be 5e21 88bd c69c a4bd 7857 41be
000002a0: a2e6 4cbe ea36 fbbd 5aa9 863e 7486 753d
000002b0: 69ee 5ebe 7cae 85be 9967 c4bb 45a8 c9bd
000002c0: 65a4 7cbe f28f eb3d b9ac bcbd c84e bbbc
000002d0: 9618 7e3e 59a6 9d3f 4c92 70bf deda 7f3e
000002e0: 682e 9e3e 2a4f ecbd 8581 0b3e 7440 1dbd
000002f0: a9b4 873d fc05 093e cec1 b7bd cfc2 a53c
00000300: c493 dbbd d0d9 8f3d 5573 04bd bcd1 783d
00000310: dddf fe3d e2fa ae3d dc4c 77be 1ef0 8f3e
00000320: 2bf2 973d 37fd 13be 2c02 893d 8a34 f03d
00000330: 4eca 18be b1cf 5abe 98f5 e63c bea9 76bc
00000340: 73df a5bb 95b4 89bd 473b 3a3d 22b0 6cbe
00000350: 7346 8a37 909b f3be 47bc b03d a731 febd
00000360: bf08 92be 4854 9bbd b09f cfbd b552 0b3e
00000370: e98d ffbd fcc8 35bd 61f0 07be 7cae a8bc
00000380: 8d41 3dbe 0f5f 39be b0e3 0ebe 6fad 8d3d
00000390: b180 d7bd c1dc 5ebe f0a2 1f3e 0b63 fb3c
000003a0: 0a15 213e a4f8 6b3d dff4 03be 4725 3ebe
000003b0: 8f7f 80bd 097d 32be 077a 40be cc16 69be
000003c0: 813d 8dbe e175 33bf 9617 e93e ac23 293f
000003d0: 9dd6 223e 0e12 173e d7b6 4fbe 9e23 94be
000003e0: 494b 4f3e 21b0 35be beeb 54bd 541f 813d
000003f0: f101 573d 2981 b13d a5bb cdbd 9a59 c53e
-0.17583954 0.2268873 0.058655348 0.094669625 -0.3426066 0.102529034 0.25796792 -0.13860574
-0.02715921 -0.06836132 -0.024952011 -0.11271959 0.113100804 0.065705225 0.063001655 -0.027430132
0.20624334 -0.033803575 -0.37558246 -0.22468409 0.31224507 0.038543433 0.047791008 -0.092506684
-0.14773509 -0.12726334 0.047361027 0.14898153 0.048621647 -0.09600085 0.00510131 0.2751661
0.21983719 0.20723897 0.05642241 0.30117518 0.21398021 -0.07379295 0.2149016 -0.21389808
0.053646695 -0.15228291 0.118469134 0.14441186 0.09996605 -0.077653125 -0.18395802 -0.111118294
0.18222584 0.44736996 -0.12676129 -0.11959919 -0.0060960753 -0.11158145 0.18366055 -0.019367002
0.048857644 -0.09645186 -0.16311409 0.0738874 0.14131466 0.43004462 -0.03050875 0.07735156
-0.101954475 -0.27045736 0.11974651 0.1948217 -0.231738 0.12240322 0.037046384 -0.051010277
0.09943421 -0.06936867 -0.116277486 0.10345824 -0.28021312 -0.22643085 0.1837645 -0.0079368055
-0.009664589 0.21618335 -0.055647742 -0.16073364 0.13067375 0.27328762 0.0007510205 0.16556983
-0.24215297 0.08873674 0.23739758 0.10931366 -0.12986809 -0.25130203 -0.14026155 -0.03971964
0.010766289 0.15400082 -0.07812694 -0.38732228 -0.31047052 -0.1973442 0.15405062 0.0147091225
-0.05292516 -0.13582243 0.06694428 -0.0107099125 -0.036617577 0.27282158 -0.09759945 -0.21094123
0.07256393 0.08679772 0.26547608 0.14272736 -0.12883766 0.09530171 -0.023015859 0.05662406
-0.08199137 0.50845873 -0.07034109 -0.5374452 -0.44629663 0.42411 -0.043686952 0.05174399
-0.069630794 0.016566386 -0.030233013 -0.14960855 -0.057887793 -0.093340054 0.0021769414 0.1513332
0.19977158 -0.07264354 0.14215809 -0.0012499909 0.21701331 0.16614157 0.012445761 0.11989326
0.009004836 -0.030496417 -0.050783206 -0.16317551 0.12458238 0.14947793 -0.04102218 0.13263272
0.16414578 -0.08153413 -0.08914091 0.14942518 0.11549329 0.1758014 0.061569177 -0.03120442
0.061194498 0.015970714 0.08768492 -0.1744503 -0.1433861 -0.06646989 -0.08037715 -0.18881023
-0.20009854 -0.122663334 0.2630108 0.059942678 -0.21770634 -0.26109684 -0.005993795 -0.09846548
-0.24672087 0.11502065 -0.09212632 -0.022864714 0.24814066 1.231639 -0.9397323 0.24985835
0.3089478 -0.11538537 0.13623627 -0.038391545 0.06626255 0.13381189 -0.08972512 0.020234494
-0.107215434 0.07023966 -0.03233655 0.060746893 0.12445042 0.08543946 -0.24150413 0.28112882
0.07419237 -0.14452063 0.066898674 0.11728771 -0.14920923 -0.2136829 0.02819328 -0.015055118
-0.0050620376 -0.067238964 0.045466688 -0.23114064 1.6483687e-05 -0.47579622 0.08629661 -0.12411814
-0.28522298 -0.07584435 -0.1013788 0.13605769 -0.12478239 -0.044381127 -0.13275291 -0.020591013
-0.18482037 -0.18102668 -0.13954043 0.069178455 -0.10522593 -0.21763898 0.155895 0.030686876
0.15730682 0.05761017 -0.1288638 -0.18568908 -0.0627433 -0.1743051 -0.1879655 -0.22762603
-0.27585986 -0.70101744 0.45525807 0.66070056 0.15902181 0.14752981 -0.20284592 -0.28933424
0.20243563 -0.17742969 -0.051982634 0.063048035 0.052492086 0.086672135 -0.10045556 0.38544923

model.models.many-body.interactions.0.filter_generator.components.0.1.bias f4 [48]
00000000: 55ea adbd 8474 483e 6180 9cbc 36df 253e
00000010: 945b ee3d 8e9e cabd 3b9c 4cbd 18da 343e
00000020: 19ac bbbd 93c0 6c3e 367d 84bd 1215 95bd
00000030: f03e 20be c62a 9c3c 7dfb 1a3e d166 ecba
00000040: d69d 8cbd 9332 673e 9456 58be af2e d4bd
00000050: 3331 16be c97c 84bc 8f7f aabd 2821 563d
00000060: ffe2 c63e 43d3 0ebe 935d 863e 7f39 bf3d
00000070: 1164 6ebe 2e78 503d 3196 c7bd 16ed 9c3d
00000080: 4a44 ee3c 738d 3e3d 8316 0b3d 53aa 513e
00000090: bdd4 65be 998d 49be c84d 413d 6953 3dbe
000000a0: ff8b 02be 9e3b 9cbc 53df a03d f2b5 7e3d
000000b0: fa80 493d fffa 483d 4e62 35be 00e3 c7bd
-0.08491961 0.19575697 -0.019104185 0.1619843 0.11638561 -0.09893523 -0.04995368 0.17661321
-0.091636844 0.23120336 -0.064691946 -0.072794095 -0.15649009 0.019063365 0.15134998 -0.0018036013
-0.06866042 0.22577886 -0.21126777 -0.10360467 -0.14667206 -0.016172783 -0.08325111 0.052277714
0.3884506 -0.13947777 0.26243266 0.093371384 -0.2328036 0.050895862 -0.097454436 0.07662408
0.029085297 0.046521615 0.033957016 0.2047513 -0.22444434 -0.19682921 0.04719332 -0.1848885
-0.12748717 -0.019071396 0.07855096 0.062185235 0.049195267 0.049067494 -0.17713282 -0.09760094

model.models.many-body.interactions.0.filter_generator.components.1.coefficients f4 [3]
00000000: 0000 e0c1 0000 4042 0000 a8c1
-28.0 48.0 -21.0

model.models.many-body.interactions.0.Phi.linear_layers.0.weight f4 [16, 16]
00000000: 5ecb c3bd c5e7 4abd 3204 ce3b 4747 883e
00000010: a23c ccb8 4029 f03d b0fc 98be bbb3 f53d
00000020: 75fc 3bbd 9034 14be 3d48 5a3e 4bfb 463e
00000030: 8499 ff3d eeb4 0d3d 0aca ffbd 9a88 a03d
00000040: 392b 83bb 63a1 103e 81e7 1c3d d97a 31be
00000050: a7b2 d9bd 6d3b ed3c 5bbb 253d 3ecb efbd
00000060: 59e0 453e 987a 4abd 8b37 fe3b afaf b6bd
00000070: e6d9 ed3d d0a0 023e 5912 28be 8112 08be
00000080: c503 d5bd 80df a3bc 64b4 a33c 0de0 373d
00000090: 4d93 c0bd 8088 da3d 3319 4e3e 85ba 503e
000000a0: 311b 7ebd f97d 1d3e 00f0 d63c a6b4 273e
000000b0: ea6c da3c 080d 93bd 3e00 14be 0c0c 09be
000000c0: 9ab3 e3bd cd5d 763c 11a2 19be 37a3 bb3d
000000d0: 4f83 2a3e 99b4 5cbe 3030 a0bc d971 d4bd
000000e0: 2170 66bd 2ca2 1abc 288d 64be acb2 4fbe
000000f0: 970b f1bd 72c3 16be 5b87 94bd c45c 9dbd
00000100: bcb6 ccbd ecbe 30be 95c2 01be 9e75 06be
00000110: a542 f6bc 81a7 8bbd 24b0 f0bc 35b4 963d
00000120: 7569 11be 4b00 683c 4f93 5c3e 9ab9 2cbe
00000130: 441d 943d f0bc 8a3d 8490 2fbd 3c36 0cbe
00000140: 30ad 0ebc 509a dcbd 8d2f 1cbe 7756 60be
00000150: dac5 5c3e febc 3e3e d58a 123e 0bdb 41be
00000160: c8aa 1fbe 6816 603e 0eee 083e abab 71bd
00000170: 9be8 a03d 5d2f 26be 2afa 98bd 345c 4bbd
00000180: db98 71be 802e f43d 6e3c 47bc a73b b53a
00000190: 6481 2bbe da23 dd3d 485f 253e cf85 313e
000001a0: dcf8 4dbe c7d0 f9bc e87d 2ebd 3d72 3dbd
000001b0: c7c6 213e 3f07 4bbe 2e89 7b3c 6c1b 52be
000001c0: 4b87 96bd b8a0 a9bd 719c 233d c521 0fbc
000001d0: be26 cc3d 41c8 623d 2bff 9b3d 57e2 b4bc
000001e0: cce3 e4bb 5045 5e3c 910c cbbb 1560 34be
000001f0: 3264 32be 8b04 54bd f923 303e 3a56 973d
00000200: 1c82 6e3e c727 8dbe fc71 793e c498 903e
00000210: 2db8 273d 92c7 dfbc 8cb0 65be e576 5abd
00000220: 0f76 4d3e ed1d 41be 8930 933c 4350 443e
00000230: a4d6 583e 3802 82bd ef92 05bd e4ed 703d
00000240: 21ef c43d ff98 7cbd 1113 3d3e d4d1 eb3d
00000250: 311d ce3d 915f ed3d 2102 14be 0e9f b83d
00000260: 94e6 2e3d 7357 d13d 0172 143e 700d 843d
00000270: 13ca 7cbe 317a 813c 9ee0 523d a2d9 d23d
00000280: 1b80 a6bc d031 4c3d 9c73 463e 61db 93bd
00000290: 275a 70be c5ce b23d f534 bfbd 5d60 1bbe
000002a0: e064 903d c45a e53d 428b 34bc b660 18bd
000002b0: 2797 b23b b3e6 953d 8dce 23be df96 913e
000002c0: 0387 50bd 41b5 84be 0c56 863e ba5e 233e
000002d0: e418 1c3d b43d 12be 6c41 20be 0322 12bd
000002e0: 6565 633e edc0 63be 93fd 06be e0c1 22be
000002f0: ac8b 0b3e fdfe 8e3d 737b a13a 94c9 883d
00000300: eec0 853d ec30 2a3e 1158 11bb 196f 8dbd
00000310: e79c 613e 67aa 0dbe ba3f d3ba e615 21be
00000320: d6d0 80be c8eb 353e bdef 8ebd ea1c 60bd
00000330: d024 ec3d 230d f93d 4a03 403d 7639 96bd
00000340: 800b 58be bf51 8bbd 22be e63c 19f1 78bc
00000350: 1708 363e b75f 30be ad40 e4bc 91e4 313e
00000360: 9173 2b3c d9cc 213c dd1e 84bd ff32 a7bd
00000370: df63 833e 20fa bebd 4beb ce3d 5b76 1ebd
00000380: 9057 f83d 62c8 34be 8e3c 113d b945 6c3e
00000390: 3e4f 7fbe 16d2 0fbe 6213 d63d da37 89bc
000003a0: 1956 6cbd 8b28 fdbd 1e79 893e 2b87 d9bc
000003b0: 5cfa 363e 7301 883e a078 a93d 788c 5d3c
000003c0: 087e 053e 80e7 273e 067a 5f3d 6930 0abe
000003d0: 2aa3 85be 1414 053e cd15 89bc 73fa 11be
000003e0: 7f56 843a 8738 ecbd b793 28be bebc e13d
000003f0: b5e7 c2bd 5b80 433e 013b d03d 41ed 0e3c
-0.095602736 -0.04953744 0.006287121 0.2661688 -9.738772e-05 0.11726618 -0.29880285 0.119971715
-0.04589506 -0.14473176 0.21316619 0.19431798 0.12480453 0.034596376 -0.12489708 0.07838555
-0.0040029553 0.14124064 0.038306717 -0.17332019 -0.10629778 0.028959 0.04046188 -0.11708687
0.19323863 -0.04943332 0.007758086 -0.08920228 0.116138265 0.12756658 -0.16413249 -0.13288309
-0.104011096 -0.020004034 0.019983478 0.044891406 -0.094030954 0.106705666 0.201268 0.20383652
-0.06203765 0.15380086 0.026237488 0.16377506 0.026663262 -0.0718022 -0.14453217 -0.13383502
-0.11118241 0.015037012 -0.1500323 0.0916199 0.16651653 -0.21553268 -0.019554228 -0.10373277
-0.05625928 -0.009438079 -0.22319472 -0.20283002 -0.11769789 -0.14722994 -0.072523795 -0.07683709
-0.09995791 -0.17260331 -0.12671883 -0.13130805 -0.030061075 -0.06819058 -0.029380865 0.073585905
-0.14200385 0.014160226 0.21540569 -0.16867676 0.072321445 0.06774318 -0.04286243 -0.13692564
-0.008708283 -0.1077162 -0.15252514 -0.21907984 0.2155985 0.18626782 0.14310773 -0.18931215
-0.15592492 0.21883547 0.1337206 -0.059001606 0.07856866 -0.16229005 -0.0746959 -0.04964848
-0.23593466 0.11922932 -0.012160404 0.0013826982 -0.16748577 0.10797854 0.16149628 0.173362
-0.20114464 -0.03049506 -0.042600542 -0.046251524 0.15798484 -0.19826983 0.01535253 -0.20518273
-0.07350024 -0.08282608 0.039944116 -0.008736079 0.09968327 0.05536676 0.07617029 -0.022080583
-0.0069851633 0.01356633 -0.0061965664 -0.17614777 -0.17421034 -0.051762145 0.17201222 0.07389493
0.2329182 -0.2756941 0.24359888 0.2824155 0.040947128 -0.027316842 -0.22430629 -0.053336043
0.20064567 -0.18859072 0.01796748 0.19171242 0.21175629 -0.063480794 -0.03261083 0.05882062
0.09615923 -0.061669346 0.18464305 0.11514631 0.100641616 0.115904935 -0.14453937 0.09014712
0.042700365 0.10221758 0.14496614 0.064478755 -0.2468646 0.015805336 0.051483743 0.102954164
-0.020324757 0.049852192 0.19380039 -0.072195776 -0.2347189 0.087308444 -0.093362726 -0.15173478
0.070504904 0.11198953 -0.01101953 -0.037201606 0.0054501477 0.07319393 -0.15996762 0.28435418
-0.050910007 -0.25919536 0.26237524 0.15954104 0.038109675 -0.1428135 -0.15649956 -0.035676967
0.22206648 -0.22241564 -0.13182668 -0.1589427 0.136275 0.06982229 0.0012320116 0.06679073
0.06530939 0.16620225 -0.0022177736 -0.06905956 0.2203251 -0.13834535 -0.0016117014 -0.1573101
-0.2515933 0.17765725 -0.0697932 -0.054715075 0.11530459 0.12160709 0.046878137 -0.073351786
-0.21098137 -0.06802701 0.028166834 -0.015194201 0.17776524 -0.17224012 -0.027862871 0.17372347
0.010464565 0.0098755 -0.06451199 -0.081640236 0.25662133 -0.09325051 0.10103472 -0.03868709
0.12126076 -0.17654565 0.03545814 0.23073472 -0.24932572 -0.14044985 0.10452916 -0.016750265
-0.057699297 -0.123612486 0.26850218 -0.02655371 0.17868942 0.26563606 0.082749605 0.01352226
0.13036358 0.16396904 0.05455973 -0.1349503 -0.26101047 0.1299594 -0.016734028 -0.14255695
0.0010096579 -0.11534219 -0.16462599 0.11022328 -0.09516851 0.19091932 0.10167504 0.008723558

model.models.many-body.interactions.0.Phi.linear_layers.0.bias f4 [16]
00000000: f2d1 25be fbf5 7fbd 9703 26be ded7 843c
00000010: 24bd 153e 5a15 16be 02fa 713d 423b 273e
00000020: 0cca 61be e9f5 debc 9e6e 8bbe 6998 b33c
00000030: 5eaf 1bbd ba0d e03c bd85 a2bc cec5 43be
-0.16193369 -0.062490445 -0.16212307 0.016216215 0.14622933 -0.14656582 0.059076317 0.16331199
-0.22049731 -0.027216868 -0.27232832 0.02192326 -0.03800904 0.027350295 -0.019839162 -0.19118425

model.models.many-body.interactions.0.Phi.linear_layers.1.weight f4 [48, 16]
00000000: 2404 0bbd 50d7 f5bc 3016 a3be c64a 0abe
00000010: ca93 9dbd 1aaf c3bd f14c a4bd 0d56 c3bd
00000020: 6158 ad3c 6854 9c3e 99bc 913e f9e1 5c3e
00000030: fa79 5c3e 6135 753d 800c ae3e 5c2a 1d3e
00000040: 09cb 8b3d c660 d9ba 650d 8d3d 4eac 793e
00000050: 3eeb 6fbd 81bf 923d a598 1e3e d9a0 a13c
00000060: 3858 1bbe 8c63 e8bb 35c2 20be 8ed6 3ebe
00000070: 0007 833d 4529 fc3d b806 26be 5a8e 90bd
00000080: f891 8b3d dfbb 1ebd 6fe8 7dbe 7f90 213d
00000090: 5e57 393e f5db 95bd 86c7 69be f2e3 06be
000000a0: 001b fabd cfe8 23be efdb 11bd 7b74 2b3e
000000b0: 288d c43c 608b 573d b168 72bd d7aa c43d
000000c0: d42e 8abe db88 763d 134d e1bc a00e 5ebd
000000d0: d6c4 683d a9e1 febd a253 973d 43a0 f93c
000000e0: c974 b3bd 97d1 743d 5d92 1ebe e27c 8fbc
000000f0: ae35 063e 0099 043e e5d8 a8be 3f78 95bd
00000100: 2317 d6bd 9b9d 26bd 1244 313d 167b 7fbc
00000110: 3aca 4e3d c496 14be eaf6 e73d 4249 4abd
00000120: a31a 39be 8863 fabd 1077 ddbd f1c3 30be
00000130: 8643 afbd dc01 303e a2e2 76be 4fea 153d
00000140: 4110 2abe fc02 86be bec2 0cbe 3daf a03d
00000150: 61a0 c13d 224d 4b3e dbb8 ca3d d589 0d3e
00000160: de74 e83d 9088 193e f27a a53c 86f7 1abd
00000170: 20b4 cc3d a25e a43d 9d6c edbd fa9e cabd
00000180: 6c37 9d3e 8179 fb3d eee0 1b3e 908f 9bbd
00000190: 0989 3a3d 42f6 c03d d672 263e 9d09 ebbd
000001a0: 69c2 e6bb c753 bf3d 110a 103e 5bd2 0b3d
000001b0: 0768 08bd 49a8 f4bd 4626 063e ef47 813e
000001c0: 4694 303b 7868 5e3d 0e76 22be 3a0a 843d
000001d0: fab0 433d 90b3 433d 8712 fdbd 76b6 3c3d
000001e0: 8a50 af3d 603f a6bb 33e6 07be b765 bf3d
000001f0: a30c 843c aab5 f23c 3c2e f4bd e638 a8bd
00000200: 86d9 88be b78f e2bd b891 9a3e 14e3 563e
00000210: 860e c7bd 9df8 413e 81a6 a13e d42b 733e
00000220: fe2a b5bd 0e3a cabe 5f14 bcbd 07fb cdbd
00000230: 5990 043e a77b 8a3d 7d1a 96be 64b6 bebe
00000240: c98c 9e3e 6626 4e3d db1b d5bd fa91 51be
00000250: 6284 923d 46a4 00be 49d4 58bd 2039 1d3d
00000260: 9a18 fdbd 28bf f8bd a3b1 873e cfe3 02be
00000270: 8cde c23d 2004 d8bd d6cd 1f3e 1858 bfbb
00000280: dc4c 083e 4719 00be 112c 7d3d 9a34 e13d
00000290: 9f26 88bc e7da b7bd 95e9 eabc 0004 d4bd
000002a0: 8fd0 1f3e 01c1 c83c 99aa fa3d 919f e8bd
000002b0: cbd3 383d 4c3e c2bc 02e3 2f3e 9f2c 2e3c
000002c0: 7896 4d3e 81b8 043d f85f 9ebe caab 24be
000002d0: 54ea 143e 0b7c 8ebd e7e5 0f3e c577 8ebc
000002e0: 3b14 81bd 5781 aabd 3fa0 07be ab19 1d3e
000002f0: 6327 033e 5423 633c d3da 08be c353 fa3d
00000300: 8f63 c13e 24fb 813d 628a 2cbe 870a 7bbd
00000310: 18a1 973d a80e f83d 9ae6 38be 4a9c 26be
00000320: a4ab 313e a500 323d 3b57 ad3e 59c0 d93e
00000330: d246 7ebd f8c2 80be 9dd6 8c3e ec75 953e
00000340: fcee b4be 3e59 a3bd d344 363e fcc9 f23d
00000350: 24b1 9cbd 32f8 58be 83ee d3bd 4e9e 2c3e
00000360: 3acd 96bd e714 22bc d910 a3bd 4da2 cf3d
00000370: c9c3 403d d6e0 a0bd c285 913d 6b4d aabd
00000380: 9f0c 653e c13a bd3c e3d7 28be 8f81 31be
00000390: 06a2 efbc e2a2 e93d bdf7 6ebe cf51 073e
000003a0: 7ce7 34bd 64d9 d4bd 0527 07bd 42cd 2d3e
000003b0: 0543 d4bd 7794 87ba 4a41 8bbd b720 1e3e
000003c0: f9c0 913d 9971 1e3e 5b64 cc3d 3acc b13c
000003d0: 36f6 033e dfab 0abe 3fb9 c33d 0705 0b3e
000003e0: 34a1 383b 15e8 1fbe 9aae 463c 7613 8b3e
000003f0: 96bd 75be 8a51 993d 9370 8a3c 0eea 2a3e
-0.033939496 -0.030009896 -0.31852865 -0.13505086 -0.07694204 -0.09554882 -0.08022488 -0.09537897
0.021160306 0.30533147 0.284642 0.21570577 0.21530905 0.05986536 0.33993912 0.1534819
0.06825835 -0.0016584627 0.068873204 0.24382135 -0.058573954 0.07165433 0.15487917 0.019730018
-0.15170372 -0.007091945 -0.15699084 -0.18636534 0.063978195 0.12312559 -0.162135 -0.070584014
0.06814951 -0.038753387 -0.24795698 0.039444443 0.18099734 -0.07317344 -0.22830018 -0.13172892
-0.12212181 -0.16006778 -0.035610136 0.16743653 0.02399309 0.052623153 -0.059181873 0.096028976
-0.26988852 0.06018911 -0.027502572 -0.054213166 0.056828342 -0.12445385 0.073889986 0.030471927
-0.087625094 0.059770193 -0.1548552 -0.017515603 0.13106415 0.1294899 -0.32977977 -0.07298326
-0.10453632 -0.040677648 0.043277808 -0.015593311 0.050485827 -0.14510638 0.11326392 -0.04938627
-0.18076567 -0.12226015 -0.10813725 -0.17262246 -0.08557801 0.1718821 -0.24109891 0.036600407
-0.16607763 -0.26174152 -0.13746163 0.07845924 0.09454418 0.19853643 0.0989854 0.1382211
0.11350416 0.149935 0.020200226 -0.037833713 0.099952936 0.08025862 -0.11592982 -0.098936036
0.30706346 0.122790344 0.15222523 -0.07595742 0.045540843 0.0942197 0.16254744 -0.11476443
-0.0070422185 0.09342151 0.1406634 0.034136157 -0.033302333 -0.1194616 0.13100538 0.25250193
0.0026943847 0.054298848 -0.15865347 0.06447263 0.0477762 0.047778666 -0.123570494 0.046072446
0.085602835 -0.005073473 -0.13271408 0.093455724 0.016119307 0.02962764 -0.11922881 -0.082139775
-0.26728457 -0.11062568 0.301893 0.20985061 -0.09719567 0.18942495 0.31572345 0.23747188
-0.08846091 -0.39497417 -0.09183573 -0.10057645 0.1294569 0.06761866 -0.29317084 -0.37248528
0.30966786 0.05032959 -0.10405704 -0.20465842 0.07154156 -0.12562665 -0.052936826 0.038384557
-0.12358208 -0.12145835 0.26502714 -0.12782215 0.09515104 -0.10547662 0.15605864 -0.005839359
0.1331057 -0.12509643 0.061809603 0.10996361 -0.016619978 -0.08977299 -0.028675834 -0.103523254
0.15606903 0.024506094 0.1223957 -0.1135856 0.045123857 -0.023711346 0.1717644 0.010630756
0.2007693 0.03240252 -0.30932593 -0.16081157 0.14542514 -0.06957253 0.14052545 -0.017391095
-0.06302687 -0.08325451 -0.13244723 0.15341823 0.12807994 0.013863403 -0.13364725 0.122230075
0.3777127 0.063467294 -0.16849664 -0.061289337 0.07403773 0.121121705 -0.18056718 -0.16270557
0.17350632 0.043457646 0.33855614 0.42529562 -0.06207926 -0.2514875 0.27507487 0.2919153
-0.3533858 -0.07976006 0.17799692 0.11854932 -0.076509744 -0.21188429 -0.10348227 0.16857263
-0.073633626 -0.009892679 -0.07962198 0.10138378 0.047061715 -0.07855384 0.071055904 -0.083155476
0.22368096 0.023099305 -0.16488604 -0.17334579 -0.029252063 0.114080206 -0.23336692 0.13214801
-0.044166073 -0.103930265 -0.032996196 0.16972831 -0.103643455 -0.0010343929 -0.06799562 0.15442167
0.07116885 0.15473022 0.09980079 0.021703828 0.12886891 -0.13542126 0.09556817 0.13576137
0.0028172256 -0.15615876 0.012126589 0.27163285 -0.23998103 0.074862555 0.016899383 0.16690847

model.models.many-body.interactions.0.Phi.linear_layers.1.bias f4 [48]
00000000: 5860 61be 78cc 31bc 54a8 f3bb 43d4 223e
00000010: 07bd 1abe 0f67 343d 4e39 2cbe e03c ddbd
00000020: 65d2 bd3e b0a1 e8bd 2957 403d ba27 7fbe
00000030: 1cf9 97be 4af6 f83d 67bf 1c3e 3a33 14be
00000040: a93a 8f3e 3ddd cdba f4a0 30bc 9288 9fbe
00000050: 71f7 f3bd 5fc6 5dbd dfb4 963d 5419 b13e
00000060: cc41 2b3e 7129 22be aad6 38be f169 acbd
00000070: 2b98 f4be 469e babc d85d ad3d 7b8c 723e
00000080: 6125 0d3e 5784 76bd 3be1 23be 3264 b83d
00000090: 4efe e8bc 0c49 94bd 81fa 013d 6515 903d
000000a0: 298e f2bd b579 523e 12c9 0a3e 4e55 5dbc
000000b0: f2ff 88bd 1b7a da3c 18de aebd 84ea 3b3e
-0.22009408 -0.010851972 -0.0074358378 0.15901284 -0.1511117 0.044043597 -0.16818735 -0.108026266
0.3707458 -0.113589644 0.046958122 -0.24917498 -0.29682243 0.12156351 0.15307389 -0.14472666
0.27974442 -0.0015706193 -0.010780562 -0.31158882 -0.1191243 -0.05414426 0.07358717 0.34589636
0.16724318 -0.15836121 -0.18050638 -0.08418644 -0.47772345 -0.022780549 0.08465165 0.23686402
0.1378379 -0.060184803 -0.16003887 0.09003486 -0.028441574 -0.07240495 0.03173304 0.07035331
-0.11843521 0.2055424 0.13553265 -0.013509108 -0.06689443 0.026669553 -0.08538455 0.1835118

model.models.many-body.interactions.1.filter_generator.components.0.0.frequencies f4 [15]
00000000: a852 693f 7977 c33f 6c06 1940 3deb 4d40
00000010: 8ce1 7840 fb79 9340 560d af40 2bf5 c440
00000020: c160 e040 535b f440 e3cc 0641 d1d4 1441
00000030: 1207 1e41 298c 3041 528a 3b41
0.9114175 1.5270835 2.391017 3.2174828 3.8887663 4.60864 5.470378 6.1549277
7.011811 7.636148 8.425021 9.301957 9.876726 11.034219 11.72127

model.models.many-body.interactions.1.filter_generator.components.0.1.weight f4 [48, 15]
00000000: e8a7 39bd 033c d73d 3d5b 1ebd bd16 9dbd
00000010: 4161 31be 5209 1cbe 56ef 033e 2c32 34bd
00000020: 9ba2 03be 3cd9 89bd 7fef 3a3e f371 ffbd
00000030: 48e2 24bd 0147 0cbe 2a63 483d f53f 74bd
00000040: e54e 0f3d 5c9f 643e cabd ee3d 2733 153d
00000050: cfbf 06be 6aef f73c 1698 7abd f072 e2bd
00000060: 7613 833d 6ea6 12be 3337 803e 480f 27be
00000070: 5f8e febd 65e2 4bbe c545 3dbe b6af 503d
00000080: 913d 19be 326e f03d de69 8e3e a353 123e
00000090: 3e23 31be c02d 3bbe 1910 513e 9cf0 193e
000000a0: 43ac 36bd abd2 0abe fcda 8b3c 98d1 093e
000000b0: d907 463e 308e ebbd a7b0 893e 5770 a13d
000000c0: 7b9e 59be bc16 4abc 130a d43e d379 24be
000000d0: 1305 debc 6358 1e3e 4882 da3d e57e b0bd
000000e0: 3b5b 94bd ed34 30bd 270b 353d 98d0 093d
000000f0: d8fa aebd 0628 133f 153e 843e d653 b3be
00000100: ad2b 6cbe 4ee8 203e d051 67bd 8c01 aa3e
00000110: 9783 023e 4914 64be b078 32be 6ba4 b73d
00000120: c200 2e3e e7cc 5c3e e01e a4bc 31bc a9be
00000130: 064b 9ebe 6031 4abd 583e 993e d5d8 c83e
00000140: d25e 3fbe 1412 c53b c813 043e a260 803e
00000150: e0ae 1f3e ea0f 74be 6d53 8f3c 83e5 19bc
00000160: c30b 943b 3b6e 4cbe ad12 00be cb45 3dbe
00000170: b053 983b f212 a23e 0c6f 58bc 8346 cb3d
00000180: 5f73 1e3c 6ec8 f7bd 51de 9ebd 7bd0 aebd
00000190: 0f81 8d3c 0516 2e3d f49a 27be 419d 9dbd
000001a0: 4ac2 7dbe 8a8e 733e 05ef 5bbe c7c3 4e3e
000001b0: bb52 b93d 888f 8bbd 2b83 94be ce39 0f3e
000001c0: 7c84 ae3c 9502 283d a11d 56be 9de4 2abe
000001d0: 8221 0f3e 99a6 173e 13d2 85bd aa0d 153e
000001e0: 1e1e 5a3e d83c 59bf 354c db3c 63d8 033f
000001f0: 71cc 33bd 5ffd aebb 22fc afbd 2313 5ebd
00000200: e5aa 303c 6e35 6c3e a427 7a3c 2d45 ce3c
00000210: e341 033e c036 7d3d 6a97 f3bc 205a 05be
00000220: f2fa 683e df48 613e c003 f3bd ae53 bdbd
00000230: fac5 debd 8c66 943d d55d 5cbe a690 5d3e
00000240: b559 84bc 9da5 573e 2962 d1bd 7dd9 60be
00000250: a7df 7bbc 9362 903d 777a 79be 2b94 9cbe
00000260: 30cb 8f3e 8b86 f53e 87b5 4abe 3ba4 25be
00000270: 1f22 eb3d 9c66 003e f64a 2ebe 4fc4 60bd
00000280: 60a2 083d 3626 b43d f695 5fbd 697a 42bd
00000290: 9437 983b abac 893d ef50 ee3c 62d3 403e
000002a0: 803c 9abe a63d 01be eed0 5dbe e53a 46bd
000002b0: fca3 0c3e 00a3 0a3e 4635 8c3e 482d b23d
000002c0: 470c 94be bfed bd3c 786a 573d a5b7 d8bd
000002d0: 4cfe 12be a6dc 7c3e b80a 1abe 75e5 c63c
000002e0: 6941 e9bc c9c6 1c3e bf2d 753d 1541 793d
000002f0: e59a ecbd 3d1f 433e b4ae 443e 5b2e 5abe
00000300: 7be3 17bd 02ed 03bd 36be 013e 9cd5 973e
00000310: 2cb6 0ebe c332 7abe 3611 babe 6c81 543e
00000320: 6cdc cc3c a50e 7d3e 76df dd3d 5fa9 c93d
00000330: d63d 523e dd36 c0bc 45db b9bd daf5 35bd
00000340: 074d 86bd f0bf 553d 2705 ccbd 3c12 573e
00000350: 8020 9a3d c11d 853d e7f9 42be 0ad9 813d
00000360: fb44 773e 9685 163e 0117 0ebd 7f8d b8bd
00000370: 409a 29be 152e 5cbe ba98 18be 6aae 0abe
00000380: 1085 973e 828f 24bd 5b5d 0c3c fc33 29be
00000390: f515 6fbe 7090 3e3e 19ec 0c3e ddc5 793d
000003a0: 7afb a03d 40ec 9a3d 5a47 10be 44e2 673c
000003b0: 8372 aebc 8f13 063e 3524 303d d7dc 233e
000003c0: 2470 c43c 1424 d03e 0d9c 1dbe abc8 01bf
000003d0: e349 dabc f66c bcbc 04d1 053e e23b 2c3e
000003e0: 88ca 1d3e c635 dfbd 9e99 3d3e 4190 f2bd
000003f0: 9669 a8bc 4f4a 51bd 18e2 f83c bdf4 1f3d
-0.045326144 0.10509493 -0.03866123 -0.076703526 -0.17322256 -0.1523793 0.12884268 -0.04399316
-0.12854998 -0.06730887 0.18255423 -0.12472906 -0.04025486 -0.13698961 0.048922695 -0.059631307
0.03498735 0.22326416 0.11657293 0.036425736 -0.13159107 0.030265529 -0.061180197 -0.11057079
0.06400196 -0.143213 0.25042114 -0.16314423 -0.12429499 -0.19910581 -0.18483646 0.05094882
-0.14964892 0.11739768 0.27815145 0.14289717 -0.172986 -0.18279171 0.20416297 0.15033191
-0.044597875 -0.13556926 0.017072193 0.1345886 0.19338931 -0.115017295 0.26892588 0.07882755
-0.21251862 -0.012334522 0.41413936 -0.16062097 -0.027102029 0.15463404 0.106693804 -0.08617953
-0.07243963 -0.043019224 0.04420009 0.033646196 -0.085439384 0.57482946 0.25828615 -0.350249
-0.23063536 0.15713617 -0.056474507 0.33204305 0.1274551 -0.22273363 -0.17428851 0.08966907
0.16992477 0.21562539 -0.020034254 -0.3315139 -0.30916613 -0.049363494 0.29930377 0.3922793
-0.18688515 0.006014118 0.12898171 0.25073725 0.15594053 -0.23834196 0.017495835 -0.009393099
0.0045180037 -0.19963925 -0.12507124 -0.18483655 0.004648648 0.3165508 -0.013210069 0.099255584
0.009671061 -0.12098776 -0.07757247 -0.08535858 0.017273454 0.04250147 -0.16367704 -0.076960094
-0.24781147 0.23784843 -0.21477897 0.2019187 0.09048983 -0.06814486 -0.29006323 0.13986894
0.021303408 0.041018087 -0.2090974 -0.16688772 0.13977626 0.14809646 -0.06534209 0.14555994
0.21300551 -0.84858465 0.026769737 0.51502055 -0.043896142 -0.005340263 -0.085930124 -0.05421747
0.010782932 0.23067257 0.01526824 0.02517947 0.12818103 0.06181979 -0.029735286 -0.13022661
0.22751978 0.22000454 -0.1186595 -0.09244476 -0.10877605 0.07246122 -0.21520169 0.2163721
-0.016156057 0.2105927 -0.10223801 -0.21957965 -0.015373147 0.070500515 -0.24363123 -0.30581793
0.28084707 0.4795421 -0.1979581 -0.1617593 0.114811175 0.12539142 -0.17020783 -0.054874714
0.033357978 0.08796351 -0.054586373 -0.04748002 0.0046452973 0.06722387 0.029091327 0.18830636
-0.30124283 -0.12621173 -0.21661732 -0.04839601 0.1373443 0.13538742 0.27384394 0.08700043
-0.28915617 0.023184655 0.05259177 -0.105819024 -0.14354819 0.24693546 -0.15043151 0.024279336
-0.028473573 0.15310206 0.05985808 0.060853083 -0.11552981 0.19054885 0.19207269 -0.21306746
-0.037082177 -0.03220845 0.12670216 0.2965516 -0.1393668 -0.24433427 -0.36341256 0.20752496
0.02500745 0.24712618 0.108336374 0.09846758 0.20531401 -0.02346366 -0.090750255 -0.044423915
-0.065576605 0.052185 -0.0996192 0.2100305 0.0752573 0.06499816 -0.19040643 0.06340225
0.24147408 0.14699396 -0.034689907 -0.09011363 -0.16562748 -0.21501954 -0.1490201 -0.13543096
0.29593706 -0.040175922 0.00856718 -0.16523737 -0.2334822 0.18609786 0.13761939 0.060979713
0.07860465 0.07564592 -0.14089718 0.014153067 -0.021294838 0.13093399 0.04300328 0.16002212
0.023979254 0.40652525 -0.1539156 -0.5069682 -0.02664656 -0.023001175 0.13068014 0.16819718
0.15409291 -0.10898928 0.18515632 -0.118439205 -0.02055816 -0.051096257 0.030381247 0.03905176

model.models.many-body.interactions.1.filter_generator.components.0.1.bias f4 [48]
00000000: 4d23 e4bd cb10 36bd d1e9 88bd a6e3 973d
00000010: cdcd 04be 6922 1fbe 55a1 90be e850 c0bd
00000020: f815 803d 924e 293e 4d09 213c dc33 083e
00000030: c5f2 153e a28f babd 4b81 82be 4732 12bd
00000040: 1c41 b9be 6a32 6b3e 90d7 bb3e 70b6 5fbd
00000050: 3f9d 7a3e 6a68 08bf 5f7d 42be 0917 b73e
00000060: bbac ad3d a94d 43bd aae1 1e3e 77ba d6be
00000070: 0420 4f3e 8433 aabe 477d 253e 0834 613d
00000080: 7a04 dbbd 27f8 ae3e 3226 db3e 9334 d73e
00000090: dfc9 183d d99f 7ebc c486 223c b642 27be
000000a0: 40c2 c2bd 4bfb d0be fa51 223d 83ae 17be
000000b0: 8cb6 aabd 2016 66be 5df8 ae3e 058b 8abd
-0.111395456 -0.04444961 -0.06685222 0.07416467 -0.12969132 -0.1554047 -0.28248087 -0.09390432
0.0625419 0.16533878 0.009828878 0.13301033 0.1464339 -0.09109427 -0.25489268 -0.03569248
-0.36182487 0.2296845 0.366879 -0.054617345 0.24474047 -0.53284323 -0.18993138 0.35759762
0.08480211 -0.047681484 0.15515772 -0.41939136 0.20227057 -0.33242428 0.16161071 0.05498126
-0.10694213 0.341737 0.42802578 0.42032298 0.037301894 -0.01554104 0.009919826 -0.16334042
-0.095097065 -0.4081672 0.03962896 -0.14812665 -0.08335599 -0.22469378 0.3417386 -0.06764797

model.models.many-body.interactions.1.filter_generator.components.1.coefficients f4 [3]
00000000: 0000 e0c1 0000 4042 0000 a8c1
-28.0 48.0 -21.0

model.models.many-body.interactions.1.Phi.linear_layers.0.weight f4 [16, 16]
00000000: fb14 77bd c4de eabd cb46 31be 3614 103c
00000010: 144e c13c 5e78 dc3e bce0 80bc 6919 0bbe
00000020: 8e8c 4a3e 99fb 51be ee57 eebd fe9a 8a3d
00000030: 9bb1 913c 7fb9 a9bd 57fb 8f3e a0e3 51bd
00000040: 30d2 53be 2208 903c ca01 323e 8c15 2c3d
00000050: c3e1 f4bc 9f3f 93bc cf41 793d 36b7 28be
00000060: 88f9 c63e d644 4bbd 8e07 4b3e 3be5 ccbe
00000070: 231d 823d 690e 21be 949a 5abe ad8e cbbd
00000080: 6bbd 6e3e dc79 47bd 8643 0e3e c73a 1a3e
00000090: 295a 2bbd 2d00 eb3d 6955 9abe ee7e 0e3e
000000a0: 8b2f 893e 38f4 fe3d a6e7 67be 3fbd a23e
000000b0: 4c1a e93d af6b 153c 2ca5 aabe 369f 77be
000000c0: 1314 05be 492d dbbd ed91 a9be 188d a5be
000000d0: f390 a3be 9d5e f8bd 32dc 91bd bc2d 32be
000000e0: 9157 d63c 2852 883e 9265 efbd d844 e63d
000000f0: 2483 4b3d 1aa5 18be 07e3 3b3e 54aa 0fbe
00000100: f832 f73d 8f05 8fbe 8769 7a3e 629a fe3d
00000110: e872 85bd e1f2 17be f892 43bc b0c6 12bd
00000120: 74fa 643e dec9 bc3d b58b 0b3e 7b09 a7bd
00000130: 5685 f83e 53e6 8b3e 0f88 8cbd bc28 823e
00000140: 20f7 88be 2586 243e 0ed3 f33a 2428 e23d
00000150: 3be5 4cbe 53b7 03bd f13a 19be 7feb 463e
00000160: 91e6 a53e 72a2 9b3c ed94 8bbd 0ccd 8abc
00000170: 168b cc39 9b39 1abe f654 863e 5606 c23d
00000180: cb46 8cbd edea 0bbe 2f28 563e 92a5 f2bb
00000190: bd77 2c3e 2503 3cbd a3c8 4cbd 1ffd 593e
000001a0: 7914 f63d 1c38 923e 7c12 89bd ea79 a9bd
000001b0: 60ab e9be 2024 42be c4f2 543d a5dc f6bd
000001c0: 5b74 9ebd 0441 9ebd 6b08 b93d 25d9 36bd
000001d0: bdd2 453e dcdd 8dbe 914d 543e 865c 6a3e
000001e0: 4211 9dbd 4f9f 1f3e 203c ec3c 1248 3ebe
000001f0: 0333 2b3e 5395 acbd 8fa0 0e3e 2c6e 00be
00000200: 88ab 77bd f7cb 20bd 8769 61be f1b3 9ebd
00000210: e202 863d eb7d 0fbc 8ab7 6dbe 4f5b 45be
00000220: 915c db3e 9db7 fe3d 16e5 14be eff8 eabd
00000230: 60b4 20bf f4cd 30be 6d8d b6bd 7c81 643b
00000240: 1d19 e33d 3c75 97bd c54a 90bd 116a acbd
00000250: 48d9 bebd d002 8ebe b585 643e 04a2 6cbc
00000260: 9be5 fe3d ee7d 123e 28d4 56be 3a6e bb3d
00000270: 63e6 25be 02d5 5a3e ff55 043c 0e4c afbd
00000280: 3c5c 87be 852c 1bbe c3a5 e63c c740 babd
00000290: 982f 6abe 694b c6bd 9d58 aa3e 19d0 703e
000002a0: 4363 aa3d 41a8 f53e 33aa 663d fc2e a4be
000002b0: 930e c53d f4b1 08be 4575 55bd 8583 5a3a
000002c0: 0d26 143e 50b7 513d 5b10 333e 5aab 4fbe
000002d0: 60d7 75be 6546 253e e142 3ebe 8600 733d
000002e0: 293b f2bd e772 dbbd 35b1 0c3e cecf d23d
000002f0: f0e1 38be e9fa 5cbb 0f4b a0bd 2428 893e
00000300: 48ed 05be b4f8 ea3d 16de 36be 71b9 8a3e
00000310: 4c71 45be df1e ddbc 1651 aa3d f7e5 443e
00000320: 2d56 113d 8d78 7f3e 9100 7abd 6a7c ed3d
00000330: a130 8f3e 368c 1f3e 32a5 163e afbd 0c3e
00000340: 47ed 3ebe a96e 5dbe 5202 3abe 894c 6f3e
00000350: d25f 7bbc f70d 0cbe b774 463e e6ed b13d
00000360: fdd4 74be 8ecb eabd a04e 47be 54bf 37be
00000370: 6e62 8a3e 6c42 4abd d769 39be 6e68 2abd
00000380: c3de 033e e00b 83bd 772a 8ebd 3e59 3b3e
00000390: 0057 1abc a1ae fbbd 8cde 59bb 8dbe f53d
000003a0: b0c5 cc3d 12b7 b83c e585 11be c8b5 503d
000003b0: 76ab 09be 025e 26be 69c7 fb3c 5d95 9d3d
000003c0: bdbd 11be 6659 43be 0b6e 2cbe 6eb5 86be
000003d0: e7c2 e63b d91f 32bd 618b 6fbe d29e f43d
000003e0: 5d75 993d c7db b93e 9de0 f8bd ca29 a13e
000003f0: 659e debd 40cb dd3d facc f03d 3013 c33d
-0.060322743 -0.114682704 -0.17312162 0.008793881 0.0235968 0.43060583 -0.015732162 -0.13583912
0.1978018 -0.20506133 -0.11637865 0.06767844 0.017784884 -0.08287334 0.28121445 -0.05124247
-0.20685649 0.017582003 0.17383495 0.042012736 -0.029892808 -0.017974673 0.060853776 -0.1647614
0.38862252 -0.049626194 0.198271 -0.4001864 0.06353214 -0.15728153 -0.2134803 -0.099393226
0.23314445 -0.0487002 0.13892946 0.15061484 -0.04183403 0.11474643 -0.30143288 0.13915607
0.26794085 0.12448925 -0.2264696 0.31785008 0.11381969 0.009119912 -0.3332914 -0.24181828
-0.12995939 -0.10701997 -0.33119145 -0.32334208 -0.31946525 -0.12127421 -0.07122077 -0.17400259
0.026164802 0.2662518 -0.11689295 0.112436 0.049685612 -0.14906731 0.18348323 -0.14029819
0.120702684 -0.27933928 0.24454318 0.1243179 -0.06516057 -0.14838745 -0.011936896 -0.035834014
0.22361165 0.092181906 0.13627513 -0.08156105 0.48539227 0.2732416 -0.068618886 0.25421703
-0.2675104 0.16066797 0.0018602328 0.110428125 -0.2000932 -0.032157253 -0.1496389 0.19425772
0.3240247 0.018998358 -0.06815515 -0.016943477 0.0003901354 -0.15061037 0.26236695 0.09473865
-0.0684944 -0.13663836 0.20913766 -0.0074049914 0.16842552 -0.045901436 -0.04999603 0.21287964
0.120156236 0.28558433 -0.06692979 -0.082752064 -0.4563856 -0.18959093 0.05198933 -0.12053803
-0.07737037 -0.077272445 0.09034809 -0.04464068 0.19318672 -0.27708328 0.20732714 0.22886857
-0.07669307 0.15588115 0.028837264 -0.1858218 0.16718678 -0.08426919 0.13928436 -0.12542027
-0.06046632 -0.039257016 -0.22012912 -0.07749165 0.065435186 -0.0087580485 -0.23214546 -0.19273113
0.4284406 0.12437365 -0.14540514 -0.114732616 -0.6277523 -0.17266065 -0.089136936 0.0034867218
0.11088774 -0.073954076 -0.07045511 -0.08418668 -0.09318787 -0.2773652 0.2231663 -0.014442924
0.124461375 0.14305851 -0.20979369 0.091518834 -0.16201167 0.21370319 0.008077144 -0.08559428
-0.26437557 -0.15153702 0.028155213 -0.090943865 -0.22869718 -0.09682352 0.33270732 0.23516883
0.08319714 0.4797993 0.05631466 -0.32067096 0.096219204 -0.13349134 -0.05211379 0.0008335638
0.1446764 0.05120021 0.17486708 -0.20280209 -0.2400794 0.16140135 -0.185802 0.05932667
-0.1182769 -0.10715275 0.13739474 0.10293542 -0.18054938 -0.003371889 -0.07826816 0.26788437
-0.13078797 0.114732176 -0.17858157 0.27094606 -0.192815 -0.02699226 0.08316247 0.1922835
0.035482574 0.2494833 -0.061035696 0.11595996 0.27966788 0.1558083 0.14711455 0.13744234
-0.18645202 -0.21624245 -0.18164948 0.2336904 -0.01534267 -0.13677202 0.1938046 0.08687954
-0.23909374 -0.11464606 -0.19463587 -0.1794408 0.2702822 -0.04937975 -0.18106781 -0.0416035
0.12877946 -0.06398749 -0.06941693 0.18295762 -0.0094201565 -0.12289167 -0.003324422 0.11999235
0.099986434 0.022548232 -0.14211233 0.05095461 -0.13444313 -0.16246799 0.030734735 0.076945044
-0.14232536 -0.19077072 -0.16838853 -0.26310295 0.007042277 -0.043487404 -0.23393013 0.11944355
0.074930884 0.3630049 -0.121522166 0.31477195 -0.10870055 0.108297825 0.11757846 0.09525144

model.models.many-body.interactions.1.Phi.linear_layers.0.bias f4 [16]
00000000: ff44 d1bd a8bc 843d 4959 2f3e 3c87 cc3d
00000010: 8e62 7bbd d8a8 f4bd c787 6dbd 5172 113d
00000020: d3d2 4abe 923e 6abc 53d1 e4bd 18d1 87bd
00000030: 30a5 d53c 1fa6 53bd 44e0 313e fcc4 143e
-0.10218238 0.06481296 0.17123903 0.099867314 -0.061373286 -0.11946267 -0.057990815 0.03550941
-0.19806986 -0.0142971445 -0.11172738 -0.06631678 0.026079744 -0.051672097 0.17370707 0.14528269
