Class-2/graph-pes-results/train-PaiNN/checkpoints/last.ckpt (torch, 233003 bytes, 136 tensors)

model.models.offset._offsets f4 [119, 1]
0.0 0.0 0.0 0.0 0.0 0.0 -148.314 0.0
0.0 0.0 0.0 0.0 0.0 0.0 0.0 0.0
0.0 0.0 0.0 0.0 0.0 0.0 0.0 0.0
0.0 0.0 0.0 0.0 0.0 0.0 0.0 0.0
0.0 0.0 0.0 0.0 0.0 0.0 0.0 0.0
0.0 0.0 0.0 0.0 0.0 0.0 0.0 0.0
0.0 0.0 0.0 0.0 0.0 0.0 0.0 0.0
0.0 0.0 0.0 0.0 0.0 0.0 0.0 0.0
0.0 0.0 0.0 0.0 0.0 0.0 0.0 0.0
0.0 0.0 0.0 0.0 0.0 0.0 0.0 0.0
0.0 0.0 0.0 0.0 0.0 0.0 0.0 0.0
0.0 0.0 0.0 0.0 0.0 0.0 0.0 0.0
0.0 0.0 0.0 0.0 0.0 0.0 0.0 0.0
0.0 0.0 0.0 0.0 0.0 0.0 0.0 0.0
0.0 0.0 0.0 0.0 0.0 0.0 0.0
00000000: 0000 0000 0000 0000 0000 0000 0000 0000
00000010: 0000 0000 0000 0000 6250 14c3 0000 0000
00000020: 0000 0000 0000 0000 0000 0000 0000 0000
00000030: 0000 0000 0000 0000 0000 0000 0000 0000
00000040: 0000 0000 0000 0000 0000 0000 0000 0000
00000050: 0000 0000 0000 0000 0000 0000 0000 0000
00000060: 0000 0000 0000 0000 0000 0000 0000 0000
00000070: 0000 0000 0000 0000 0000 0000 0000 0000
00000080: 0000 0000 0000 0000 0000 0000 0000 0000
00000090: 0000 0000 0000 0000 0000 0000 0000 0000
000000a0: 0000 0000 0000 0000 0000 0000 0000 0000
000000b0: 0000 0000 0000 0000 0000 0000 0000 0000
000000c0: 0000 0000 0000 0000 0000 0000 0000 0000
000000d0: 0000 0000 0000 0000 0000 0000 0000 0000
000000e0: 0000 0000 0000 0000 0000 0000 0000 0000
000000f0: 0000 0000 0000 0000 0000 0000 0000 0000
00000100: 0000 0000 0000 0000 0000 0000 0000 0000
00000110: 0000 0000 0000 0000 0000 0000 0000 0000
00000120: 0000 0000 0000 0000 0000 0000 0000 0000
00000130: 0000 0000 0000 0000 0000 0000 0000 0000
00000140: 0000 0000 0000 0000 0000 0000 0000 0000
00000150: 0000 0000 0000 0000 0000 0000 0000 0000
00000160: 0000 0000 0000 0000 0000 0000 0000 0000
00000170: 0000 0000 0000 0000 0000 0000 0000 0000
00000180: 0000 0000 0000 0000 0000 0000 0000 0000
00000190: 0000 0000 0000 0000 0000 0000 0000 0000
000001a0: 0000 0000 0000 0000 0000 0000 0000 0000
000001b0: 0000 0000 0000 0000 0000 0000 0000 0000
000001c0: 0000 0000 0000 0000 0000 0000 0000 0000
000001d0: 0000 0000 0000 0000 0000 0000

model.models.many-body.z_embedding._embeddings f4 [119, 16]
-0.68199056 1.3903778 -0.57241017 -1.0857099 -0.9571057 -0.99977016 -1.0326986 -0.13156629
-0.6319362 0.2463388 0.16950023 0.41233888 1.4595715 -1.842986 -0.27373725 -0.16914158
1.3555858 0.3539264 -1.1084331 -0.97411853 0.7014178 -0.71125543 -0.8178138 -0.5722752
-1.0346901 0.800744 -0.44883558 0.816339 -1.5535907 -0.50334936 1.0282911 1.5947894
-0.88424385 -2.2903883 -0.37813616 -0.69739604 1.3144773 1.0409998 1.7655603 -0.7951884
0.39238966 -1.8894652 0.39029816 -0.3811132 -0.9112004 0.21529034 -1.3477911 0.31491774
0.4118333 -0.47708097 0.33726403 0.3187536 -1.7338499 -1.436275 -0.5666217 -0.4654428
-1.1313355 -0.309679 -1.1200509 1.1304289 0.8888587 0.9125488 -1.2977198 -0.16668475
-0.43367553 -1.1542356 -0.19829726 -1.0869613 0.9716069 -0.71608853 0.0066244556 0.4717244
-0.013587719 -0.49575678 -0.2782714 -0.41765103 0.31199417 0.07717142 0.6277858 -0.17177051
-0.53051615 1.3273959 -0.6252084 -0.24579674 -1.0878354 -0.7837127 -1.0981896 0.7954541
0.6619251 -0.25045145 0.41391185 -0.296585 -0.73147434 -0.63132834 -0.8790337 0.99016017
-1.3256731 0.7169687 -0.78475964 -0.21223737 0.27597997 -0.051978093 1.3458819 1.9273863
-0.35221362 0.52643913 -2.1382482 -0.15335652 0.082708485 -1.4047451 0.6216247 -1.0488594
1.7593615 -0.2999918 0.3351762 -1.1368637 -1.4640126 0.00843619 0.9560486 -2.121408
-1.2647705 0.65252876 -0.040546194 0.0655675 -0.957438 -0.0590805 1.0036504 -0.8118652
1.1058654 1.1012024 0.84623253 1.2422092 -1.0330902 0.82774496 -1.8034257 -0.9864021
0.31656197 -0.18466426 0.22671962 -0.9259491 1.3536892 -0.5762727 -0.8254412 0.5566371
-0.46790427 -0.65057266 0.22798328 -1.6150955 0.0126775345 -0.23103769 1.2650495 -1.6012925
0.76760906 1.1433529 1.2787641 -1.4427876 -0.7644386 -0.040513325 -0.87437224 -1.0021865
-1.4226657 0.4913568 2.3781757 0.76068455 -0.2961931 -1.258687 1.6581539 -1.9169604
-1.2586386 1.6346681 -0.15508568 -0.7197523 0.6663254 -2.5923147 -0.7005221 0.34452277
0.7634038 0.98015314 0.31009647 1.0396773 -0.6133143 0.5624504 0.0060463324 -1.5741595
2.6556342 -0.3332793 -1.3714689 -1.5626285 0.47379783 0.27463987 -2.322346 -0.3584819
-0.23904462 -1.7946022 -0.22093633 1.1408765 0.07531612 -1.3848665 0.30568314 -0.9132914
-0.7518132 1.2356372 1.0919725 -0.6999361 1.9508812 -0.56722087 0.13073559 1.2866604
-0.39360818 -0.87405634 0.11598436 -1.2677487 -1.3021308 1.0263776 -1.1056978 -0.4633286
-0.72090477 1.684146 -0.414654 -0.9223621 -0.5266391 0.060025655 1.4958438 0.3657822
0.5808353 0.015538622 -0.09944178 0.8392241 -0.553764 1.0887069 1.7850807 0.83556056
-0.12031716 0.12740123 0.21571429 0.80209506 -0.3650246 0.61351246 -0.70944506 0.038215887
0.61267626 0.85315275 -1.2412653 -0.31165475 -1.9559128 -0.9767503 -0.96776885 -0.65967363
0.08107773 -1.7887992 -0.27571908 0.50088525 -0.7708994 0.86736274 -0.6720814 -1.0251763
00000000: ef96 2ebf e6f7 b13f 7989 12bf 8bf8 8abf
00000010: e104 75bf f0f0 7fbf 782f 84bf 50b9 06be
00000020: 92c6 21bf 3d40 7c3e 7891 2d3e 151e d33e
00000030: 3dd3 ba3f f7e6 ebbf 4a27 8cbe 7333 2dbe
00000040: d683 ad3f d735 b53e 23e1 8dbf d55f 79bf
00000050: 1e90 333f d614 36bf 3f5c 51bf a180 12bf
00000060: ba70 84bf 8ffd 4c3f c7cd e5be 98fb 503f
00000070: 0fdc c6bf 81db 00bf 0b9f 833f 0f22 cc3f
00000080: ce5d 62bf b995 12c0 109b c1be 8c88 32bf
00000090: cb40 a83f 7b3f 853f e1fd e13f 7891 4bbf
000000a0: 4ce7 c83e ffd9 f1bf 29d5 c73e 4521 c3be
000000b0: 6e44 69bf 1275 5c3e 6b84 acbf e63c a13e
000000c0: d0db d23e f543 f4be dfad ac3e ac33 a33e
000000d0: cbee ddbf dcd7 b7bf 1f0e 11bf 854e eebe
000000e0: 9acf 90bf 3f8e 9ebe d45d 8fbf e5b1 903f
000000f0: 3e8c 633f cc9c 693f af1b a6bf 68af 2abe
00000100: b80a debe febd 93bf 700e 4bbe 8c21 8bbf
00000110: 3bbb 783f 9451 37bf f611 d93b dc85 f13e
00000120: 069f 5ebc d5d3 fdbe 9779 8ebe 5bd6 d5be
00000130: b3bd 9f3e 0d0c 9e3d 92b6 203f 9ce4 2fbe
00000140: e8cf 07bf 1ce8 a93f a80d 20bf 24b2 7bbe
00000150: 313e 8bbf 65a1 48bf 7a91 8cbf e1a2 4b3f
00000160: ec73 293f 2c3b 80be 41ec d33e fdd9 97be
00000170: e741 3bbf bc9e 21bf 5a08 61bf 237b 7d3f
00000180: a8af a9bf 438b 373f 02e6 48bf c154 59be
00000190: 3f4d 8d3e fbe6 54bd dc45 ac3f 98b4 f63f
000001a0: 5855 b4be b7c4 063f 0fd9 08c0 7e09 1dbe
000001b0: 1163 a93d b0ce b3bf cc22 1f3f 0641 86bf
000001c0: c232 e13f 8698 99be 379c ab3e c084 91bf
000001d0: c464 bbbf f237 0a3c 9abf 743f 26c5 07c0
000001e0: 00e4 a1bf 200c 273f c413 26bd 4148 863d
000001f0: a81a 75bf 65fe 71bd 9e77 803f 66d6 4fbf
00000200: ff8c 8d3f 33f4 8c3f b2a2 583f b600 9f3f
00000210: 4d3c 84bf 18e7 533f a7d6 e6bf d984 7cbf
00000220: 6914 a23e a118 3dbe 3029 683e 000b 6dbf
00000230: b045 ad3f 9c86 13bf 1d50 53bf c57f 0e3f
00000240: 2691 efbe ee8b 26bf 7374 693e 73bb cebf
00000250: 6fb5 4f3c 2595 6cbe 24ed a13f 27f7 ccbf
00000260: 0782 443f 6359 923f 8bae a33f 44ad b8bf
00000270: 40b2 43bf 4df1 25bd dcd6 5fbf a647 80bf
00000280: e919 b6bf 1e93 fb3e 0834 1840 39bc 423f
00000290: 9fa6 97be a81c a1bf 633e d43f f55e f5bf
000002a0: 121b a1bf ce3c d13f c8ce 1ebe b041 38bf
000002b0: 4d94 2a3f 7ce8 25c0 6b55 33bf 4a65 b03e
000002c0: 6e6e 433f 51eb 7a3f f7c4 9e3e 2514 853f
000002d0: 2a02 1dbf c0fc 0f3f 5020 c63b 0f7e c9bf
000002e0: e9f5 2940 96a3 aabe 4b8c afbf 3604 c8bf
000002f0: a195 f23e 999d 8c3e 51a1 14c0 f18a b7be
00000300: 1dc8 74be 86b5 e5bf 223d 62be 3e08 923f
00000310: 573f 9a3d 4e43 b1bf 8082 9c3e 77cd 69bf
00000320: d476 40bf 5c29 9e3f c1c5 8b3f 032f 33bf
00000330: 7ab6 f93f 6335 11bf 8ddf 053e 4ab1 a43f
00000340: 0387 c9be 28c2 5fbf 3589 ed3d 9745 a2bf
00000350: 39ac a6bf 5760 833f 8187 8dbf 6839 edbe
00000360: 378d 38bf 1992 d73f 874d d4be ec1f 6cbf
00000370: d2d1 06bf 76dd 753d cf77 bf3f ce47 bb3e
00000380: 9fb1 143f b495 7e3c 22a8 cbbd 64d7 563f
00000390: 7ac3 0dbf bf5a 8b3f 867d e43f 4ce7 553f
000003a0: d868 f6bd 7875 023e 35e4 5c3e 1a56 4d3f
000003b0: 81e4 babe 270f 1d3f 319e 35bf 4388 1c3d
000003c0: 5ad8 1c3f 3868 5a3f c8e1 9ebf 3691 9fbe
000003d0: 5a5b fabf 4f0c 7abf b3bf 77bf 5fe0 28bf
000003e0: 150c a63d 5ff7 e4bf 0d2b 8dbe 043a 003f
000003f0: aa59 45bf 7c0b 5e3f 870d 2cbf fa38 83bf

model.models.many-body.interactions.0.filter_generator.components.0.0.frequencies f4 [15]
0.9589268 1.456628 2.2459462 3.1318944 3.9773965 4.7560906 5.2072787 6.0674853
7.1118674 7.6681433 8.715934 9.513875 10.250345 10.686197 11.818701
00000000: 3a7c 753f c972 ba3f 95bd 0f40 f570 4840
00000010: aa8d 7e40 e531 9840 07a2 a640 d728 c240
00000020: 6b94 e340 6e61 f540 7774 0b41 d538 1841
00000030: 6a01 2441 aafa 2a41 6619 3d41

model.models.many-body.interactions.0.filter_generator.components.0.1.weight f4 [48, 15]
-0.17585494 0.22687112 0.058676463 0.094703756 -0.34259588 0.10250722 0.25794595 -0.13862707
-0.027124053 -0.06834765 -0.02494977 -0.11274342 0.1130552 0.065672144 0.06303182 -0.02746254
0.2062113 -0.03376442 -0.3755763 -0.22463684 0.312214 0.03849822 0.047760617 -0.09247391
-0.14769246 -0.12728156 0.04732871 0.14894497 0.048553783 -0.09594373 0.005073928 0.27513406
0.21986733 0.2072865 0.056433138 0.30116597 0.2139538 -0.073832296 0.21494573 -0.21387231
0.05364269 -0.15230381 0.11841667 0.14435655 0.099998534 -0.07763423 -0.18394366 -0.11114344
0.18219183 0.4473634 -0.12674801 -0.119582705 -0.0060721217 -0.11161756 0.18364507 -0.019348918
0.048869457 -0.09640902 -0.16307607 0.07385027 0.14130048 0.43004835 -0.030480059 0.0773349
-0.101943895 -0.27047953 0.11972272 0.19481987 -0.23171285 0.12239415 0.03704197 -0.050972357
0.09940745 -0.069419675 -0.116247736 0.103416905 -0.28025767 -0.22638813 0.18390258 -0.007929215
-0.009704708 0.21615566 -0.0556686 -0.16071345 0.13068539 0.27332795 0.00070773653 0.16553596
-0.24214725 0.08868762 0.23736052 0.109337196 -0.12978737 -0.25135145 -0.14026001 -0.039765455
0.010732476 0.15403067 -0.07810236 -0.38727757 -0.3105536 -0.19740194 0.15409783 0.014753724
-0.05289995 -0.1357967 0.06696498 -0.0107379835 -0.036638334 0.27279657 -0.09758462 -0.21091281
0.072593 0.0867624 0.26544955 0.14274837 -0.12881754 0.09533217 -0.022972865 0.056585625
-0.08202642 0.50848264 -0.07028593 -0.53748566 -0.44629005 0.42409945 -0.043705266 0.051717382
-0.06959026 0.016590904 -0.030290559 -0.14959222 -0.057845756 -0.09336568 0.0022032256 0.15129678
0.19971591 -0.072620116 0.14218104 -0.0011995769 0.21704212 0.16610374 0.012393191 0.11991193
0.009021172 -0.030448096 -0.050722566 -0.16318968 0.12449419 0.14946614 -0.04104351 0.13261497
0.1641733 -0.08152148 -0.0891192 0.1494133 0.11546867 0.17577933 0.061594557 -0.031187737
0.061190013 0.015949374 0.08766152 -0.17446114 -0.143364 -0.066524714 -0.08044428 -0.18877986
-0.20003738 -0.12258869 0.2630011 0.059895393 -0.21779843 -0.26105154 -0.0059383796 -0.09845118
-0.24672851 0.114961915 -0.09223245 -0.022813577 0.24812548 1.2316219 -0.93971103 0.24986431
0.308935 -0.1152939 0.13625707 -0.038421307 0.066278525 0.13380297 -0.089690596 0.020309418
-0.1072229 0.07020965 -0.032358162 0.06076766 0.1244662 0.0854148 -0.2415288 0.2811082
0.07420704 -0.14449522 0.06692348 0.11725536 -0.14922242 -0.21369277 0.028208477 -0.015015979
-0.0050186636 -0.067266874 0.045448314 -0.23114195 4.3367414e-05 -0.4758213 0.0863205 -0.12417644
-0.28524145 -0.07582585 -0.10138583 0.13605422 -0.12490698 -0.04433979 -0.13272695 -0.020591052
-0.18478918 -0.18100952 -0.13953014 0.06915217 -0.105234 -0.21765247 0.15589932 0.030704938
0.15731344 0.05758982 -0.1288731 -0.18568566 -0.062728025 -0.1742935 -0.18796013 -0.2276352
-0.27588472 -0.701042 0.45523638 0.6607485 0.15909116 0.14747962 -0.2028647 -0.28931656
0.2024356 -0.17743157 -0.051996388 0.06306639 0.052486654 0.086716026 -0.10043549 0.38546672
00000000: 5113 34be e750 683e bb56 703d 0bf4 c13d
00000010: ba68 afbe 4eef d13d 7e11 843e 41f4 0dbe
00000020: 4333 debc daf9 8bbd 7663 ccbc 06e6 e6bd
00000030: 7c89 e73d 1e7f 863d d416 813d 1ff9 e0bc
00000040: 0e29 533e 8f4c 0abd 894b c0be 3307 66be
00000050: 83da 9f3e 4fb0 1d3d a3a0 433d f662 bdbd
00000060: b13c 17be 1956 02be c0db 413d 0885 183e
00000070: 55e0 463d 257e c4bd 3143 a63b 5fde 8c3e
00000080: e724 613e ea42 543e 6f26 673d 6d32 9a3e
00000090: b416 5b3e 6335 97bd bc1a 5c3e 5801 5bbe
000000a0: 70b8 5b3d 88f5 1bbe 7084 f23d 34d2 133e
000000b0: 08cc cc3d b2fe 9ebd ba5b 3cbe 2c9f e3bd
000000c0: 7f90 3a3e d10c e53e 3bca 01be c7e7 f4bd
000000d0: a6f8 c6bb bf97 e4bd 740d 3c3e 9f81 9ebc
000000e0: 572b 483d 1872 c5bd 6afd 26be cf3e 973d
000000f0: 13b1 103e 4c2f dc3e 51b1 f9bc c361 9e3d
00000100: f6c7 d0bd 4b7c 8abe 2f31 f53d dc7e 473e
00000110: 2246 6dbe c9a9 fa3d 52b9 173d 64c8 50bd
00000120: 2296 cb3d e72b 8ebd 4b13 eebd 3ecc d33d
00000130: ef7d 8fbe 4ad2 67be f550 3c3e 8ae9 01bc
00000140: 7f00 1fbc e957 5d3e c204 64bd 1192 24be
00000150: 64d2 053e a4f1 8b3e 6587 393a 4282 293e
00000160: 73f5 77be dba1 b53d a30e 733e 2eec df3d
00000170: fbe6 04be 23b1 80be 52a0 0fbe 1ae1 22bd
00000180: 44d7 2f3c 37ba 1d3e 21f4 9fbd 3f49 c6be
00000190: e200 9fbe bc23 4abe d2cb 1d3e 9bb9 713c
000001a0: 9ead 58bd 4a0e 0bbe ef24 893d 5eee 2fbc
000001b0: 1412 16bd feab 8b3e 72da c7bd 87f9 57be
000001c0: a4ab 943d 7cb0 b13d 01e9 873e a12c 123e
000001d0: bfe8 03be 833d c33d 9731 bcbc 54c6 673d
000001e0: 78fd a7bd eb2b 023f 12f2 8fbd a998 09bf
000001f0: 2180 e4be 9023 d93e 4b04 33bd 9bd5 533d
00000200: 5785 8ebd a6e9 873c e823 f8bc b42e 19be
00000210: acef 6cbd 8136 bfbd fe63 103b 8bed 1a3e
00000220: 5482 4c3e dbb9 94bd e897 113e 1f3b 9dba
00000230: 4a40 5e3e 1917 2a3e d00c 4b3c 6394 f53d
00000240: 8acd 133c 496e f9bc 77c2 4fbd 321b 27be
00000250: cff6 fe3d a70d 193e 3d1d 28bd 38cc 073e
00000260: 0c1d 283e bcf4 a6bd 2184 b6bd cdff 183e
00000270: d77a ec3d 7fff 333e 934a 7c3d 6d7d ffbc
00000280: 61a2 7a3d 43a8 823c e287 b33d f1a5 32be
00000290: 03ce 12be 1c3e 88bd f8bf a4bd 824f 41be
000002a0: 99d6 4cbe c70f fbbd 15a8 863e df54 753d
000002b0: 8d06 5fbe 8ca8 85be bd96 c2bb c6a0 c9bd
000002c0: 66a6 7cbe 2771 eb3d 5ee4 bcbd 8ae3 babc
000002d0: 9b14 7e3e c9a5 9d3f e790 70bf 6edc 7f3e
000002e0: ba2c 9e3e 351f ecbd f986 0b3e a95f 1dbd
000002f0: 09bd 873d a503 093e b4af b7bd f05f a63c
00000300: ae97 dbbd 14ca 8f3d fe89 04bd 83e7 783d
00000310: 23e8 fe3d f4ed ae3d 5353 77be 6aed 8f3e
00000320: dcf9 973d 8ef6 13be 2d0f 893d 9423 f03d
00000330: c3cd 18be 47d2 5abe 7715 e73c 9505 76bc
00000340: 9a73 a4bb 37c3 89bd 0328 3a3d 7ab0 6cbe
00000350: 68e5 3538 d99e f3be cdc8 b03d 3850 febd
00000360: 2b0b 92be 954a 9bbd 60a3 cfbd cc51 0b3e
00000370: 3bcf ffbd a49d 35bd 93e9 07be 91ae a8bc
00000380: 6039 3dbe 8f5a 39be fde0 0ebe a79f 8d3d
00000390: ec84 d7bd 4ae0 5ebe 12a4 1f3e ec88 fb3c
000003a0: c616 213e 4ee3 6b3d 4ff7 03be 6224 3ebe
000003b0: 8d77 80bd ff79 32be 9f78 40be 3419 69be
000003c0: c340 8dbe 7d77 33bf be14 e93e d026 293f
000003d0: cbe8 223e e604 173e c4bb 4fbe 4d21 94be
000003e0: 474b 4f3e 9fb0 35be 2afa 54bd f428 813d
000003f0: 3ffc 563d 2c98 b13d 1fb1 cdbd e55b c53e

model.models.many-body.interactions.0.filter_generator.components.0.1.bias f4 [48]
-0.084937595 0.19572279 -0.019132068 0.16200253 0.1163694 -0.09897546 -0.04998892 0.17663635
-0.09167618 0.23116921 -0.064714186 -0.072849095 -0.15650451 0.019085996 0.15132976 -0.0017873491
-0.06868247 0.22579055 -0.21125282 -0.10356208 -0.14663729 -0.016412674 -0.08330329 0.05227412
0.38843295 -0.13940065 0.26245123 0.093300566 -0.23280816 0.050870474 -0.09744511 0.07667503
0.029084984 0.046521094 0.03395665 0.204749 -0.22444184 -0.19682713 0.047192797 -0.18488641
-0.1274857 -0.019071188 0.07855012 0.062184557 0.049194746 0.049066972 -0.17713094 -0.097599894
00000000: c3f3 adbd 8e6b 483e dbba 9cbc fee3 253e
00000010: 1453 ee3d a5b3 cabd 2fc1 4cbd 29e0 343e
00000020: b9c0 bbbd 9fb7 6c3e df88 84bd e831 95bd
00000030: b842 20be 3c5a 9c3c 30f6 1a3e 7c45 eaba
00000040: 65a9 8cbd a335 673e a952 58be 5b18 d4bd
00000050: 1628 16be df73 86bc ea9a aabd 631d 563d
00000060: afe0 c63e 0bbf 0ebe 0260 863e 5e14 bf3d
00000070: 4365 6ebe 8f5d 503d 4d91 c7bd cc07 9d3d
00000080: a243 ee3c e78c 3e3d 2116 0b3d b9a9 513e
00000090: 15d4 65be 0d8d 49be 3c4d 413d dd52 3dbe
000000a0: 9d8b 02be 2e3b 9cbc e3de a03d 3cb5 7e3d
000000b0: 6e80 493d 73fa 483d d061 35be 74e2 c7bd

model.models.many-body.interactions.0.filter_generator.components.1.coefficients f4 [3]
-28.0 48.0 -21.0
00000000: 0000 e0c1 0000 4042 0000 a8c1

model.models.many-body.interactions.0.Phi.linear_layers.0.weight f4 [16, 16]
-0.09560234 -0.049536273 0.0062863934 0.26616514 -9.6762284e-05 0.11726447 -0.29879886 0.11997112
-0.045895234 -0.14472936 0.21316323 0.19431524 0.12480421 0.03459535 -0.124895036 0.07838403
-0.0039968602 0.1412332 0.038312394 -0.17331183 -0.10630237 0.028964372 0.040455375 -0.11709169
0.19324304 -0.04943951 0.0077641103 -0.08919509 0.11612852 0.12757118 -0.16413674 -0.13287544
-0.104033165 -0.019980744 0.01995996 0.044866428 -0.094007246 0.10668311 0.20128918 0.20385751
-0.062060878 0.15382358 0.026213868 0.1637498 0.026690857 -0.07182477 -0.14450707 -0.13385704
-0.11116257 0.015018387 -0.15001197 0.09163815 0.16649649 -0.21551219 -0.019572672 -0.10375025
-0.056239564 -0.009457446 -0.22317356 -0.20280878 -0.11771835 -0.14720961 -0.07254171 -0.07681749
-0.09997654 -0.17258194 -0.12673728 -0.13132842 -0.030041793 -0.06820572 -0.02936091 0.07360483
-0.14202303 0.014181456 0.2153835 -0.16869433 0.07234902 0.06772266 -0.042841945 -0.13694432
-0.008719106 -0.10770427 -0.1525345 -0.21908975 0.21560657 0.18625647 0.14311717 -0.18929908
-0.15593494 0.21884526 0.13370809 -0.059012134 0.07858403 -0.16229938 -0.074683934 -0.049659166
-0.23591846 0.11921447 -0.012146479 0.0013973508 -0.16749713 0.10798993 0.16148086 0.17334637
-0.20112829 -0.030509412 -0.04258626 -0.04623703 0.15796545 -0.19825393 0.015338463 -0.20516652
-0.07360236 -0.08272305 0.03983992 -0.008848252 0.09978098 0.055277318 0.07627255 -0.021976897
-0.007093425 0.013677583 -0.0063004456 -0.17624976 -0.17407008 -0.051865272 0.17211476 0.07378898
0.23291759 -0.27569306 0.24359806 0.28241456 0.040944796 -0.02731435 -0.22430572 -0.053337384
0.20064555 -0.18859069 0.01796921 0.19171238 0.21175177 -0.06347814 -0.032612417 0.05882192
0.09620762 -0.061717547 0.18469068 0.11519793 0.1005931 0.1159515 -0.14458741 0.090096556
0.04275184 0.10216266 0.1450143 0.064529315 -0.2469289 0.01585489 0.051432855 0.10300331
-0.020325985 0.049853146 0.19379684 -0.07219709 -0.23471498 0.08730675 -0.09336028 -0.15173167
0.070502706 0.1119898 -0.011020881 -0.03720238 0.0054545566 0.07319164 -0.1599645 0.28434974
-0.050906144 -0.2591957 0.26237565 0.15954292 0.038106192 -0.1428088 -0.1565012 -0.035679914
0.22206755 -0.22241691 -0.13182189 -0.15893751 0.13626842 0.069824874 0.001228625 0.06679338
0.0652505 0.16625741 -0.002276363 -0.069120884 0.2203775 -0.1384006 -0.001553192 -0.15724999
-0.25165313 0.17772074 -0.069851205 -0.054776307 0.11538741 0.12154709 0.046937138 -0.073410496
-0.21095827 -0.06804693 0.028187394 -0.015172321 0.1777431 -0.17221808 -0.027883437 0.17370075
0.0104858475 0.009853499 -0.06449038 -0.081618205 0.2565936 -0.0932286 0.10101255 -0.03866566
0.12125971 -0.1765441 0.0354581 0.23073263 -0.24932331 -0.14044821 0.104527704 -0.016750395
-0.057698335 -0.12361148 0.2684996 -0.026553147 0.17868672 0.2656335 0.08274835 0.013522443
0.13038947 0.1639398 0.054586995 -0.13491413 -0.26103362 0.12997617 -0.016760986 -0.14258312
0.0010387222 -0.11537141 -0.16459621 0.110247925 -0.095226005 0.19094491 0.101646215 0.008751885
00000000: 29cb c3bd 8ce6 4abd 17fe cd3b cc46 883e
00000010: dbec cab8 5b28 f03d 2afc 98be 6bb3 f53d
00000020: a4fc 3bbd ef33 14be 7647 5a3e 93fa 463e
00000030: 5a99 ff3d dbb3 0d3d f8c8 ffbd ce87 a03d
00000040: 18f8 82bb 709f 103e 75ed 1c3d a878 31be
00000050: 0fb5 d9bd b146 ed3c 89b4 253d c5cd efbd
00000060: 81e1 453e 1581 4abd 146a fe3b eaab b6bd
00000070: cad4 ed3d 05a2 023e 7613 28be 8010 08be
00000080: 570f d5bd a8ae a3bc 1283 a33c dcc5 373d
00000090: df86 c0bd ad7c da3d c01e 4e3e 06c0 503e
000000a0: 8c33 7ebd ee83 1d3e 77be d63c 07ae 273e
000000b0: c9a6 da3c dd18 93bd a9f9 13be d211 09be
000000c0: 34a9 e3bd ae0f 763c bd9c 19be c8ac bb3d
000000d0: 0e7e 2a3e 3aaf 5cbe de56 a0bc 037b d4bd
000000e0: 755b 66bd 67f3 1abc 9c87 64be 1bad 4fbe
000000f0: 5116 f1bd 1ebe 16be c090 94bd 7d52 9dbd
00000100: 80c0 ccbd 52b9 30be 6bc7 01be f57a 06be
00000110: 351a f6bc 71af 8bbd 4b86 f0bc 21be 963d
00000120: 7c6e 11be 5659 683c 7e8d 5c3e 35be 2cbe
00000130: b92b 943d 2eb2 8a3d 097b 2fbd 223b 0cbe
00000140: 95da 0ebc 0e94 dcbd 0132 1cbe 1059 60be
00000150: f8c7 5c3e 04ba 3e3e 4f8d 123e 9ed7 41be
00000160: 69ad 1fbe f918 603e c6ea 083e b5b6 71bd
00000170: aaf0 a03d cf31 26be e4f3 98bd 6967 4bbd
00000180: 9c94 71be b726 f43d 0702 47bc 5027 b73a
00000190: 5e84 2bbe d329 dd3d 3d5b 253e b681 313e
000001a0: 93f4 4dbe e0ee f9bc ee6e 2ebd 0a63 3dbd
000001b0: b2c1 213e 1403 4bbe 2d4e 7b3c 2c17 52be
000001c0: d6bc 96bd b46a a9bd 2f2f 233d 42f8 10bc
000001d0: f859 cc3d 786a 623d c834 9c3d e508 b4bc
000001e0: f66f e8bb f117 603c f873 cebb d17a 34be
000001f0: 6d3f 32be ae70 54bd da3e 303e ad1e 973d
00000200: f381 6e3e a427 8dbe c571 793e a498 903e
00000210: bbb5 273d 58c2 dfbc 66b0 65be 4d78 5abd
00000220: 0776 4d3e eb1d 41be 2a34 933c 4050 443e
00000230: 75d5 583e d400 82bd 9994 05bd 41ef 703d
00000240: 8008 c53d 8acb 7cbd 8e1f 3d3e e4ec eb3d
00000250: c103 ce3d fb77 ed3d b90e 14be 8b84 b83d
00000260: 8e1c 2f3d a83a d13d a17e 143e f227 843d
00000270: eeda 7cbe 1de2 813c 42ab 523d 66f3 d23d
00000280: ae82 a6bc d032 4c3d ae72 463e 11dc 93bd
00000290: 2059 70be e2cd b23d ad33 bfbd 8c5f 1bbe
000002a0: b963 903d e95a e53d ed90 34bc 8661 18bd
000002b0: 23bc b23b 80e5 953d bccd 23be 4a96 913e
000002c0: f682 50bd 4cb5 84be 1a56 863e 385f 233e
000002d0: 3d15 1c3d 783c 12be da41 20be 1a25 12bd
000002e0: ad65 633e 42c1 63be 51fc 06be 84c0 22be
000002f0: f389 0b3e 5800 8f3d d009 a13a f8ca 883d
00000300: 0ea2 853d 623f 2a3e 092f 15bb 408f 8dbd
00000310: a4aa 613e e3b8 0dbe 7a94 cbba 2406 21be
00000320: aed8 80be 6dfc 353e 260e 8fbd 1f5d 60bd
00000330: 3c50 ec3d aeed f83d 2841 403d 3e58 96bd
00000340: 7205 58be 305c 8bbd 40e9 e63c 5495 78bc
00000350: 4a02 363e f059 30be ce6b e4bc 9cde 313e
00000360: d5cc 2b3c 9270 213c 8813 84bd 7227 a7bd
00000370: 3d60 833e a3ee bebd abdf ce3d e25f 1ebd
00000380: 0357 f83d fac7 34be 833c 113d 2d45 6c3e
00000390: 9c4e 7fbe a8d1 0fbe 9f12 d63d 2038 89bc
000003a0: 1755 6cbd 0428 fdbd c878 893e fc85 d9bc
000003b0: a7f9 363e 1d01 883e f877 a93d 3d8d 5d3c
000003c0: d184 053e d6df 273e 9d96 5f3d ee26 0abe
000003d0: 33a6 85be 7918 053e 564e 89bc 4f01 12be
000003e0: bc25 883a d947 ecbd e98b 28be aac9 e13d
000003f0: da05 c3bd 1087 433e e42b d03d 1164 0f3c

model.models.many-body.interactions.0.Phi.linear_layers.0.bias f4 [16]
-0.16193129 -0.062496167 -0.16209738 0.016196901 0.14624858 -0.14655247 0.05906134 0.16341923
-0.220497 -0.027268594 -0.27232382 0.021919478 -0.03794642 0.027328542 -0.019839302 -0.19121242
00000000: 51d1 25be fbfb 7fbd dbfc 25be 5daf 843c
00000010: 30c2 153e da11 16be 4eea 713d 5f57 273e
00000020: f7c9 61be 6362 dfbc 076e 8bbe 7a90 b33c
00000030: b56d 1bbd 1be0 df3c 0886 a2bc 30cd 43be

model.models.many-body.interactions.0.Phi.linear_layers.1.weight f4 [48, 16]
-0.033908825 -0.029976372 -0.318562 -0.13507941 -0.07695755 -0.09552426 -0.08025544 -0.09542196
0.02119027 0.30535877 0.28466827 0.21573704 0.21528398 0.05983504 0.33996454 0.15351276
0.06829134 -0.0016198164 0.06883047 0.24378434 -0.058593843 0.071681306 0.15484196 0.019679677
-0.15166827 -0.0070576887 -0.15695663 -0.18632531 0.063949175 0.123090245 -0.16210079 -0.0705463
0.06819846 -0.038721453 -0.2480073 0.03941092 0.18098679 -0.07315976 -0.22834037 -0.13181692
-0.122078344 -0.1600205 -0.035570025 0.16749635 0.023979537 0.052590765 -0.059141822 0.09608035
-0.26991513 0.060160324 -0.027469188 -0.054185126 0.05684222 -0.1244733 0.07391875 0.030510679
-0.08765282 0.059740625 -0.15488167 -0.017546607 0.13108411 0.12951557 -0.32980418 -0.073013976
-0.10452143 -0.04066168 0.043260258 -0.01560702 0.05047592 -0.14509498 0.11324828 -0.04940635
-0.18075003 -0.12224484 -0.10812285 -0.17260513 -0.08558756 0.17186646 -0.24108295 0.03661493
-0.16612075 -0.2617576 -0.13742635 0.07847848 0.094548546 0.19852485 0.09901217 0.1382838
0.1134728 0.14990062 0.020169353 -0.037871595 0.09996074 0.080277175 -0.11595865 -0.09897144
0.30708122 0.12281132 0.15219894 -0.0759774 0.045530587 0.094231434 0.16252397 -0.114791214
-0.007021108 0.09344172 0.14068231 0.034158885 -0.033315323 -0.119480945 0.13102429 0.25252149
0.0026871683 0.054290902 -0.15864308 0.06447874 0.047778536 0.047774516 -0.12356178 0.046082646
0.085594855 -0.005080577 -0.13271944 0.09344669 0.016124237 0.029634159 -0.11923438 -0.08214663
-0.2674071 -0.11076078 0.3020389 0.20997064 -0.09713569 0.18933335 0.31584933 0.23764732
-0.08858447 -0.39509568 -0.091955625 -0.100712545 0.12954915 0.067739144 -0.29328835 -0.37261575
0.30961776 0.050280984 -0.10400329 -0.20461072 0.071561255 -0.12565963 -0.052888986 0.038444817
-0.12362686 -0.121503316 0.26497856 -0.12786934 0.09519195 -0.105430275 0.15601143 -0.0058884295
0.13310832 -0.12509201 0.061804406 0.10995965 -0.016620386 -0.08977086 -0.028679142 -0.103528135
0.1560709 0.024509545 0.122397706 -0.11357947 0.04512234 -0.023713723 0.17176586 0.010634776
0.20083487 0.032453455 -0.30939084 -0.16086109 0.14541385 -0.069545865 0.14046332 -0.017475253
-0.06296592 -0.083191976 -0.13238528 0.153485 0.12805296 0.013813344 -0.13358584 0.122297265
0.37770754 0.063465394 -0.16849355 -0.061287742 0.07403779 0.12111858 -0.1805643 -0.16270208
0.17350349 0.043456193 0.33855143 0.42529 -0.062077492 -0.2514835 0.27507102 0.29191095
-0.3533837 -0.07976064 0.17799684 0.11854937 -0.07650747 -0.21188258 -0.103479534 0.168573
-0.07363437 -0.009894175 -0.07962266 0.10138089 0.047061738 -0.07855162 0.07105365 -0.08315619
0.22366433 0.023085399 -0.16486809 -0.1733311 -0.029245786 0.11406982 -0.23335035 0.1321657
-0.04417929 -0.10394298 -0.033009168 0.16971123 -0.103634216 -0.0010218692 -0.0680082 0.15440512
0.07116932 0.15472983 0.09979805 0.021702584 0.12886727 -0.13541949 0.09556591 0.13575728
0.0028183567 -0.15615584 0.0121274935 0.2716317 -0.2399788 0.0748608 0.01690023 0.16690786
00000000: fbe3 0abd 0291 f5bc 8f1a a3be 4252 0abe
00000010: ec9b 9dbd 39a2 c3bd f75c a4bd 976c c3bd
00000020: 3897 ad3c fc57 9c3e 0ac0 913e 2cea 5c3e
00000030: 6773 5c3e 9615 753d d50f ae3e 7332 1d3e
00000040: 54dc 8b3d 0550 d4ba fdf6 8c3d 9aa2 793e
00000050: 1900 70bd a6cd 923d e48e 1e3e 4637 a13c
00000060: ed4e 1bbe 2f44 e7bb 3db9 20be 10cc 3ebe
00000070: c9f7 823d bd16 fc3d c0fd 25be 947a 90bd
00000080: a2ab 8b3d 639a 1ebd a0f5 7dbe 586d 213d
00000090: 9a54 393e c9d4 95bd 0fd2 69be 04fb 06be
000000a0: 3604 fabd 6adc 23be e0b1 11bd 2a84 2b3e
000000b0: bc70 c43c 6a69 573d b23e 72bd c6c5 c43d
000000c0: 5132 8abe ac6a 763d 1007 e1bc 39f1 5dbd
000000d0: 63d3 683d dceb febd b762 973d 88f1 f93c
000000e0: 5283 b3bd 96b2 743d 4d99 1ebe e7bd 8fbc
000000f0: ea3a 063e bb9f 043e 18dc a8be 5a88 95bd
00000100: 550f d6bd dd8c 26bd ab31 313d 96b4 7fbc
00000110: d7bf 4e3d c793 14be b7ee e73d 505e 4abd
00000120: 8916 39be 815b fabd 836f ddbd 66bf 30be
00000130: 8848 afbd c3fd 2f3e 73de 76be 89f9 153d
00000140: 8f1b 2abe 1805 86be 7eb9 0cbe 53b9 a03d
00000150: aba2 c13d 194a 4b3e e5c6 ca3d 459a 0d3e
00000160: 6d64 e83d 8c7f 193e 333a a53c 3f1f 1bbd
00000170: 37b8 cc3d 5c68 a43d bb7b edbd 8ab1 cabd
00000180: c039 9d3e 8084 fb3d 0ada 1b3e 0a9a 9bbd
00000190: 487e 3a3d 69fc c03d af6c 263e a817 ebbd
000001a0: 5311 e6bb 5f5e bf3d 060f 103e 30ea 0b3d
000001b0: a675 08bd 6db2 f4bd 3b2b 063e 7f4a 813e
000001c0: 341b 303b 2360 5e3d 5573 22be 6e0d 843d
000001d0: 6db3 433d 36af 433d f50d fdbd 28c1 3c3d
000001e0: 5b4c af3d f87a a6bb 9be7 07be fa60 bf3d
000001f0: fa16 843c 56c3 f23c 2831 f4bd 7e3c a8bd
00000200: 95e9 88be 8cd6 e2bd d8a4 9a3e 8b02 573e
00000210: 14ef c6bd 9ae0 413e 01b7 a13e d259 733e
00000220: c66b b5bd fb49 cabe 3b53 bcbd 6142 cebd
00000230: 88a8 043e d2ba 8a3d e429 96be 7ec7 bebe
00000240: 3886 9e3e 6ff3 4d3d adff d4bd 7985 51be
00000250: b58e 923d ebac 00be 1fa2 58bd 5078 1d3d
00000260: 1430 fdbd bbd6 f8bd 45ab 873e 2ef0 02be
00000270: fff3 c23d d4eb d7bd 76c1 1f3e baf3 c0bb
00000280: 8c4d 083e 1f18 00be 9e26 7d3d 8632 e13d
00000290: 7a27 88bc c9d9 b7bd 85f0 eabc 8f06 d4bd
000002a0: 0dd1 1f3e 3ec8 c83c a6ab fa3d 5a9c e8bd
000002b0: 34d2 383d 4843 c2bc 64e3 2f3e 7c3d 2e3c
000002c0: a8a7 4d3e eaed 043d 7a68 9ebe c5b8 24be
000002d0: 5ee7 143e 106e 8ebd 9ed5 0f3e 4328 8fbc
000002e0: 47f4 80bd 8e60 aabd 0290 07be 2c2b 1d3e
000002f0: 5120 033e 5d51 623c baca 08be fd76 fa3d
00000300: e262 c13e 25fa 813d 9389 2cbe db08 7bbd
00000310: 20a1 973d 050d f83d d9e5 38be 609b 26be
00000320: e6aa 313e 1fff 313d 9d56 ad3e 9cbf d93e
00000330: f844 7ebd 72c2 80be 1cd6 8c3e 5a75 953e
00000340: b5ee b4be 8c59 a3bd ce44 363e 03ca f23d
00000350: f3af 9cbd bff7 58be 14ed d3bd 679e 2c3e
00000360: 9ecd 96bd 2e1b 22bc 3511 a3bd c9a0 cf3d
00000370: cfc3 403d acdf a0bd 9384 913d cb4d aabd
00000380: 4308 653e 971d bd3c 2ed3 28be b57d 31be
00000390: dc94 efbc 709d e93d 65f3 6ebe 7256 073e
000003a0: 58f5 34bd 0fe0 d4bd 9f34 07bd c8c8 2d3e
000003b0: 2d3e d4bd 3ef0 85ba e247 8bbd 601c 1e3e
000003c0: 38c1 913d 7f71 1e3e ec62 cc3d 9ec9 b13c
000003d0: c8f5 033e 68ab 0abe 0fb8 c33d f503 0b3e
000003e0: 2eb4 383b 51e7 1fbe 65b2 463c 4f13 8b3e
000003f0: 01bd 75be 9e50 993d 5a72 8a3c e5e9 2a3e

model.models.many-body.interactions.0.Phi.linear_layers.1.bias f4 [48]
-0.22012094 -0.010884395 -0.0074749766 0.15903927 -0.1511233 0.04407297 -0.16820586 -0.10801832
0.37086236 -0.11354289 0.046954278 -0.24923171 -0.2968182 0.121563666 0.1530855 -0.14472601
0.27976894 -0.0015623834 -0.0107759815 -0.31159055 -0.11910402 -0.054103076 0.07362001 0.3458689
0.16724646 -0.15825479 -0.18056364 -0.08422507 -0.47777024 -0.022750976 0.0846408 0.23690495
0.13783644 -0.060184125 -0.1600372 0.09003392 -0.028441262 -0.07240412 0.031732675 0.07035258
-0.11843396 0.2055401 0.13553119 -0.013508964 -0.0668937 0.026669266 -0.08538361 0.18350971
00000000: 6267 61be 7654 32bc a6f0 f4bb 31db 223e
00000010: 11c0 1abe dc85 343d 283e 2cbe b538 ddbd
00000020: ace1 bd3e 2d89 e8bd 2153 403d 9936 7fbe
00000030: 8ef8 97be 5ff6 f83d 72c2 1c3e 0e33 14be
00000040: e03d 8f3e e3c8 ccba be8d 30bc cc88 9fbe
00000050: cfec f3bd 309b 5dbd 16c6 963d ba15 b13e
00000060: a842 2b3e 8b0d 22be ade5 38be 327e acbd
00000070: 4d9e f4be 4160 babc 2858 ad3d 3697 723e
00000080: ff24 0d3e a183 76bd cbe0 23be b463 b83d
00000090: a6fd e8bc 9c48 94bd 1ffa 013d 0315 903d
000000a0: 818d f2bd 1b79 523e b0c8 0a3e b454 5dbc
000000b0: 90ff 88bd 8179 da3c 9add aebd f8e9 3b3e

model.models.many-body.interactions.1.filter_generator.components.0.0.frequencies f4 [15]
0.9114621 1.527084 2.3909702 3.2174697 3.8886642 4.608695 5.4703264 6.1549053
7.0117607 7.6361394 8.42495 9.301889 9.876605 11.034176 11.721224
00000000: 9555 693f 7d77 c33f a805 1940 06eb 4d40
00000010: e0df 7840 6e7a 9340 ea0c af40 fcf4 c440
00000020: 5860 e040 415b f440 98cc 0641 8ad4 1441
00000030: 9306 1e41 fc8b 3041 228a 3b41

model.models.many-body.interactions.1.filter_generator.components.0.1.weight f4 [48, 15]
-0.045339037 0.10509276 -0.03864047 -0.07668483 -0.17321403 -0.15238975 0.12882392 -0.044002842
-0.1285184 -0.06729791 0.18253085 -0.12473782 -0.040293723 -0.13698545 0.048944052 -0.059608165
0.03500718 0.2232282 0.11655802 0.03639909 -0.1316053 0.030297948 -0.061149713 -0.11059361
0.06396971 -0.14324266 0.2504273 -0.16312152 -0.12426383 -0.19910921 -0.18481311 0.05097363
-0.14967054 0.117369056 0.27812716 0.14288118 -0.17295729 -0.18276288 0.20413254 0.15031114
-0.04461085 -0.13556601 0.017097503 0.13465355 0.19336085 -0.115011476 0.26891983 0.07883043
-0.21255769 -0.012345951 0.4141739 -0.16060846 -0.027108446 0.15460517 0.10668894 -0.0861456
-0.07242496 -0.04299194 0.044184487 0.033604737 -0.0854556 0.57483876 0.25831503 -0.35023877
-0.23062345 0.1571286 -0.05650219 0.3320243 0.12750162 -0.22270998 -0.17433386 0.0896512
0.16988415 0.2155656 -0.019991446 -0.33147407 -0.30923837 -0.04939876 0.2993141 0.39223585
-0.18686499 0.0060528223 0.12897998 0.25069553 0.15591301 -0.2382893 0.01751487 -0.00938819
0.004516692 -0.19967063 -0.12503065 -0.1848808 0.004601122 0.31658882 -0.013257508 0.09926859
0.009720164 -0.12101326 -0.07760995 -0.08538579 0.017308068 0.042548563 -0.16367534 -0.07695121
-0.24786174 0.23780766 -0.21474454 0.20195715 0.090544455 -0.06811059 -0.29011425 0.13982287
0.021299433 0.041079447 -0.2090541 -0.1669508 0.13969965 0.14805046 -0.06530659 0.14563568
0.21295188 -0.84865874 0.02680894 0.51503223 -0.04380797 -0.0052300324 -0.0859992 -0.054273717
0.010789605 0.23068103 0.015358576 0.025259452 0.1281469 0.061736826 -0.029725702 -0.1302563
0.22747993 0.2200384 -0.118608825 -0.09240327 -0.10877006 0.07240924 -0.21523142 0.2164264
-0.016121177 0.2105975 -0.10223379 -0.21959804 -0.015433794 0.07053303 -0.2436586 -0.30581653
0.28087646 0.47956395 -0.19792838 -0.16177231 0.114775844 0.1253825 -0.17015833 -0.054852605
0.03328095 0.08793737 -0.054590676 -0.047463298 0.004707013 0.067263916 0.029110877 0.18826723
-0.30127245 -0.1262443 -0.21664895 -0.048357215 0.13739471 0.13533592 0.27380386 0.08705604
-0.28913853 0.02319867 0.05259797 -0.10585112 -0.14355808 0.24690351 -0.15042318 0.024282217
-0.028451579 0.15317027 0.059832163 0.060766738 -0.11552073 0.19059475 0.1922228 -0.21308002
-0.03712409 -0.032331746 0.12666647 0.29655188 -0.13939303 -0.2443289 -0.36343583 0.20751026
0.02502753 0.24714729 0.1083383 0.09841489 0.20529398 -0.02343316 -0.09072106 -0.04438003
-0.06557438 0.052160643 -0.099608935 0.20999655 0.07525595 0.06504516 -0.19042249 0.06336333
0.24147853 0.14698496 -0.034679934 -0.09010767 -0.1655902 -0.21503137 -0.14907843 -0.13541985
0.29594487 -0.04018878 0.008588476 -0.16520025 -0.2335254 0.186106 0.13762775 0.06095401
0.078609325 0.07567847 -0.14090063 0.014112661 -0.021275463 0.13094154 0.04300643 0.16003488
0.023990817 0.40652984 -0.15391861 -0.5069517 -0.026702195 -0.022993717 0.13075404 0.16813701
0.15406685 -0.10893083 0.18520117 -0.118486375 -0.020631012 -0.051054783 0.030340744 0.03909676
00000000: 6db5 39bd df3a d73d 7845 1ebd f00c 9dbd
00000010: 055f 31be 0f0c 1cbe 6bea 033e 533c 34bd
00000020: 549a 03be 7dd3 89bd 5ee9 3a3e 8b76 ffbd
00000030: 080b 25bd ea45 0cbe 8f79 483d b127 74bd
00000040: b063 0f3d ef95 643e f9b5 ee3d 3617 153d
00000050: 8ac3 06be 6733 f83c 1f78 7abd e77e e2bd
00000060: 8d02 833d 34ae 12be 0238 803e 5409 27be
00000070: 097e febd 49e3 4bbe a63f 3dbe bac9 503d
00000080: 3c43 19be 305f f03d af66 8e3e 724f 123e
00000090: b71b 31be 3126 3bbe 1f08 513e 2aeb 193e
000000a0: deb9 36bd d1d1 0abe 1010 8c3c 9fe2 093e
000000b0: 6300 463e 238b ebbd dcaf 893e d971 a13d
000000c0: b9a8 59be ac46 4abc 9a0e d43e 8b76 24be
000000d0: 8812 debc d150 1e3e bb7f da3d 1b6d b0bd
000000e0: 8a53 94bd 5118 30bd cbfa 343d 1fa5 093d
000000f0: 5803 afbd a228 133f de41 843e 7f52 b3be
00000100: 8e28 6cbe 52e6 203e d76e 67bd 17ff a93e
00000110: c98f 023e 160e 64be 9384 32be 0c9b b73d
00000120: 1cf6 2d3e 3bbd 5c3e 1ac5 a3bc f8b6 a9be
00000130: 7e54 9ebe 5b56 4abd b33f 993e 23d3 c83e
00000140: 8959 3fbe c156 c63b 5413 043e 2a5b 803e
00000150: a9a7 1f3e 1c02 74be 587b 8f3c ecd0 19bc
00000160: c200 943b 7576 4cbe 0908 00be 6451 3dbe
00000170: 02c5 963b ee17 a23e 0536 59bc 554d cb3d
00000180: 5341 1f3c cdd5 f7bd f7f1 9ebd bfde aebd
00000190: a6c9 8d3c 6747 2e3d 829a 27be 9998 9dbd
000001a0: 78cf 7dbe da83 733e fee5 5bbe dbcd 4e3e
000001b0: 5f6f b93d 917d 8bbd db89 94be ba2d 0f3e
000001c0: 267c ae3c ec42 283d 4712 56be 27f5 2abe
000001d0: 6d0d 0f3e 8a9a 173e 76bf 85bd 8521 153e
000001e0: 0f10 5a3e b341 59bf 6c9e db3c 27d9 033f
000001f0: fc6f 33bd b160 abbb 5920 b0bd 1e4e 5ebd
00000200: e2c6 303c a637 6c3e 89a2 7b3c e9ec ce3c
00000210: f138 033e c1df 7c3d 5183 f3bc e861 05be
00000220: 80f0 683e bf51 613e 2fe9 f2bd ed3d bdbd
00000230: d6c2 debd 4c4b 943d a065 5cbe e29e 5d3e
00000240: 8f10 84bc dfa6 573e f35f d1bd 4fde 60be
00000250: 06de 7cbc 9f73 903d a481 79be fc93 9cbe
00000260: 0acf 8f3e 6889 f53e bdad 4abe a4a7 25be
00000270: 990f eb3d 4564 003e fc3d 2ebe 20ad 60bd
00000280: 9b51 083d 8218 b43d 799a 5fbd e068 42bd
00000290: 493d 9a3b aac1 893d ef79 ee3c 20c9 403e
000002a0: 6240 9abe 3046 01be 39d9 5dbe 3712 46bd
000002b0: 33b1 0c3e 8095 0a3e 0530 8c3e 704a b23d
000002c0: f709 94be 230b be3c f870 573d 79c8 d8bd
000002d0: e400 13be 46d4 7c3e 8908 1abe 80eb c63c
000002e0: 4913 e9bc abd8 1c3e 9212 753d 8be6 783d
000002f0: 2296 ecbd 452b 433e 0ed6 443e a631 5abe
00000300: 6e0f 18bd 4b6e 04bd dbb4 013e a6d5 973e
00000310: 0cbd 0ebe 5b31 7abe 4314 babe 927d 543e
00000320: 8906 cd3c 2e14 7d3e 78e0 dd3d bf8d c93d
00000330: 9638 523e e6f6 bfbc f7cb b9bd d6c7 35bd
00000340: dc4b 86bd 66a6 553d c5ff cbbd 5609 573e
00000350: cb1f 9a3d 6636 853d 1dfe 42be a2c4 813d
00000360: 2646 773e 3a83 163e 8c0c 0ebd 5f8a b8bd
00000370: 7a90 29be 2f31 5cbe 04a8 18be 80ab 0abe
00000380: 1686 973e fd9c 24bd aeb6 0c3c 412a 29be
00000390: 4821 6fbe 9292 3e3e 4aee 0c3e e9aa 793d
000003a0: edfd a03d 50fd 9a3d 4148 10be ca38 673c
000003b0: e149 aebc 8a15 063e 8327 303d 2fe0 233e
000003c0: 6488 c43c ae24 d03e d79c 1dbe 96c7 01bf
000003d0: 90be dabc 525d bcbc 63e4 053e 1c2c 2c3e
000003e0: b3c3 1d3e 2117 dfbd 60a5 3d3e fca8 f2bd
000003f0: 5e02 a9bc d21e 51bd 278d f83c ed23 203d

model.models.many-body.interactions.1.filter_generator.components.0.1.bias f4 [48]
-0.11140886 -0.04442787 -0.066830255 0.07417039 -0.12970905 -0.15536392 -0.28243738 -0.093945734
0.06250098 0.16530752 0.009797393 0.13305171 0.14642301 -0.091083646 -0.25487703 -0.035707124
-0.36182398 0.2297011 0.36692846 -0.054633122 0.24477647 -0.5328219 -0.18984471 0.3575648
0.08485322 -0.047692053 0.15516245 -0.41944587 0.20228013 -0.3324649 0.16154575 0.05501536
-0.10694212 0.34170854 0.4279812 0.4203171 0.037294295 -0.015566493 0.009939918 -0.16331983
-0.09511381 -0.4082389 0.03957216 -0.14810368 -0.08336293 -0.22469103 0.3416735 -0.06766701
00000000: 542a e4bd 00fa 35bd 4dde 88bd a5e6 973d
00000010: 73d2 04be b817 1fbe a29b 90be 9f66 c0bd
00000020: 8400 803d 6046 293e 3f85 203c b53e 083e
00000030: eaef 153e 108a babd 3e7f 82be a241 12bd
00000040: fe40 b9be c436 6b3e 0cde bb3e fbc6 5fbd
00000050: afa6 7a3e 0467 08bf a766 42be bc12 b73e
00000060: 86c7 ad3d be58 43bd e8e2 1e3e 9cc1 d6be
00000070: 8622 4f3e d738 aabe 406c 253e c957 613d
00000080: 7804 dbbd 6cf4 ae3e 5a20 db3e ce33 d73e
00000090: e7c1 183d 9b0a 7fbc 0adb 223c 503d 27be
000000a0: 07cb c2bd b004 d1be 6b16 223d 7ea8 17be
000000b0: 2fba aabd 6815 66be d4ef ae3e 0095 8abd

model.models.many-body.interactions.1.filter_generator.components.1.coefficients f4 [3]
-28.0 48.0 -21.0
00000000: 0000 e0c1 0000 4042 0000 a8c1

model.models.many-body.interactions.1.Phi.linear_layers.0.weight f4 [16, 16]
-0.060369994 -0.114633664 -0.17318116 0.008776212 0.023653837 0.4307199 -0.015653895 -0.13578747
0.197786 -0.20509444 -0.11642689 0.067591645 0.017894128 -0.082945585 0.28124005 -0.051296428
-0.20680591 0.01754266 0.17387703 0.042090535 -0.029928148 -0.017924724 0.060860764 -0.16478686
0.3886835 -0.049544908 0.19828632 -0.40021712 0.06357052 -0.15726413 -0.21355131 -0.09938243
0.2331548 -0.048698395 0.13892192 0.15059496 -0.041826833 0.11466537 -0.3014774 0.13914649
0.26794717 0.12450946 -0.22645585 0.31788725 0.11385747 0.009129061 -0.33326042 -0.24181104
-0.13007243 -0.106985584 -0.33128884 -0.32342383 -0.31943566 -0.12131331 -0.07115277 -0.17395253
0.026227634 0.26620683 -0.11694004 0.11245103 0.049723234 -0.14912006 0.18364349 -0.14034423
0.12072446 -0.2793572 0.24456257 0.124335594 -0.06518072 -0.14842576 -0.011962511 -0.035855163
0.22362885 0.09220335 0.13629444 -0.081524506 0.48535338 0.27326062 -0.068612665 0.25423354
-0.2674902 0.1606614 0.0018788803 0.11049083 -0.20009635 -0.032200478 -0.14963803 0.19424346
0.3240492 0.01904628 -0.06814847 -0.016983442 0.00036973035 -0.15059832 0.26235834 0.09473615
-0.068483725 -0.13665 0.20915572 -0.00738249 0.16841137 -0.045906536 -0.049988136 0.21287957
0.12010341 0.285576 -0.06692658 -0.08274281 -0.45638433 -0.18959254 0.052152164 -0.12053853
-0.07732436 -0.07730074 0.09040064 -0.044570494 0.19315434 -0.2771155 0.2072868 0.22883308
-0.07672867 0.15590459 0.028867489 -0.18583451 0.16711232 -0.08423404 0.13927896 -0.12539205
-0.06048791 -0.039245177 -0.22015376 -0.07754979 0.06544602 -0.008697923 -0.23214339 -0.19272135
0.4285207 0.124385096 -0.14540692 -0.114772744 -0.62748325 -0.17266706 -0.08912424 0.003487044
0.11089827 -0.073975146 -0.07045567 -0.08416206 -0.0931969 -0.27737987 0.22314903 -0.014460634
0.12441163 0.14307545 -0.2097755 0.091559395 -0.16196832 0.21371897 0.008104011 -0.08557951
-0.26437536 -0.15155263 0.028134651 -0.09094954 -0.22870101 -0.09681594 0.33270907 0.2351581
0.08310385 0.47983152 0.056323808 -0.3206443 0.096232645 -0.13348867 -0.052019384 0.0008444082
0.14466953 0.051209673 0.17484297 -0.2028042 -0.24008106 0.16152261 -0.18575294 0.059342317
-0.11825087 -0.10719827 0.1373811 0.102865554 -0.18048497 -0.0034002287 -0.07829401 0.26787803
-0.13074796 0.114696965 -0.17853579 0.2710214 -0.19284564 -0.027011048 0.08312772 0.19224061
0.03553671 0.24951993 -0.061000608 0.11595461 0.27956557 0.15584898 0.14708464 0.1374712
-0.18641369 -0.21626933 -0.18161601 0.23373029 -0.015370021 -0.13679533 0.19377275 0.08684601
-0.23914823 -0.11462011 -0.19460624 -0.17937756 0.27015337 -0.04934859 -0.18109265 -0.041576903
0.1287948 -0.063999765 -0.06940055 0.18295857 -0.009435745 -0.12289388 -0.0033424576 0.11997916
0.099999696 0.02256771 -0.14209892 0.05094897 -0.13447906 -0.1624542 0.030760605 0.07695557
-0.14239018 -0.19077212 -0.16842787 -0.26315376 0.007031501 -0.0434678 -0.23390871 0.11944994
0.07497495 0.36300197 -0.12152418 0.31485507 -0.10855135 0.10828767 0.11768872 0.09524958
00000000: 8746 77bd 0ec5 eabd 6756 31be 1aca 0f3c
00000010: b1c5 c13c 5287 dc3e 993c 80bc df0b 0bbe
00000020: 6a88 4a3e 4704 52be 3971 eebd 7d6d 8a3d
00000030: b596 923c 60df a9bd b2fe 8f3e 341c 52bd
00000040: eec4 53be a0b5 8f3c d20c 323e 2067 2c3d
00000050: e02b f5bc dfd6 92bc 2349 793d e3bd 28be
00000060: 8601 c73e 9aef 4abd 920b 4b3e 42e9 ccbe
00000070: 4331 823d d909 21be 32ad 5abe 0489 cbbd
00000080: 22c0 6e3e f877 47bd 8c41 0e3e 9135 1a3e
00000090: 9d52 2bbd add5 ea3d 3f5b 9abe 6b7c 0e3e
000000a0: 5f30 893e d1fe fe3d 0be4 67be 1ec2 a23e
000000b0: 1b2e e93d 0f92 153c 1ca1 aabe 509d 77be
000000c0: b531 05be 421b dbbd b19e a9be cf97 a5be
000000d0: 128d a3be 1d73 f8bd 8bb8 91bd 9d20 32be
000000e0: 56db d63c 434c 883e 427e efbd ba4c e63d
000000f0: 97aa 4b3d eeb2 18be 0a0d 3c3e 66b6 0fbe
00000100: 633e f73d e807 8fbe 9c6e 7a3e a9a3 fe3d
00000110: 787d 85bd ecfc 17be 68fe 43bc dddc 12bd
00000120: f6fe 643e 1cd5 bc3d c590 0b3e 52f6 a6bd
00000130: 3d80 f83e d1e8 8b3e cc84 8cbd e62a 823e
00000140: 7af4 88be 6c84 243e c344 f63a 0449 e23d
00000150: 0fe6 4cbe a6e4 03bd b63a 19be c2e7 463e
00000160: c7e9 a53e f206 9c3c 6d91 8bbd dc20 8bbc
00000170: 5ed8 c139 7236 1abe d553 863e 0705 c23d
00000180: 3241 8cbd faed 0bbe eb2c 563e d1e8 f1bb
00000190: 0874 2c3e 7e08 3cbd 5cc0 4cbd 1afd 593e
000001a0: c7f8 f53d 0437 923e ce10 89bd 1075 a9bd
000001b0: 35ab e9be 8c24 42be 829d 553d e8dc f6bd
000001c0: 3c5c 9ebd da4f 9ebd f923 b93d 8d8f 36bd
000001d0: 40ca 453e 15e2 8dbe fe42 543e 3853 6a3e
000001e0: ec23 9dbd 74a5 1f3e 837b ec3c 674b 3ebe
000001f0: 7e1f 2b3e e582 acbd 259f 0e3e c666 00be
00000200: 2cc2 77bd 8dbf 20bd fd6f 61be 6dd2 9ebd
00000210: 9008 863d bc81 0ebc ffb6 6dbe bf58 45be
00000220: 1167 db3e 9dbd fe3d 8de5 14be f90d ebbd
00000230: bea2 20bf a2cf 30be c586 b6bd e486 643b
00000240: a21e e33d 4880 97bd 104b 90bd 285d acbd
00000250: 04de bebd bc04 8ebe 2e81 643e 4cec 6cbc
00000260: 86cb fe3d 5f82 123e 64cf 56be 7e83 bb3d
00000270: 06db 25be 25d9 5a3e b0c6 043c 4f44 afbd
00000280: 355c 87be 9d30 1bbe a47a e63c c143 babd
00000290: 9930 6abe 7047 c6bd d858 aa3e 49cd 703e
000002a0: 5a32 aa3d 7aac f53e cbb3 663d 7d2b a4be
000002b0: 9f15 c53d 41b1 08be 4712 55bd 465b 5d3a
000002c0: 4024 143e 3cc1 513d 090a 333e e7ab 4fbe
000002d0: cfd7 75be 2f66 253e 0536 3ebe ee10 733d
000002e0: 832d f2bd c48a dbbd a2ad 0c3e 2dab d23d
000002f0: 0dd1 38be 5fd6 5ebb 9c58 a0bd 4f27 893e
00000300: cbe2 05be 3ee6 ea3d 16d2 36be 51c3 8a3e
00000310: 5479 45be 4646 ddbc de3e aa3d b9da 443e
00000320: f18e 113d 2782 7f3e c6db 79bd 9c79 ed3d
00000330: 3823 8f3e e096 1f3e 5b9d 163e 40c5 0c3e
00000340: 3be3 3ebe b575 5dbe 8cf9 39be fe56 6f3e
00000350: 8ad2 7bbc 1314 0cbe 5d6c 463e 52dc b13d
00000360: 46e3 74be f3bd eabd dc46 47be c0ae 37be
00000370: 8b51 8a3e bf21 4abd 5a70 39be 8b4c 2abd
00000380: c9e2 033e 4f12 83bd e021 8ebd 7e59 3b3e
00000390: 6298 1abc c9af fbbd 220d 5bbb a2b7 f53d
000003a0: a4cc cc3d ebdf b83c 6182 11be deaf 503d
000003b0: e1b4 09be 655a 26be aafd fb3c e29a 9d3d
000003c0: bbce 11be c459 43be 5b78 2cbe 17bc 86be
000003d0: 8168 e63b 4b0b 32bd c485 6fbe 2ca2 f43d
000003e0: 778c 993d 65db b93e abe1 f8bd af34 a13e
000003f0: 2c50 debd edc5 dd3d c906 f13d 3612 c33d

model.models.many-body.interactions.1.Phi.linear_layers.0.bias f4 [16]
-0.10212333 0.06479336 0.17122899 0.09991444 -0.06139398 -0.11946658 -0.057990342 0.035477195
-0.19806474 -0.0143151395 -0.111734755 -0.0663016 0.026041407 -0.05170124 0.17369138 0.1452825
00000000: 0926 d1bd 62b2 843d a756 2f3e f19f cc3d
00000010: 4178 7bbd e5aa f4bd 4887 6dbd 8950 113d
00000020: 7cd1 4abe 0c8a 6abc 31d5 e4bd 22c9 87bd
00000030: ca54 d53c aec4 53bd 27dc 313e f0c4 143e
